checkpoints/model_up_2_epoch_100.pth (torch_old, 50087 bytes, 15 tensors)

first_part.0.weight f4 [56, 1, 5, 5]
-0.068941176 0.00029582254 -0.109956704 0.09056019 -0.13566673 0.15218522 -0.16213538 -0.18187562
-0.13716558 0.11371658 -0.07247541 0.030572545 -0.21577942 -0.14456047 -0.070131324 -0.033518296
-0.18845254 0.09028796 -0.04564963 0.06813324 0.15125866 0.028430447 0.029412406 0.18760355
-0.09043003 0.031325217 -0.11000382 0.12103284 0.13294923 -0.2010443 0.15109369 0.119767554
0.17330848 0.11481968 0.16986397 0.022597374 -0.19226266 -0.07170161 -0.14030738 0.00091916975
0.0058829566 -0.11062107 -0.01764762 0.23454343 0.0031776591 -0.045733415 -0.03868434 0.08734778
0.17707817 0.06753521 0.08542625 0.047391597 0.040815633 0.08545703 -0.0075147594 -0.17855349
-0.14809103 0.15653047 0.020886064 -0.14981507 0.037907053 0.079056084 -0.2944762 -0.18035896
-0.0958668 0.006532003 -0.11214579 -0.11023475 -0.21583685 0.098843314 0.15724234 0.09893449
-0.15600744 -0.15094535 0.0890863 0.076183595 0.11622569 -0.15541552 0.03926579 0.18508574
0.13480029 -0.018071126 -0.030426819 -0.082098015 -0.071797945 -0.1158215 -0.10224891 0.26520523
0.13236657 0.09975533 -0.17205285 0.164344 0.11288029 0.14751361 -0.09750491 0.125265
0.22700922 0.08162482 0.14651622 0.0048153345 0.1385736 -0.15681113 0.020687917 -0.11666359
-0.055621047 -0.05979354 0.02522528 0.20799643 0.11646277 -0.004046241 0.14968465 -0.08517496
0.12381463 -0.0020357436 -0.031996194 0.029064553 -0.13624874 0.04524005 0.07812512 0.17575946
-0.07567993 0.07169482 0.21747033 -0.08536537 0.17684968 -0.14564873 0.061087925 0.06887607
0.028424762 0.12512338 -0.12018182 0.07173578 0.020232743 -0.16977036 -0.08227717 -0.13012247
0.22770576 0.18080634 0.10875605 -0.026321363 0.038705945 0.07652888 0.22233963 0.27973488
0.06635195 -0.026350485 -0.044564225 0.08987068 -0.104994036 -0.11977543 -0.15287943 -0.07777112
0.01382872 0.1202317 0.053151697 0.14173274 -0.13080904 0.02362369 -0.1715173 0.09530844
0.03662374 0.21076627 -0.1243312 0.17513886 0.1648237 0.15439966 0.047483083 0.20586106
0.12946557 0.14446364 -0.023095557 -0.15548904 0.004902291 0.034022443 -0.14405333 -0.14191441
-0.18146151 -0.068657905 0.17603843 0.011595275 -0.057076823 0.03132433 0.12307578 -0.20044704
-0.19104165 -0.09713821 -0.024755085 0.19928925 0.17261015 -0.20195965 -0.1830338 -0.12073
0.15392224 0.17606272 -0.17677203 -0.08909095 0.08906045 -0.12532565 0.15536772 0.02814411
-0.056832273 -0.0015077172 0.045161523 -0.082880534 -0.15090254 -0.001597229 0.0017097255 0.01809809
-0.021164522 0.13401797 -0.04511789 -0.037084874 0.029888835 -0.14589125 0.052276663 -0.037474357
0.08997169 -0.14123523 0.0062974296 0.035156824 -0.16668093 -0.1505713 0.0911348 -0.047734905
0.116642624 -0.17629014 -0.08476018 -0.15603039 0.07627895 -0.011329029 -0.012434501 -0.038217057
-0.16627528 0.041314866 -0.0034480167 -0.122042365 0.055211075 -0.018127711 -0.22112463 0.09273942
0.13133138 -0.040004175 -0.1294374 0.004571758 0.15011756 0.21008042 -0.1391223 -0.083384186
0.16855359 0.11266049 0.12593836 -0.08424953 0.18784745 -0.15070783 -0.006665941 0.004701825
00000000: 0831 8dbd a118 9b39 fb30 e1bd 9f77 b93d
00000010: 38ec 0abe 71d6 1b3e d106 26be 9a3d 3abe
00000020: 2275 0cbe 3de4 e83d fd6d 94bd 4673 fa3c
00000030: 48f5 5cbe a907 14be 03a1 8fbd 7b4a 09bd
00000040: b4f9 40be e5e8 b83d 1bfb 3abd 7189 8b3d
00000050: 8de3 1a3e f8e6 e83c 49f2 f03c 251b 403e
00000060: 6133 b9bd df4e 003d af49 e1bd 11e0 f73d
00000070: d823 083e 8fde 4dbe 4eb8 1a3e b148 f53d
00000080: c777 313e 9526 eb3d d2f0 2d3e 211e b93c
00000090: 81e0 44be 4bd8 92bd bdac 0fbe 70f4 703a
000000a0: d1c5 c03b 4d8d e2bd be91 90bc 272c 703e
000000b0: 4640 503b f652 3bbd 7873 1ebd 65e3 b23d
000000c0: fb53 353e e64f 8a3d f5f3 ae3d b11d 423d
000000d0: 4b2e 273d 1804 af3d 5f3e f6bb bad6 36be
000000e0: 2da5 17be 8649 203e 4019 ab3c 1f69 19be
000000f0: 6d44 1b3d 28e8 a13d 96c5 96be 05b0 38be
00000100: d055 c4bd 6a0a d63b b1ac e5bd c2c2 e1bd
00000110: 5604 5dbe 5d6e ca3d 2304 213e 2a9e ca3d
00000120: 6ac0 1fbe 6b91 1abe e172 b63d 2506 9c3d
00000130: bc07 ee3d 3f25 1fbe 2ad5 203d 1e87 3d3e
00000140: 1609 0a3e e609 94bc aa41 f9bc 0123 a8bd
00000150: cd0a 93bd d333 edbd e067 d1bd fbc8 873e
00000160: 1a8b 073e 864c cc3d 9f2e 30be cb49 283e
00000170: c82d e73d cf0d 173e a7b0 c7bd 7845 003e
00000180: 1b75 683e ea2a a73d 5908 163e f4c9 9d3b
00000190: 3de6 0d3e 1993 20be b579 a93c 52ed eebd
000001a0: e5d2 63bd 12ea 74bd 3fa5 ce3c 04fd 543e
000001b0: 0884 ee3d 5496 84bb ef46 193e 3670 aebd
000001c0: 8692 fd3d 1c6a 05bb 710e 03bd c918 ee3c
000001d0: ca84 0bbe a14d 393d 1000 a03d 4afa 333e
000001e0: 14fe 9abd bcd4 923d 8bb0 5e3e 0ad4 aebd
000001f0: 1518 353e f124 15be 5537 7a3d e60e 8d3d
00000200: 0cdb e83c 5820 003e e321 f6bd 35ea 923d
00000210: 23bf a53c 48d8 2dbe ef80 a8bd d33e 05be
00000220: b32b 693e 4c25 393e 7ebb de3d e69f d7bc
00000230: 208a 1e3d 2cbb 9c3d 00ad 633e 6939 8f3e
00000240: 88e3 873d f9dc d7bc fa88 36bd 1e0e b83d
00000250: 1d07 d7bd d24c f5bd 6d8c 1cbe 7746 9fbd
00000260: db91 623c 0a3c f63d 98b5 593d 6322 113e
00000270: cef2 05be 7886 c13c 3ba2 2fbe 1231 c33d
00000280: c602 163d 1dd3 573e 5ba1 febd 9a57 333e
00000290: 8bc7 283e f21a 1e3e 9f7d 423d 3ecd 523e
000002a0: 9f92 043e 47ee 133e e532 bdbc 8538 1fbe
000002b0: 66a3 a03b 1e5b 0b3d b782 13be 0352 11be
000002c0: 0cd1 39be 849c 8cbd 6b43 343e 1cfa 3d3c
000002d0: 63c9 69bd f14d 003d 280f fc3d fd41 4dbe
000002e0: 6ca0 43be 66f0 c6bd 2dcb cabc 7b12 4c3e
000002f0: b7c0 303e 83ce 4ebe 366d 3bbe 4a41 f7bd
00000300: cb9d 1d3e c949 343e ba03 35be 5175 b6bd
00000310: 5365 b63d 5e55 00be b718 1f3e 7a8e e63c
00000320: f5c8 68bd 989e c5ba 4afb 383d 45bd a9bd
00000330: 3286 1abe 1d5a d1ba de18 e03a 7242 943c
00000340: 3861 adbc 023c 093e 89cd 38bd 4fe6 17bd
00000350: 6ed9 f43c 8464 15be 0e20 563d b67e 19bd
00000360: 1443 b83d f89f 10be ab5a ce3b 9a00 103d
00000370: 68ae 2abe 5d2f 1abe e2a4 ba3d ad85 43bd
00000380: 54e2 ee3d 6785 34be bf96 adbd 6ec6 1fbe
00000390: 2338 9c3d 649d 39bc 14ba 4bbc 7d89 1cbd
000003a0: 1144 2abe c739 293d 1ff8 61bb 59f1 f9bd
000003b0: 0225 623d 9180 94bc 7f6e 62be 2aee bd3d
000003c0: bc7b 063e 6bdb 23bd 3d8b 04be b0ce 953b
000003d0: 6bb8 193e 521f 573e 1476 0ebe 54c5 aabd
000003e0: 5099 2c3e 8bba e63d fcf5 003e 058b acbd
000003f0: 155b 403e 2753 1abe f76d dabb c411 9a3b

first_part.0.bias f4 [56]
0.19393899 0.02230833 -0.083986945 0.116118744 -0.15896672 0.040981866 0.12896182 0.13612333
-0.1597455 -0.082872055 -0.031790465 -0.12674865 0.10265978 0.043376602 0.042798057 0.14042167
-0.064856574 0.10809672 0.039701 -0.13674104 -0.0960555 -0.10019416 0.11025276 -0.12111216
-0.191993 -0.035737984 -0.027939977 -0.059215765 -0.12051593 0.19315165 0.18874544 -0.15505928
-0.1036671 0.0436063 -0.13994893 -0.0700049 -0.11387375 -0.05000864 0.19720878 0.17895585
-0.020831944 -0.19660245 -0.08691354 0.084434405 -0.14522071 0.15544899 0.009891194 0.10566761
0.11501367 0.14644387 0.13054349 0.19845656 -0.021520317 -0.09890703 0.08962224 0.15783888
00000000: f197 463e f5bf b63c 5901 acbd aacf ed3d
00000010: 2cc8 22be 9adc 273d 910e 043e ea63 0b3e
00000020: 5394 23be d3b8 a9bd b836 02bd 66ca 01be
00000030: 4a3f d23d aaab 313d 044d 2f3d b3ca 0f3e
00000040: 86d3 84bd d061 dd3d 849d 223d d805 0cbe
00000050: bfb8 c4bd 9932 cdbd 33cc e13d a709 f8bd
00000060: d099 44be fe61 12bd 61e2 e4bc 3b8c 72bd
00000070: 0ed1 f6bd 8cc9 453e 7c46 413e dcc7 1ebe
00000080: 6b4f d4bd 859c 323d c64e 0fbe bb5e 8fbd
00000090: a436 e9bd dcd5 4cbd 19f1 493e 3440 373e
000000a0: c1a7 aabc 2752 49be baff b1bd f2eb ac3d
000000b0: bdb4 14be 052e 1f3e ad0e 223c 4368 d83d
000000c0: 498c eb3d 62f5 153e 31ad 053e 3238 4b3e
000000d0: 604b b0bc c58f cabd dd8b b73d 84a0 213e

mid_part.0.0.weight f4 [12, 56, 1, 1]
-0.03503799 0.12825611 0.105858974 0.038475774 0.13122383 -0.0035052178 0.066597626 -0.14455935
0.046994217 0.034351762 0.05009225 0.08356647 -0.069479786 0.1983585 0.14217138 -0.06884087
-0.025952756 0.0053250464 0.05005522 -0.07161014 0.00035090785 -0.12442422 -0.10555378 0.09549937
0.116292134 0.046793997 0.007309162 0.08499537 -0.071264446 0.021567823 0.076361254 0.09522983
0.065470494 -0.04110167 0.009217713 0.060229894 0.09413503 -0.12617736 -0.007881248 -0.10579476
-0.05047329 0.040251307 0.019955594 -0.11616266 -0.123454 0.026960589 0.055794332 0.018340478
0.010206243 0.04483844 -0.02847641 0.081104696 -0.21602795 -0.13564697 -0.14324243 0.0101160165
-0.13582945 0.0032334288 -0.012606351 -0.11166554 0.13876808 0.0028194075 0.103223525 0.14835669
-0.049625874 -0.049115803 0.13992915 0.01938092 0.09443854 0.045211818 0.081542075 -0.12995712
0.020972678 0.09893035 -0.024708806 -0.11618186 0.014939764 0.0260602 0.006496536 0.040564895
0.07214131 -0.08535207 0.027569367 -0.10083351 0.04665683 -0.10431256 -0.06113376 0.017368667
0.08121886 0.09003815 -0.10128668 -0.12553985 0.0893871 -0.06862527 -0.1291942 0.016911073
0.10341302 0.01640568 -0.024894254 -0.123116665 0.12880124 0.095410116 0.116584435 0.08180672
-0.08356865 -0.123222195 -0.028711602 0.043845586 -0.09252909 0.06596467 -0.045882285 -0.00040028687
-0.021508258 0.0998827 0.009956014 0.022386517 0.044629544 0.045112826 -0.03315884 0.023047281
0.033763077 -0.11711058 0.019351654 -0.12210875 -0.135581 -0.00893714 0.02918293 0.0059969546
0.030485053 -0.03650279 -0.036445826 -0.0013125754 -0.08797567 0.04413822 0.05261585 -0.019790486
0.039978627 0.053872116 0.1778553 -0.022141472 -0.13686912 -0.1274077 -0.013497086 -0.10247816
-0.12524173 -0.041070707 -0.034631267 -0.017524406 0.019011967 0.08513586 0.13722806 -0.056150105
-0.14066201 0.1231494 0.1247383 0.124996774 0.054140493 0.084742635 0.021708194 -0.102337494
-0.17795245 -0.09911138 0.013780912 -0.055234954 -0.002047362 0.05410925 -0.11163443 0.023910528
0.14615698 0.096510455 0.01254478 -0.053529277 -0.06808646 -0.0017089711 -0.09027403 0.12875259
-0.0028951576 -0.05969564 -0.09089823 -0.062133092 -0.09952555 -0.06990721 -0.15371674 0.07605851
-0.035617433 0.019935621 -0.010240215 -0.06986496 -0.06337844 -0.01699738 -0.10991095 -0.06419272
0.037105322 -0.07279397 0.1124243 0.12377779 0.0693056 0.12444982 -0.05005284 0.06517901
0.0022383605 0.17195669 -0.12157598 -0.033103433 0.08487334 0.07461856 -0.12829928 0.114182696
0.07838479 0.1145949 -0.07912292 -0.05681285 0.012240281 0.10656673 0.05214816 -0.12154301
0.114096135 -0.0067404904 -0.05209338 0.10528122 0.1857116 0.01324202 -0.059943486 0.11723391
-0.033161264 -0.05369108 -0.02337434 -0.11815178 -0.058035538 0.09548192 0.011335613 -0.09204984
0.10747045 -0.019004963 -0.10069739 -0.057870064 -0.07363436 0.14201464 0.109982185 0.002826886
0.1956868 0.14049274 0.012610641 0.088517494 0.06295031 0.037636425 0.1632992 -0.106798545
-0.12627624 -0.15811527 0.1441134 -0.10149173 0.11722253 -0.029195884 -0.117047615 0.00081322226
00000000: ff83 0fbd 9255 033e 97cc d83d c698 1d3d
00000010: 8a5f 063e ccb7 65bb 5664 883d 5e07 14be
00000020: 027d 403d 6fb4 0c3d 882d 4d3d e624 ab3d
00000030: 6b4b 8ebd 7e1e 4b3e 6095 113e 71fc 8cbd
00000040: e09a d4bc ba7d ae3b b406 4d3d 56a8 92bd
00000050: 0efa b739 20d2 febd 952c d8bd 2c95 c33d
00000060: 922a ee3d 10ab 3f3d b281 ef3b 0d12 ae3d
00000070: 18f3 91bd 01af b03c 4a63 9c3d db07 c33d
00000080: 6515 863d 3a5a 28bd e405 173c 9fb3 763d
00000090: dec9 c03d a334 01be 5a20 01bc ecaa d8bd
000000a0: 15bd 4ebd 8ede 243d ea79 a33c b0e6 edbd
000000b0: 73d5 fcbd 74dc dc3c 9988 643d c53e 963c
000000c0: 1638 273c 83a8 373d 5c47 e9bc 381a a63d
000000d0: 6e36 5dbe 0ae7 0abe 25ae 12be a6bd 253c
000000e0: e016 0bbe efe7 533b de8a 4ebc e7b0 e4bd
000000f0: 3819 0e3e cfc5 383b db66 d33d d1ea 173e
00000100: 8044 4bbd a72d 49bd 9649 0f3e bcc4 9e3c
00000110: fe68 c13d 0730 393d 88ff a63d 7b13 05be
00000120: e5ce ab3c ff9b ca3d 1f6a cabc c1f0 edbd
00000130: e9c5 743c 337c d53c e5e0 d43b 6027 263d
00000140: d3be 933d 11cd aebd 27d9 e13c cd81 cebd
00000150: 3b1b 3f3d d3a1 d5bd 6567 7abd bc48 8e3c
00000160: 1356 a63d ec65 b83d 646f cfbd 858d 00be
00000170: 9510 b73d 688b 8cbd 7c4b 04be 1789 8a3c
00000180: 35ca d33d 3465 863c 09ef cbbc 9724 fcbd
00000190: 79e4 033e 6166 c33d d2c3 ee3d 488a a73d
000001a0: 0a26 abbd eb5b fcbd 9834 ebbc 6e97 333d
000001b0: e47f bdbd 7c18 873d 10ef 3bbd 98dd d1b9
000001c0: 1632 b0bc 4d8f cc3d 8d1e 233c ee63 b73c
000001d0: 78cd 363d 3ac8 383d 90d1 07bd a7cd bc3c
000001e0: 274b 0a3d acd7 efbd 5c87 9e3c 2714 fabd
000001f0: bfd5 0abe 156d 12bc 0a11 ef3c 1a82 c43b
00000200: cabb f93c f383 15bd 3848 15bd b90a acba
00000210: 972c b4bd 47ca 343d b883 573d a81f a2bc
00000220: a1c0 233d 02a9 5c3d b31f 363e 0862 b5bc
00000230: 6b27 0cbe 2a77 02be e222 5dbc 12e0 d1bd
00000240: 5e3f 00be c239 28bd 84d9 0dbd 588f 8fbc
00000250: fcbe 9b3c b65b ae3d 8385 0c3e a7fd 65bd
00000260: b409 10be c135 fc3d cb76 ff3d 4ffe ff3d
00000270: 6cc2 5d3d 8c8d ad3d 62d5 b13c 5296 d1bd
00000280: 2b39 36be e8fa cabd 56c9 613c 0c3e 62bd
00000290: 092d 06bb a9a1 5d3d 98a0 e4bd 03e0 c33c
000002a0: 2daa 153e 46a7 c53d 9f88 4d3c 8441 5bbd
000002b0: ea70 8bbd 8eff dfba 97e1 b8bd b8d7 033e
000002c0: afbc 3dbb 6a83 74bd da28 babd 457f 7ebd
000002d0: 0dd4 cbbd 832b 8fbd ec67 1dbe 90c4 9b3d
000002e0: 96e3 11bd 0750 a33c 93c6 27bc 5c15 8fbd
000002f0: 8ecc 81bd 173e 8bbc fe18 e1bd 7977 83bd
00000300: c0fb 173d 0115 95bd b63e e63d 367f fd3d
00000310: 18f0 8d3d 8cdf fe3d 3504 4dbd 937c 853d
00000320: 75b1 123b 6a15 303e d4fc f8bd 7797 07bd
00000330: 13d2 ad3d 9ed1 983d e360 03be 9ed8 e93d
00000340: 3488 a03d bbb0 ea3d 330b a2bd 97b4 68bd
00000350: 768b 483c a83f da3d 4f99 553d 8beb f8bd
00000360: 3cab e93d 55df dcbb de5f 55bd ae9d d73d
00000370: 2f2b 3e3e 0ff5 583c 4d87 75bd 5518 f03d
00000380: 1bd4 07bd 2eeb 5bbd 8b7b bfbc 8ff9 f1bd
00000390: acb6 6dbd 068c c33d 02b9 393c a084 bcbd
000003a0: 7819 dc3d 4cb0 9bbc 6f3a cebd 2909 6dbd
000003b0: 9dcd 96bd 496c 113e 573e e13d 4743 393b
000003c0: 1f62 483e 54dd 0f3e dd9c 4e3c a948 b53d
000003d0: 18ec 803d a728 1a3d e837 273e 32b9 dabd
000003e0: 8f4e 01be f8e8 21be 7792 133e e5da cfbd
000003f0: 5e12 f03d 352c efbc a9b6 efbd 6c2e 553a

mid_part.0.0.bias f4 [12]
-0.14340988 0.04794054 -0.029498778 0.028344365 0.09032842 -0.02961269 0.0044206074 -0.09299623
0.07148889 -0.007258194 -0.040573213 0.0044095437
00000000: 0ada 12be 4d5d 443d 6ca7 f1bc 7132 e83c
00000010: 1bfe b83d 5096 f2bc beda 903b cf74 bebd
00000020: c468 923d 25d6 edbb 1930 26bd ef7d 903b

mid_part.1.weight f4 [12, 12, 3, 3]
-0.023702648 0.0015465865 0.062158383 0.09382636 0.09698841 -0.09673669 -0.14534889 0.037243932
0.049915876 0.070928864 -0.08428456 -0.025179746 0.0656362 -0.07272276 -0.08219035 -0.00827356
0.06649463 -0.030737527 -0.04431869 -0.043278772 -0.054468874 -0.030015897 0.016958969 0.075419
-0.07996532 -0.09509884 -0.113301866 -0.14220633 -0.04300684 -0.054422956 -0.06196561 0.04554458
0.11831418 0.14722686 0.09009135 -0.056101263 0.06435527 -0.11391585 0.07981309 0.06210771
-0.12076792 -0.00881093 0.04779777 0.023853185 -0.09836351 0.18174416 -0.008714883 0.09584475
-0.009403349 -0.26654878 -0.14973421 -0.00066543196 0.07407652 -0.057071365 -0.07709874 -0.059304498
-0.01160961 0.11166101 -0.015178354 -0.07858063 -0.070336334 0.1220438 0.055232342 0.030246852
0.103063524 0.0017860796 0.077904746 -0.022282803 0.005505587 -0.052754417 -0.038489845 0.03050988
-0.09040178 -0.11629158 -0.11122864 0.04863942 0.1665211 0.0051351455 -0.009464724 -0.05366917
0.07697892 -0.06362616 -0.07895679 0.04874395 -0.056144018 -0.04384655 0.0325094 -0.01832936
-0.018071836 0.05508806 0.0003151946 0.089672565 -0.042510502 -0.055908285 0.09305279 -0.06919098
-0.06915157 0.09616109 -0.04073344 0.018675378 -0.04632615 0.087015755 0.060836196 0.080285065
-0.09018127 0.08592701 0.08431205 0.15102555 -0.01657502 0.12858261 0.07426037 0.071632355
-0.020705154 0.06469267 -0.080673836 0.08420552 0.049002714 0.044440165 0.036388066 0.08057899
-0.040686615 0.095383145 0.055330966 -0.0077779996 0.045706056 0.00041340292 0.075979136 -0.0006890859
0.008245516 0.10106826 0.041855708 0.017261213 -0.010956389 -0.07297383 -0.04466724 0.05821873
-0.0062695993 0.032937773 -0.10267528 0.01455153 -0.00022738588 0.0076874723 -0.10061531 0.020784343
0.024182629 -0.09278778 0.024333589 -0.018666022 0.08610797 0.031854108 -0.07344333 -0.06962857
0.0020912308 0.00439928 0.055359986 0.21407501 0.062222984 0.10180315 0.18357646 -0.058343176
0.06374646 0.11503423 0.0072344015 -0.012264964 -0.09906764 0.051133677 0.04412048 0.07975008
0.024988122 -0.068504825 0.022452617 -0.023567595 -0.0520241 0.115923375 -0.0057283677 -0.09964419
-0.012760147 0.07102308 -0.017469727 0.08178184 0.06306512 -0.15585256 -0.057348616 0.006016694
-0.09114034 0.049260866 -0.0007313992 -0.12173986 0.011895574 -0.04035188 -0.08106646 -0.057037555
0.012301565 0.036120716 -0.010988772 -0.00350058 0.09570004 0.09008514 0.041293073 -0.0586662
0.097127445 0.046005618 0.061125025 0.062780105 0.07623676 -0.03915814 0.037480082 0.044327896
0.103952855 0.090493836 0.022918653 -0.14139587 -0.0047029173 0.07333828 -0.04787495 0.0308791
0.01482854 -0.04853735 -0.07432884 0.0054710815 -0.0011240348 -0.05601203 -0.08165903 -0.05285744
0.019856121 0.0611878 0.04781878 -0.049478374 0.07176195 -0.07812768 -0.10372681 -0.09240638
0.010414801 -0.0613949 0.025969537 -0.07681395 -0.006669525 -0.111513875 0.040254116 -0.018699972
0.045003645 -0.103369564 0.0018462118 0.07967452 0.009377111 -0.065565586 -0.023515748 -0.05568131
0.018913131 0.09191824 0.051186174 0.021876452 -0.059135437 -0.017306903 -0.067763954 -0.090575494
00000000: 0e2c c2bc d5b6 ca3a ca99 7e3d 0928 c03d
00000010: dca1 c63d e31d c6bd 57d6 14be 188d 183d
00000020: 9774 4c3d 2743 913d 629d acbd c145 cebc
00000030: 466c 863d acef 94bd 6a53 a8bd d38d 07bc
00000040: 562e 883d 44cd fbbc 8487 35bd 1545 31bd
00000050: c11a 5fbd e6e3 f5bc 89ed 8a3c 4775 9a3d
00000060: dcc4 a3bd 2ec3 c2bd cf0a e8bd 899e 11be
00000070: f127 30bd 9bea 5ebd a7cf 7dbd f48c 3a3d
00000080: b44e f23d a3c2 163e d081 b83d 70ca 65bd
00000090: b2cc 833d b74c e9bd 0c75 a33d a764 7e3d
000000a0: 2c55 f7bd b85b 10bc 98c7 433d c167 c33c
000000b0: cf72 c9bd 241b 3a3e dec8 0ebc 414a c43d
000000c0: 8110 1abc 1579 88be ed53 19be 6270 2eba
000000d0: 6eb5 973d aac3 69bd f2e5 9dbd 46e9 72bd
000000e0: 3c36 3ebc 87ae e43d a2ae 78bc e2ee a0bd
000000f0: 7f0c 90bd 1af2 f93d 4f3b 623d 3fc8 f73c
00000100: f812 d33d e31a ea3a 868c 9f3d 6d8a b6bc
00000110: 3668 b43b 0415 58bd 87a7 1dbd dbef f93c
00000120: 9224 b9bd 482a eebd d7cb e3bd 213a 473d
00000130: 8284 2a3e b944 a83b ee11 1bbc 34d4 5bbd
00000140: 20a7 9d3d 6f4e 82bd 19b4 a1bd bca7 473d
00000150: 45f7 65bd 7198 33bd 9428 053d 7427 96bc
00000160: 630b 94bc 05a4 613d b440 a539 40a6 b73d
00000170: 7e1f 2ebd 1600 65bd 7692 be3d 00b4 8dbd
00000180: 579f 8dbd 1bf0 c43d 1cd8 26bd 1bfd 983c
00000190: 7dc0 3dbd 5135 b23d 602f 793d 7f6c a43d
000001a0: f5b0 b8bd 80fa af3d ccab ac3d 71a6 1a3e
000001b0: 56c8 87bc 29ab 033e d215 983d fcb3 923d
000001c0: db9d a9bc 977d 843d 5338 a5bd f273 ac3d
000001d0: 12b7 483d e406 363d a70b 153d 9906 a53d
000001e0: 02a7 26bd 3d58 c33d b9a2 623d 97de febb
000001f0: 4636 3b3d 00be d839 f39a 9b3d c6a3 34ba
00000200: 3318 073c e0fc ce3d e470 2b3d 6367 8d3c
00000210: 6d82 33bc 4e73 95bd fff4 36bd c376 6e3d
00000220: 3671 cdbb c2e9 063d 6b47 d2bd 8a69 6e3c
00000230: 6f6e 6eb9 31e7 fb3b 660f cebd ed43 aa3c
00000240: a61a c63c 8507 bebd 3c57 c73c 7ce9 98bc
00000250: 6059 b03d 7479 023d 7569 96bd 6c99 8ebd
00000260: 080d 093b d627 903b 27c1 623d 7b36 5b3e
00000270: 87dd 7e3d 2b7e d03d 78fb 3b3e 41f9 6ebd
00000280: 818d 823d 1197 eb3d 8f0e ed3b fdf2 48bc
00000290: fae3 cabd 8c71 513d adb7 343d 0354 a33d
000002a0: e4b3 cc3c 424c 8cbd 8dee b73c d410 c1bc
000002b0: 3917 55bd 3c69 ed3d 08b5 bbbb 4112 ccbd
000002c0: f00f 51bc 8c74 913d ac1c 8fbc 3d7d a73d
000002d0: 4928 813d d097 1fbe 62e6 6abd b027 c53b
000002e0: c9a7 babd c3c5 493d 5fbb 3fba bf52 f9bd
000002f0: a7e5 423c 0348 25bd 2c06 a6bd 36a0 69bd
00000300: 818c 493c 51f3 133d 400a 34bc fd69 65bb
00000310: 62fe c33d 8f7e b83d ed22 293d f84b 70bd
00000320: c1ea c63d 6370 3c3d 3c5e 7a3d db92 803d
00000330: 0522 9c3d 4964 20bd b784 193d 2b91 353d
00000340: 3ce5 d43d d554 b93d e6bf bb3c 14ca 10be
00000350: ee1a 9abb 6132 963d 8618 44bd 2bf6 fc3c
00000360: 68f3 723c 1acf 46bd b839 98bd c246 b33b
00000370: 5954 93ba df6c 65bd d93c a7bd 0b81 58bd
00000380: 4ea9 a23c 0fa0 7a3d a0dd 433d d6a9 4abd
00000390: eef7 923d 6801 a0bd b96e d4bd 8e3f bdbd
000003a0: d7a2 2a3c 3879 7bbd 11be d43c a250 9dbd
000003b0: 088c dabb 6361 e4bd 80e1 243d af30 99bc
000003c0: be55 383d 6cb3 d3bd 97fc f13a 652c a33d
000003d0: 74a2 193c 4047 86bd 19a4 c0bc 1612 64bd
000003e0: b6ef 9a3c a13f bc3d 98a8 513d 3f36 b33c
000003f0: 0038 72bd 35c7 8dbc d4c7 8abd a57f b9bd

mid_part.1.bias f4 [12]
0.0073664207 0.035753917 0.05929568 0.006701841 0.039829627 -0.05925064 -0.0435841 -0.008986537
6.223793e-06 -0.011580014 -0.06338688 -0.083489105
00000000: 0462 f13b b372 123d 07e0 723d 1e9b db3b
00000010: 6424 233d cdb0 72bd 3e85 32bd 453c 13bc
00000020: fad5 d036 19ba 3dbc fbd0 81bd 56fc aabd

mid_part.2.weight f4 [12, 12, 3, 3]
0.1225956 0.11992739 0.09873971 -0.08146347 -0.062381864 0.006889255 -0.017268473 -0.0947479
-0.07001298 -0.10798063 -0.09291572 0.04819457 -0.1253598 0.034252506 0.08363424 0.0126154395
-0.038864028 0.07039218 -0.002500774 0.085256286 -0.08480398 0.010682851 0.018335208 -0.07675107
0.0532627 0.063823074 -0.047876783 0.018280985 0.01081804 -0.10527264 0.11379572 6.56142e-05
-0.0022504905 -0.073713884 -0.0015293582 -0.017951502 0.14839698 0.0411203 -0.009326291 -0.0015314888
0.0011320469 -0.024062062 -6.5075715e-06 0.045063544 0.021698806 -0.06282137 0.061844267 0.13693254
0.054622587 0.14369024 -0.11754712 0.042411912 -0.025814509 0.053968668 -0.0051532206 0.008905664
0.055557944 -0.13053237 -0.11494202 0.03582496 -0.011002416 0.11061613 0.13902248 -0.044538
0.015231688 0.0058765775 -0.06045991 -0.04053824 0.016986774 0.092306755 0.046170708 -0.044104967
0.048599184 0.03857206 -0.072072394 -0.044792317 0.044892848 -0.0058978 -0.07834625 -0.008770334
0.09895891 -0.0131264385 -0.045813225 0.047866326 -0.11370748 -0.095650986 -0.118182324 0.0038364748
-0.062014125 -0.016388208 0.13080409 0.1418318 -0.03231715 -0.052209992 -0.08249692 0.021228759
0.055646908 -0.0562253 0.04769423 0.078511626 0.026004616 0.014741079 0.08802821 -0.057479497
0.0066812974 -0.00871974 -0.06317435 0.06421035 0.12601982 -0.021879414 -0.019229606 -0.006021341
-0.05368577 -0.19585074 0.035548076 -0.06002108 0.058116596 -0.08892172 -0.03115142 0.02246719
-0.057808004 0.015348181 0.028444156 -0.060344905 0.082226425 0.01840226 0.015805798 0.10068289
-0.009323392 0.08540664 -0.013319961 -0.01735351 0.08857101 -0.105029106 -0.03631172 0.035741426
0.010199853 0.033159956 -0.022434924 -0.082569525 0.14611332 0.041673232 -0.101854995 0.16471678
0.1008891 0.009328175 -0.063650765 0.078559354 -0.1127807 -0.0776272 0.051850155 -0.049986213
-0.050404042 0.000174748 0.13903819 -0.011294149 0.12129236 -0.017988287 -0.14650702 -0.08478028
0.011773076 -0.038294956 -0.12556733 -0.044250675 0.056142796 -0.026596986 0.036872085 0.11965209
0.06868384 0.13069133 0.06262965 0.031300314 0.07823445 -0.047290687 0.010109648 0.05056654
-0.02508722 -0.035653383 -0.09241167 -0.053864095 -0.0052294806 0.061680455 -0.004356313 0.047081318
-0.00084380247 0.057165705 0.040349253 0.07390654 0.058801424 -0.08171805 -0.082984835 -0.12387841
-0.09013241 -0.0009994833 0.14425528 -0.052795637 -0.011679124 0.21636033 0.08985869 -0.077311195
-0.08665589 -0.00056264974 -0.06394445 -0.055779267 -0.047787547 0.025165303 -0.05199735 -0.07735267
-0.0014380454 0.046400536 -0.04922998 -0.0017183078 0.026597865 0.008837904 0.055337258 0.050016515
0.0005038689 -0.11636449 -0.063695215 -0.05961541 -0.097947195 0.012685185 0.08904682 0.029791059
0.047247496 0.02685694 0.0580395 -0.01071639 -0.053950503 0.11058416 -0.06517829 -0.033227134
-0.010056407 -0.021092717 -0.10702595 -0.05935711 -0.08656784 0.025382925 0.017305711 0.06474073
-0.06278174 0.023374692 -0.004590738 -0.098863564 0.027422654 0.050852183 -0.051693276 0.09824398
0.020888824 0.062332332 -0.056418017 0.04089817 -0.06683258 0.0050870287 -0.054582935 -0.11782425
00000000: 6713 fb3d 7e9c f53d 0c38 ca3d 52d6 a6bd
00000010: 2084 7fbd 42bf e13b 9d76 8dbc 300b c2bd
00000020: f762 8fbd f324 ddbd 994a bebd ab67 453d
00000030: 525e 00be 5b4c 0c3d 6e48 ab3d fdb0 4e3c
00000040: e32f 1fbd c629 903d 07e4 23bb d99a ae3d
00000050: b6ad adbd 2007 2f3c b833 963c aa2f 9dbd
00000060: fd29 5a3d acb5 823d 721a 44bd 01c2 953c
00000070: 263e 313c 2f99 d7bd bb0d e93d 5b9a 8938
00000080: f77c 13bb 4ef7 96bd bf74 c8ba 070f 93bc
00000090: 61f5 173e c26d 283d 4dcd 18bc 3dbc c8ba
000000a0: 3161 943a cd1d c5bc 9d5b dab6 8d94 383d
000000b0: b2c1 b13c 7ea8 80bd 6a50 7d3d 0b38 0c3e
000000c0: efbb 5f3d 8923 133e 8bbc f0bd 1db8 2d3d
000000d0: f378 d3bc 400e 5d3d 59dc a8bb 10e9 113c
000000e0: ba90 633d 47aa 05be b966 ebbd 31bd 123d
000000f0: 7a43 34bc b68a e23d e95b 0e3e 7a6d 36bd
00000100: 548e 793c 4e90 c03b d0a4 77bd 6d0b 26bd
00000110: d927 8b3c 530b bd3d 7f1d 3d3d 69a7 34bd
00000120: f00f 473d bdfd 1d3d b19a 93bd 2678 37bd
00000130: 90e1 373d 5542 c1bb 0074 a0bd 72b1 0fbc
00000140: f8aa ca3d 4610 57bc a6a6 3bbd 7b0f 443d
00000150: 78df e8bd aae4 c3bd 9309 f2bd 5e6d 7b3b
00000160: 8602 7ebd 9040 86bc 82f1 053e 5b3c 113e
00000170: fd5e 04bd 25da 55bd 25f4 a8bd efe7 ad3c
00000180: 03ee 633d 804c 66bd 065b 433d b4ca a03d
00000190: a207 d53c 9184 713c 2248 b43d 9f6f 6bbd
000001a0: c9ee da3b 3edd 0ebc 8e61 81bd b780 833d
000001b0: 570b 013e 753c b3bc 6887 9dbc ab4e c5bb
000001c0: 9ce5 5bbd 198d 48be dc9a 113d aad8 75bd
000001d0: ab0b 6e3d 971c b6bd 4331 ffbc 1d0d b83c
000001e0: 16c8 6cbd f076 7b3c b803 e93c 382c 77bd
000001f0: 5466 a83d 56c0 963c 297b 813c d532 ce3d
00000200: 24c1 18bc ade9 ae3d f73b 5abc f328 8ebc
00000210: b864 b53d 8019 d7bd 99bb 14bd 9a65 123d
00000220: 491d 273c bcd2 073d 72c9 b7bc 361a a9bd
00000230: bb9e 153e 8db1 2a3d 5a99 d0bd 84ab 283e
00000240: f29e ce3d 34d5 183c 555b 82bd bae3 a03d
00000250: 91f9 e6bd 02fb 9ebd d460 543d 58be 4cbd
00000260: 7874 4ebd 8f3c 3739 0760 0e3e 180b 39bc
00000270: 2168 f83d 2c5c 93bc f005 16be 49a1 adbd
00000280: dce3 403c 2cdb 1cbd b994 00be 3240 35bd
00000290: fdf5 653d ece1 d9bc 2f07 173d 280c f53d
000002a0: 1daa 8c3d f3d3 053e f943 803d c234 003d
000002b0: 6239 a03d e1b3 41bd f0a2 253c dc1e 4f3d
000002c0: b783 cdbc 4809 12bd 5442 bdbd 99a0 5cbd
000002d0: 105c abbb a5a4 7c3d 67bf 8ebb 57d8 403d
000002e0: a032 5dba 9626 6a3d 4245 253d 505c 973d
000002f0: c3d9 703d cb5b a7bd f4f3 a9bd f7b3 fdbd
00000300: 5797 b8bd 1801 83ba a8b7 133e 3d40 58bd
00000310: cc59 3fbc 908d 5d3e d507 b83d 5555 9ebd
00000320: a578 b1bd c97e 13ba 4ff5 82bd cd78 64bd
00000330: e0bc 43bd 7727 ce3c 2cfb 54bd 146b 9ebd
00000340: cc7c bcba 7d0e 3e3d 60a5 49bd d838 e1ba
00000350: c4e3 d93c dbcc 103c 52a9 623d 1ede 4c3d
00000360: 1216 043a 8150 eebd a372 82bd 4a2f 74bd
00000370: 8a98 c8bd 86d5 4f3c 2e5e b63d 610c f43c
00000380: 9786 413d 1603 dc3c d4ba 6d3d cc93 2fbc
00000390: 34fb 5cbd f379 e23d 327c 85bd 2d19 08bd
000003a0: a1c3 24bc a2ca acbc 6c30 dbbd 7120 73bd
000003b0: 7b4a b1bd daef cf3c b5c4 8d3c ca96 843d
000003c0: b793 80bd 487c bf3c e76d 96bb fb78 cabd
000003d0: 79a5 e03c 614a 503d 54bc 53bd 2434 c93d
000003e0: 0a1f ab3c 3050 7f3d 9416 67bd d784 273d
000003f0: 85df 88bd 17b1 a63b 5b92 5fbd d74d f1bd

mid_part.2.bias f4 [12]
0.09975064 0.10124026 0.021455375 -0.06717307 -0.07331252 -0.056606982 -0.093226485 0.0038133017
0.08851471 -0.0007722642 0.030126892 -0.08822786
00000000: 104a cc3d 0e57 cf3d 2fc3 af3c 0992 89bd
00000010: e024 96bd b9dc 67bd 87ed bebd 96e8 793b
00000020: 3347 b53d c671 4aba accc f63c cfb0 b4bd

mid_part.3.weight f4 [12, 12, 3, 3]
-0.03429147 0.020836309 -0.04770516 0.087511435 0.12406713 0.08578492 0.14651981 -0.12019902
-0.11416779 -0.045738745 -0.07207274 -0.04486642 0.019070555 0.08119904 0.06196056 0.10782494
0.061270148 0.070237465 -0.047488853 0.01635372 -0.14084564 0.016033651 -0.06967891 -0.049446665
0.13721931 0.013035042 0.030487528 -0.041595362 -0.028843828 0.11365679 -0.004585884 -0.05153012
-0.030445142 0.03540321 -0.16678979 0.10626021 -0.059266727 -0.058563583 0.111973874 -0.047398254
-0.030935112 -0.0043696435 -0.09272322 0.0031895905 -0.06572929 0.08490034 0.02509634 0.00029734583
0.13379431 0.006373852 0.014798093 0.094126694 -0.07816224 -0.11920538 -0.08992257 0.019300293
-0.0156334 0.06455406 -0.050442375 0.06435029 0.116722465 0.009486728 0.118213855 -0.07333843
0.12790805 0.08171754 0.1384619 -0.51894736 0.30372456 0.108226255 0.0746409 0.12909201
0.081220835 -0.062311877 -0.095094375 0.0792334 0.021853767 -0.030660545 -0.04348739 0.010156835
-0.048212726 -0.09515302 -0.013631381 -0.06985703 0.110187046 0.0398158 -0.007264486 0.099244624
-0.12652543 -0.12278113 0.0812236 0.038052566 -0.0003426662 0.046238743 -0.047908813 0.26784897
-0.04066586 -0.080811836 0.17881523 -0.041446954 0.012715985 0.11328624 -0.14402273 0.0379398
0.26832852 -0.026416747 -0.03747012 0.23525423 -0.015294859 -0.046894785 0.023508811 -0.08481265
-0.11874905 0.114557855 -0.015544254 -0.13123076 -0.018215787 0.025228266 0.093231685 0.07985308
0.062492948 -0.07828969 0.061703388 -0.059740897 -0.0043570315 0.06605643 -0.025326999 0.078113794
0.0126057 -0.03161803 -0.01804774 -0.029817576 0.045469407 0.037992977 -0.02716808 0.022930637
-0.011928985 -0.0472253 -0.105439186 -0.03156261 0.08822939 -0.079338305 -0.09444155 0.052749176
-0.08807269 -0.039980628 -0.066308185 -0.025553117 -0.08823571 0.032058965 -0.028302338 0.026909372
-0.027785063 0.07302351 -0.0032660228 -0.042015724 0.027402697 0.038464487 -0.031998623 0.034021303
-0.083223864 0.0230004 0.039234817 0.059837993 0.022241252 0.07501209 0.07821368 0.05859921
0.0021717132 -0.05080759 -0.09477824 -0.15387477 0.12979607 0.14233169 -0.021662734 0.008711855
-0.07284244 0.040483434 0.10824867 -0.092211224 0.01777297 0.06950561 -0.07298837 0.049712107
-0.065075904 -0.02217055 -0.04451242 -0.08104987 -0.06794261 -0.066629946 0.06992395 -0.0066902693
-0.015411093 0.042544708 0.056112256 -0.07760201 0.061939947 -0.08010829 0.07238504 -0.09189333
-0.099683255 0.05759104 0.027668752 -0.04040729 0.036454212 -0.08188767 -0.0042393333 -0.016342008
0.0019005544 0.022774167 0.018028656 -0.07070477 -0.060467742 0.04496845 -0.045333523 0.04237276
0.019187404 -0.06689452 0.052548848 0.052080907 0.13185215 0.013292276 0.0579062 0.062095996
0.04090707 -0.03455882 -0.051946085 0.012716039 -0.08045995 0.04780995 0.074612476 -0.003828381
0.07657123 0.07415991 -0.05752683 -0.02305264 -0.06288914 -0.03358759 -0.09104916 0.035398483
0.0025159728 -0.045913123 -0.071441434 0.006976088 0.057912704 0.076875366 -0.035208523 0.02294827
-0.0936482 0.07520232 0.069155045 -0.00024912678 -0.043419786 0.06712046 -0.094951406 0.06660009
00000000: 3675 0cbd e8b0 aa3c 7c66 43bd 3239 b33d
00000010: e816 fe3d 01b0 af3d 4a09 163e e72a f6bd
00000020: cdd0 e9bd 8d58 3bbd df9a 93bd dac5 37bd
00000030: da39 9c3c af4b a63d 5bca 7d3d 52d3 dc3d
00000040: 68f6 7a3d a9d8 8f3d ac83 42bd 3df8 853c
00000050: d739 10be 0159 833c d1b3 8ebd 9688 4abd
00000060: 3883 0c3e ee90 553c fbc0 f93c e65f 2abd
00000070: e449 ecbc e4c4 e83d 2f45 96bb 3f11 53bd
00000080: 1768 f9bc f502 113d f1ca 2abe f49e d93d
00000090: abc1 72bd 5ee0 6fbd 8f52 e53d ac24 42bd
000000a0: a26b fdbc 3a2f 8fbb ace5 bdbd 7308 513b
000000b0: 149d 86bd 3be0 ad3d d796 cd3c 15e5 9b39
000000c0: 6001 093e bfdb d03b b373 723c 7fc5 c03d
000000d0: 8613 a0bd f321 f4bd 5329 b8bd a61b 9e3c
000000e0: 9e11 80bc eb34 843d aa9c 4ebd 16ca 833d
000000f0: 300c ef3d 396e 1b3c 1b1a f23d 7532 96bd
00000100: 54fa 023e 875b a73d f5c8 0d3e bcd9 04bf
00000110: c981 9b3e baa5 dd3d 54dd 983d b230 043e
00000120: 1c57 a63d bd3a 7fbd d7c0 c2bd 1f45 a23d
00000130: ac06 b33c d32b fbbc d51f 32bd db68 263c
00000140: b57a 45bd 96df c2bd 2856 5fbc 3411 8fbd
00000150: bfa9 e13d e415 233d ed0a eebb c440 cb3d
00000160: e28f 01be ac74 fbbd 8f58 a63d 02dd 1b3d
00000170: e1a7 b3b9 d664 3d3d 083c 44bd 8023 893e
00000180: 3f91 26bd ad80 a5bd 571b 373e 48c4 29bd
00000190: b556 503c 9e02 e83d b27a 13be c466 1b3d
000001a0: 5b62 893e ef67 d8bc 457a 19bd 7ce6 703e
000001b0: 4a97 7abc bf14 40bd 8d95 c03c 41b2 adbd
000001c0: b432 f3bd 4f9d ea3d 54ad 7ebc 5b61 06be
000001d0: 4639 95bc 82ab ce3c 41f0 be3d 038a a33d
000001e0: 9bf8 7f3d 5856 a0bd b1bc 7c3d dfb2 74bd
000001f0: 6ec5 8ebb 9848 873d 917a cfbc 20fa 9f3d
00000200: 2388 4e3c e881 01bd dbd8 93bc fd43 f4bc
00000210: 213e 3a3d 869e 1b3d 988f debc 08d9 bb3c
00000220: ca71 43bc 516f 41bd 80f0 d7bd cc47 01bd
00000230: 9cb1 b43d 1f7c a2bd 926a c1bd 850f 583d
00000240: 745f b4bd bac2 23bd 96cc 87bd c554 d1bc
00000250: edb4 b4bd 4350 033d 4eda e7bc 0b71 dc3c
00000260: 809d e3bc 5a8d 953d c50a 56bb ae18 2cbd
00000270: 9f7b e03c f08c 1d3d fd10 03bd ec59 0b3d
00000280: 4671 aabd 566b bc3c b0b4 203d af18 753d
00000290: 4933 b63c f09f 993d 7e2e a03d ba05 703d
000002a0: 4d53 0e3b 9f1b 50bd 181b c2bd 5991 1dbe
000002b0: 43e9 043e 66bf 113e 0c76 b1bc 2bbc 0e3c
000002c0: 6b2e 95bd f5d1 253d 7bb1 dd3d 3dd9 bcbd
000002d0: 9f98 913c f558 8e3d ed7a 95bd ec9e 4b3d
000002e0: 8446 85bd 039f b5bc a852 36bd 79fd a5bd
000002f0: 7f25 8bbd 4875 88bd 4a34 8f3d 0c3a dbbb
00000300: cf7e 7cbc 5c43 2e3d f7d5 653d cded 9ebd
00000310: beb4 7d3d d10f a4bd 9c3e 943d 9232 bcbd
00000320: bc26 ccbd 95e4 6b3d 94a9 e23c 1d82 25bd
00000330: 0351 153d b9b4 a7bd 1bea 8abb addf 85bc
00000340: 061c f93a e490 ba3c d5b0 933c aacd 90bd
00000350: 06ad 77bd d630 383d a5af 39bd 0f8f 2d3d
00000360: e72e 9d3c feff 88bd 763d 573d ca52 553d
00000370: 4004 073e d9c7 593c 0d2f 6d3d 5f58 7e3d
00000380: 2c8e 273d 8d8d 0dbd 6bc5 54bd ef56 503c
00000390: 30c8 a4bd 5ed4 433d 6dce 983d 93e5 7abb
000003a0: 61d1 9c3d 27e1 973d 41a1 6bbd e4d8 bcbc
000003b0: 05cc 80bd 2493 09bd fb77 babd 00fe 103d
000003c0: 05e3 243b 660f 3cbd e34f 92bd ab97 e43b
000003d0: df35 6d3d d570 9d3d d036 10bd 03fe bb3c
000003e0: a1ca bfbd ad03 9a3d 29a1 8d3d 3b9d 82b9
000003f0: f2d8 31bd 7476 893d e275 c2bd a165 883d

mid_part.3.bias f4 [12]
0.051932003 0.036388423 -0.028621547 -0.07856969 0.0037455766 0.044649523 0.012731074 0.018136442
0.057320207 -0.034718093 -0.049765326 -0.08171763
00000000: a7b6 543d 070c 153d bc77 eabc 25e9 a0bd
00000010: 5978 753b 6be2 363d ff95 503c e092 943c
00000020: 98c8 6a3d 8f34 0ebd bad6 4bbd 935b a7bd

mid_part.4.weight f4 [12, 12, 3, 3]
-0.10030923 -0.037513774 -0.055029683 0.027202053 0.06159219 0.038145166 -0.018332124 0.096033506
-0.09328294 0.07447906 -0.03919172 -0.065497205 -0.09398957 -0.091147214 -0.04823333 -0.056824245
-0.07242752 -0.047820248 0.000905541 0.064089365 0.059711404 0.1403477 -0.024059998 0.07405347
-0.007400187 0.045970365 0.055484563 0.08173036 -0.017693775 0.074351735 0.043533538 -0.05713715
0.044709176 -0.09810535 -0.07284356 -0.015017019 0.056438353 -0.037979797 -0.08783253 0.050989456
-0.0047320547 0.07497225 -0.06748675 -0.007032007 -0.0677218 0.035256002 0.015702808 -0.06469538
-0.029455302 0.07218901 -0.03670659 -0.12404852 -0.058512792 -0.047033496 -0.1047556 0.044788815
0.084813 0.04797875 0.07062252 0.009359705 -0.07440546 0.07104727 0.0013238419 0.042292193
-0.08250421 0.03558065 -0.055004258 0.04448515 0.040714983 -0.11298276 0.01588959 -0.057210844
0.08492162 0.03235006 -0.07732526 -0.011670703 -0.03819004 0.06961103 0.079954684 -0.09411115
-0.06316193 0.08060108 -0.017341513 0.08733647 0.0029072936 -0.02207691 0.0077693397 -0.08051901
0.09027061 0.10746321 -0.015639063 0.0029162385 -0.1071811 -0.028424589 -0.024110679 0.036344975
0.021216055 0.054281328 -0.022971567 -0.008324164 -0.009931401 -0.09001654 -0.05484174 -0.10699469
-0.0458436 0.04808893 0.0020742314 -0.04720402 0.10058754 -0.17813937 0.1209545 -0.08936198
-0.17703189 0.25244576 0.13019465 0.06539206 -0.022579698 -0.06030574 0.056186177 -0.052277815
0.0066349823 -0.009327933 0.054611586 0.1177623 -0.0052928235 0.06243985 -0.04548139 -0.06294387
0.034166474 -0.049749322 0.10836974 0.02467072 -0.07931365 -0.010709174 -0.037275694 -0.026551113
-0.12741083 -0.024984835 -0.02942831 0.041690607 0.029456744 0.17091382 -0.006881418 -0.16303158
0.018956918 -0.107662365 0.026654229 -0.09691342 -0.104230024 -0.005291177 -0.07039989 -0.11849349
-0.041686375 0.070332184 0.104076445 -0.08801207 0.07003393 -0.063303895 0.0413085 -0.11199696
-0.15363903 -0.11690948 -0.10860035 -0.038292967 -0.026903667 0.0051647476 -0.0373656 -0.03195928
-0.0014534424 0.024635445 -0.0025228364 0.042754296 -0.120573774 -0.049815264 -0.013217846 -0.11175766
0.057654724 -0.100557975 -0.17539248 -0.06888351 -0.041996133 0.05058229 -0.119869016 -0.0063966555
0.014909394 -0.15859896 0.0747091 -0.13295026 -0.06688637 -0.1861029 0.0166807 -0.02703325
-0.12016537 0.10885695 0.17230946 -0.08470205 -0.10288069 0.12973191 -0.0077932137 -0.033988472
0.095488176 0.10049836 0.091222845 0.03377644 0.101261124 0.010559225 -0.04878978 0.0014364438
0.09636492 0.03595413 0.12236552 0.04557846 0.1219371 -0.05707426 -0.0077894656 0.10863257
0.04790309 -0.079537004 0.1362854 -0.06951311 -0.025202796 -0.011691303 -0.12022899 0.12143416
0.07122711 0.01712042 -0.053712644 0.070352554 0.025803689 -0.015519801 -0.05171878 0.054572478
-0.084199786 -0.0065608434 -0.023843808 0.048525576 -0.027975421 0.0023683682 0.055294573 -0.010812813
-0.01578116 0.13600989 0.01992839 -0.031280402 -0.011099492 -0.06732535 -0.12842332 -0.045685157
-0.10387148 -0.022442976 -0.004616346 0.100770146 0.006308709 -0.09235962 -0.060248263 -0.10401847
00000000: ed6e cdbd 0ba8 19bd ce66 61bd d7d6 de3c
00000010: 1848 7c3d 1b3e 1c3d 402d 96bc 37ad c43d
00000020: 200b bfbd 7a88 983d 7f87 20bd 6623 86bd
00000030: 9b7d c0bd 64ab babd 5090 45bd 8ac0 68bd
00000040: e154 94bd 2adf 43bd d461 6d3a 4941 833d
00000050: f293 743d 4fb7 0f3e 7919 c5bc 58a9 973d
00000060: 457d f2bb 6c4b 3c3d c843 633d 3f62 a73d
00000070: 89f2 90bc b945 983d 3950 323d a508 6abd
00000080: f820 373d 75eb c8bd 012f 95bd f109 76bc
00000090: e72b 673d b490 1bbd 8be1 b3bd 52da 503d
000000a0: 5a0f 9bbb 0d8b 993d 7e36 8abd c06c e6bb
000000b0: bab1 8abd 9968 103d 2da3 803c 037f 84bd
000000c0: 3f4c f1bc d5d7 933d a659 16bd 270d febd
000000d0: 1cab 6fbd 32a6 40bd 1b8a d6bd 7a74 373d
000000e0: 70b2 ad3d 5e85 443d 8aa2 903d 7359 193c
000000f0: e461 98bd 3b81 913d c384 ad3a 943a 2d3d
00000100: f8f7 a8bd 04bd 113d 254c 61bd 1036 363d
00000110: c1c4 263d 8163 e7bd e32a 823c eb55 6abd
00000120: 63eb ad3d 7f81 043d b55c 9ebd 7a36 3fbc
00000130: 296d 1cbd 3a90 8e3d 48bf a33d 59bd c0bd
00000140: 0b5b 81bd 2e12 a53d ca0f 8ebc 77dd b23d
00000150: 4b88 3e3b a3da b4bc f295 fe3b 27e7 a4bd
00000160: ccdf b83d ac15 dc3d 7e1d 80bc 5d1e 3f3b
00000170: c481 dbbd afda e8bc c283 c5bc 78de 143d
00000180: 4bcd ad3c 1956 5e3d de2e bcbc 1362 08bc
00000190: 51b7 22bc 975a b8bd bba1 60bd 0820 dbbd
000001a0: 80c6 3bbd e6f8 443d d4ef 073b 0159 41bd
000001b0: d700 ce3d 2b6a 36be feb6 f73d 6a03 b7bd
000001c0: d947 35be 9240 813e bf51 053e 46ec 853d
000001d0: 0ff9 b8bc 2703 77bd 7a23 663d 4321 56bd
000001e0: 446a d93b 30d4 18bc 66b0 5f3d 5c2d f13d
000001f0: 6c6f adbb eec0 7f3d b24a 3abd b7e8 80bd
00000200: 25f2 0b3d f2c5 4bbd f4f0 dd3d 401a ca3c
00000210: 326f a2bd 8875 2fbc 66ae 18bd b881 d9bc
00000220: fc77 02be ffac ccbc a413 f1bc c5c3 2a3d
00000230: 454f f13c 0804 2f3e 857d e1bb c0f1 26be
00000240: 8a4b 9b3c 167e dcbd f859 da3c 8b7a c6bd
00000250: 8d76 d5bd 9c61 adbb d12d 90bd b7ac f2bd
00000260: 55bf 2abd 520a 903d 0826 d53d ac3f b4bd
00000270: f36d 8f3d 79a5 81bd 1a33 293d aa5e e5bd
00000280: 8d53 1dbe 3d6e efbd dc69 debd 16d9 1cbd
00000290: 1465 dcbc 0b3d a93b ac0c 19bd bce7 02bd
000002a0: 6f81 beba 46d0 c93c 2c56 25bb 211f 2f3d
000002b0: 62ef f6bd 170b 4cbd aa8f 58bc 33e1 e4bd
000002c0: 5c27 6c3d 57f1 cdbd 169a 33be cc12 8dbd
000002d0: 2304 2cbd 602f 4f3d e37d f5bd 099b d1bb
000002e0: 8846 743c c467 22be 1601 993d 1d24 08be
000002f0: b9fb 88bd c291 3ebe f7a5 883c d674 ddbc
00000300: 4319 f6bd 65f0 de3d e471 303e 4578 adbd
00000310: 1cb3 d2bd 71d8 043e 375e ffbb 7f37 0bbd
00000320: 4e8f c33d 16d2 cd3d 0bd3 ba3d 2a59 0a3d
00000330: fe61 cf3d 9a00 2d3c cbd7 47bd 0e47 bc3a
00000340: f95a c53d a344 133d c69a fa3d 7bb0 3a3d
00000350: 29ba f93d b3c6 69bd c63e ffbb c17a de3d
00000360: 0836 443d 4ce4 a2bd 668e 0b3e e45c 8ebd
00000370: 1876 cebc e18c 3fbc 9e3a f6bd 79b2 f83d
00000380: 85df 913d 1f40 8c3c ca01 5cbd 0015 903d
00000390: 4262 d33c c346 7ebc 12d7 53bd 6487 5f3d
000003a0: f070 acbd 58fc d6bb 1754 c3bc c1c2 463d
000003b0: b62c e5bc a036 1b3b 907c 623d 3a28 31bc
000003c0: 7e47 81bc 2d46 0b3e dd40 a33c e11f 00bd
000003d0: a5da 35bc e0e1 89bd 6781 03be 5c20 3bbd
000003e0: 92ba d4bd 55da b7bc b844 97bb 9460 ce3d
000003f0: 49b9 ce3b 0a27 bdbd e2c6 76bd a307 d5bd

mid_part.4.bias f4 [12]
0.016977962 0.0037988424 0.010328949 0.018459225 -0.0871536 -0.08192561 -0.02501048 -0.046847
0.06539213 -0.010409741 0.16377434 0.07548522
00000000: 5e15 8b3c 00f6 783b c13a 293c cd37 973c
00000010: 967d b2bd 9dc8 a7bd c7e2 ccbc a4e2 3fbd
00000020: 4fec 853d 9e8d 2abc 76b4 273e ff97 9a3d

mid_part.6.0.weight f4 [56, 12, 1, 1]
-0.30240482 -0.10321897 -0.27205995 -0.124281436 0.036971916 -0.21798608 -0.0769544 0.19543423
-0.0292183 -0.11795016 0.016168209 -0.20315936 -0.19899812 -0.086505346 0.17550275 0.15156172
-0.06879965 -0.18930818 0.16495341 0.15516225 -0.19965252 0.10800817 -0.08009439 -0.09581346
-0.0060760505 0.25131497 0.20426355 0.15858822 0.04573724 0.055153392 -0.049674775 0.15949902
-0.2503016 -0.16600297 0.010738834 -0.2812158 0.045814157 -0.14851421 -0.23141074 -0.02319748
-0.24819127 -0.038744356 0.016919404 0.10777031 0.06291819 -0.31254792 -0.010693411 -0.15824094
0.2139638 0.0011122872 -0.150589 0.10062457 -0.078927174 0.108759105 0.16142409 -0.022410026
-0.1948222 0.19310649 -0.06349685 -0.05151521 -0.17097537 -0.13620186 0.102203265 0.22520228
0.0677234 -0.07559609 -0.19165248 0.16757543 0.26021895 -0.11556655 -0.037324134 0.17913273
-0.03423797 -0.14470114 -0.1037962 -0.17250304 0.25307918 0.103330955 0.06976912 -0.20622915
-0.08928258 -0.19638515 -0.0025921075 0.2019618 -0.11672223 -0.27425134 -0.20768 0.16329609
-0.13845323 0.2391399 -0.10868442 0.10485137 -0.055780474 -0.27366978 -0.32644436 0.06452088
0.07999478 -0.07754391 -0.11400882 -0.3232166 0.24532375 0.29206342 -0.016811147 0.1948539
0.18642673 -0.019354299 0.30543706 0.2258752 0.2047741 0.19799763 0.08846001 -0.19680738
-0.08804591 -0.0016325214 0.24211836 -0.25441 0.0035454084 0.14541829 -0.29941422 0.2061058
0.20184779 -0.2428692 -0.124494866 0.024363216 -0.11340558 0.058168165 -0.22558384 0.04138479
-0.13383603 -0.3279654 -0.046357058 -0.11634748 -0.006389941 -0.23167552 -0.21530946 -0.05689761
0.1139185 0.10301193 -0.10552994 -0.15460013 -0.0028216504 -0.34288844 0.071964756 0.065549
-0.124460466 -0.00607075 0.21151021 -0.12035019 -0.052525 -0.007139718 -0.26337785 -0.033260405
0.07323949 0.064333394 0.11809395 0.14569421 -0.1596506 0.026263982 -0.007173014 -0.32221428
0.049905386 0.15549274 -0.15839356 0.2883619 -0.20964392 -0.16874534 -0.20526563 0.16329814
0.1128411 -0.15477385 0.10209487 0.07771037 -0.023541562 0.23011202 0.060139284 0.321618
0.14707035 -0.39906415 0.09794098 0.17953268 -0.26646557 0.011750322 -0.14591233 -0.037119985
-0.23975088 -0.0819389 0.086227424 0.11893537 -0.18080994 -0.05739509 0.015905611 0.15267497
0.18115883 -0.17014846 -0.06534611 0.3363836 0.30196032 -0.2004843 0.05616187 -0.024160132
-0.242542 -0.08342486 -0.19417293 0.117864 0.16010348 0.17344095 -0.23099306 -0.1976066
0.20625184 0.27394244 0.30024698 -0.08971001 -0.092228666 -0.15208402 -0.24511915 -0.14321162
0.0044175317 0.15602441 0.14747499 0.16939755 0.27496004 -0.055656232 -0.19833682 -0.015016003
0.03054627 -0.051310975 0.27874854 -0.008369618 -0.085186236 -0.107398495 -0.17182241 -0.03641624
0.074606925 0.26402315 -0.015746972 -0.08420585 0.16476323 -0.17143424 0.10770519 -0.14343189
0.23078729 0.13526534 0.29946467 -0.2654613 0.10603384 -0.1744572 0.16626926 0.19779447
0.2108383 -0.14422883 -0.21486127 -0.030379133 -0.0064784465 0.45484713 0.1330718 -0.08318256
00000000: ced4 9abe 7864 d3bd 714b 8bbe 4487 febd
00000010: dd6f 173d be37 5fbe 459a 9dbd e91f 483e
00000020: 375b efbc da8f f1bd 3173 843c 0209 50be
00000030: 2ac6 4bbe b729 b1bd feb6 333e ff32 1b3e
00000040: d5e6 8cbd 01da 41be 8ce9 283e dae2 1e3e
00000050: b671 4cbe 6333 dd3d 8708 a4bd d939 c4bd
00000060: 9b19 c7bb 5bac 803e 772a 513e f364 223e
00000070: f956 3b3d 86e8 613d c777 4bbd b653 233e
00000080: 8827 80be affc 29be eff1 2f3c 84fb 8fbe
00000090: a0a7 3b3d 1c14 18be f0f6 6cbe a408 bebc
000000a0: da25 7ebe 67b2 1ebd 909a 8a3c aeb6 dc3d
000000b0: 41db 803d 4806 a0be 6b33 2fbc ea09 22be
000000c0: 5419 5b3e 2aca 913a 0134 1abe 4114 ce3d
000000d0: 92a4 a1bd 18bd de3d 5b4c 253e 3b95 b7bc
000000e0: 797f 47be b5bd 453e a30a 82bd 9d01 53bd
000000f0: 2b14 2fbe 8078 0bbe f24f d13d 6d9b 663e
00000100: 91b2 8a3d 1fd2 9abd 8c40 44be e598 2b3e
00000110: 6b3b 853e 28ae ecbd 31e1 18bd 926e 373e
00000120: 1d3d 0cbd 892c 14be 1a93 d4bd a3a4 30be
00000130: 9893 813e 2e9f d33d 1de3 8e3d bc2d 53be
00000140: c9d9 b6bd 3019 49be 59e0 29bb 13cf 4e3e
00000150: 110c efbd ac6a 8cbe 11aa 54be 1737 273e
00000160: afc6 0dbe 17e1 743e f095 debd 51bc d63d
00000170: 117a 64bd 721e 8cbe b723 a7be 8623 843d
00000180: 4ed4 a33d 57cf 9ebd 757d e9bd a57c a5be
00000190: 2636 7b3e 5689 953e 88b7 89bc c887 473e
000001a0: a6e6 3e3e e88c 9ebc 3f62 9c3e d44b 673e
000001b0: 4db0 513e e4bf 4a3e 862a b53d e087 49be
000001c0: 6a51 b4bd 54fa d5ba e0ed 773e 0742 82be
000001d0: 155a 683b 88e8 143e d24c 99be 660d 533e
000001e0: 30b1 4e3e b4b2 78be 2af7 febd 5e95 c73c
000001f0: 2f41 e8bd be41 6e3d 73ff 66be 1983 293d
00000200: 500c 09be 15eb a7be e6e0 3dbd 9647 eebd
00000210: b662 d1bb 593c 6dbe 157a 5cbe 780d 69bd
00000220: 1a4e e93d ebf7 d23d 1520 d8bd 7f4f 1ebe
00000230: 70eb 38bb 138f afbe 4262 933d 8e3e 863d
00000240: 21e5 febd 24ed c6bb 2296 583e 297a f6bd
00000250: 7424 57bd 4cf4 e9bb 76d9 86be 103c 08bd
00000260: 96fe 953d 3ac1 833d 3edb f13d dd30 153e
00000270: 727b 23be 9027 d73c 9a0b ebbb 45f9 a4be
00000280: 9769 4c3d 7d39 1f3e ec31 22be 2ca4 933e
00000290: e5ac 56be 94cb 2cbe 2731 52be a137 273e
000002a0: 3c19 e73d 097d 1ebe 1d17 d13d 9d26 9f3d
000002b0: 3cda c0bc 7ca2 6b3e 9c54 763d 1dab a43e
000002c0: 9c99 163e 2352 ccbe 4895 c83d 6ad7 373e
000002d0: 2d6e 88be 6c84 403c 0b6a 15be 200b 18bd
000002e0: 4181 75be 95cf a7bd 0198 b03d 6394 f33d
000002f0: 3e26 39be 1d17 6bbd 7c4c 823c d456 1c3e
00000300: b381 393e 663b 2ebe 2ed4 85bd 793a ac3e
00000310: 8b9a 9a3e c24b 4dbe fd09 663d 78eb c5bc
00000320: ee5c 78be a7da aabd 45d5 46be ae62 f13d
00000330: 2bf2 233e 819a 313e 7289 6cbe 6259 4abe
00000340: af33 533e 2f42 8c3e f9b9 993e e2b9 b7bd
00000350: 62e2 bcbd eabb 1bbe 8400 7bbe 11a6 12be
00000360: f1c0 903b ddc4 1f3e af03 173e 8d76 2d3e
00000370: 90c7 8c3e caf7 63bd cf18 4bbe ae05 76bc
00000380: 2c3c fa3c 752b 52bd 21b8 8e3e b920 09bc
00000390: 1f76 aebd bef3 dbbd 37f2 2fbe 3229 15bd
000003a0: 84cb 983d 0b2e 873e cbff 80bc 1e74 acbd
000003b0: b1b7 283e 758c 2fbe 8a94 dc3d cfdf 12be
000003c0: 8153 6c3e ff82 0a3e 6f53 993e 8bea 87be
000003d0: 4528 d93d e9a4 32be 7d42 2a3e a28a 4a3e
000003e0: ffe5 573e b9b0 13be 9804 5cbe a9dd f8bc
000003f0: 2649 d4bb b9e1 e83e f943 083e 9e5b aabd

mid_part.6.0.bias f4 [56]
-0.23132156 -0.08147721 -0.21972229 0.0068731904 -0.04672846 -0.14818825 -0.24072939 0.27560443
-0.07159722 0.093525566 -0.19908541 -0.11579477 -0.2555042 0.23366275 0.051585704 0.04083165
0.06584465 0.14857182 -0.16793868 0.23813035 0.040755026 0.1671666 0.22607741 0.13236843
-0.16934192 -0.17999627 -0.025484 -0.14305998 -0.1359366 -0.07377727 0.14520118 0.012305902
0.080507606 -0.11359764 0.023054756 -0.05118854 0.21091685 -0.19322784 -0.088016875 -0.16378243
-0.00011635857 -0.14766543 0.060723055 0.07496155 0.20577338 -0.14520267 -0.04621139 0.012714014
0.09779124 0.032016315 0.041287072 0.09095214 -0.14771335 -0.22364675 -0.1699897 0.15180887
00000000: 8fdf 6cbe 86dd a6bd e1fe 60be 8038 e13b
00000010: 5766 3fbd a9be 17be c481 76be 061c 8d3e
00000020: 90a1 92bd 558a bf3d 0cdd 4bbe cf25 edbd
00000030: 72d1 82be 4a45 6f3e 884b 533d 173f 273d
00000040: 8fd9 863d 3623 183e 1ef8 2bbe 71d8 733e
00000050: beee 263d b92d 2b3e d680 673e 978b 073e
00000060: f867 2dbe f150 38be d2c3 d0bc 517e 12be
00000070: f732 0bbe 8a18 97bd 9eaf 143e b29e 493c
00000080: 2ce1 a43d e1a5 e8bd 54dd bc3c 13ab 51bd
00000090: 96fa 573e 85dd 45be 3142 b4bd 95b6 27be
000000a0: 8805 f4b8 9b35 17be bdb8 783d 7185 993d
000000b0: 42b6 523e 02b0 14be 2848 3dbd 714e 503c
000000c0: c646 c83d 8a23 033d a21c 293d 1e45 ba3d
000000d0: 2b42 17be a703 65be c811 2ebe c973 1b3e
