checkpoints/model_up_2_epoch_150.pth (torch_old, 50087 bytes, 15 tensors)

first_part.0.weight f4 [56, 1, 5, 5]
000000 d5 fc 8e bd c3 e0 41 3b 1f dd e8 bd 1e b2 b2 3d
       -0.06981818 0.0029583431 -0.113703005 0.087253794
000010 b3 bc 15 be b9 30 1b 3e 58 4b 29 be 72 d4 3c be
       -0.14622764 0.15155305 -0.16532648 -0.18440416
000020 ce 30 11 be b2 fb d8 3d 01 2d 96 bd f9 10 e5 3c
       -0.14178774 0.10594882 -0.073328026 0.027962195
000030 f6 ce 5e be 46 88 1a be 75 29 98 bd 60 d6 26 bd
       -0.21758637 -0.15091047 -0.07429782 -0.040731788
000040 7e 77 42 be 0c 4e a3 3d 89 2b 52 bd 95 bb 6c 3d
       -0.18990895 0.07973871 -0.05131105 0.05779608
000050 88 5f 1a 3e 58 75 c7 3c 72 49 a8 3c d2 83 3b 3e
       0.15075505 0.024347946 0.020542834 0.18312004
000060 d5 99 c8 bd 25 47 6d 3d 34 fb de bd e9 7f cd 3d
       -0.09794966 0.057929177 -0.10887757 0.100341626
000070 3f 48 18 3e 32 d1 47 be b6 62 12 3e b3 19 de 3d
       0.1487131 -0.19513395 0.14295468 0.108447455
000080 40 6f 3e 3e d9 08 00 3e 70 e3 2b 3e 89 96 aa 3c
       0.18597126 0.12503375 0.1678598 0.020823734
000090 f7 a7 4a be 1b 7f 65 bd 17 be 17 be 3a 92 8e 3b
       -0.19790636 -0.05602942 -0.14818607 0.0043509277
0000a0 d7 aa 60 3c cc 58 d9 bd b2 7f 8b bc 76 03 80 3e
       0.013712606 -0.1061264 -0.017028663 0.2500264
0000b0 13 c0 54 3c c1 63 3e bd 9f bf 38 bd 6a 30 e5 3d
       0.012985247 -0.04648185 -0.04510462 0.11190875
0000c0 e6 df 28 3e 0f ec 74 3d 4a af b5 3d 2d 3d 55 3d
       0.1649166 0.059795436 0.08871324 0.052060295
0000d0 c5 d7 13 3d 19 13 b1 3d fa fe e1 bb ca c4 33 be
       0.036094446 0.08646221 -0.0068968507 -0.17555538
0000e0 dc a0 17 be 97 97 20 3e 6a eb b0 3c 6d 54 1c be
       -0.14807457 0.15682827 0.02159663 -0.15266581
0000f0 88 ec 32 3d 1c 03 9e 3d 94 dc 96 be e7 24 3b be
       0.043682605 0.07715437 -0.29465163 -0.18275796
000100 1a 83 c1 bd b8 ea bd 3b 8f d4 e1 bd 3b a8 e7 bd
       -0.09448834 0.005795803 -0.110268705 -0.11311384
000110 7a 95 5f be 4f 96 cb 3d 2f 90 26 3e 0e d1 ce 3d
       -0.21834365 0.099407785 0.16265939 0.10098468
000120 7a 70 20 be bf 85 1c be d1 30 b4 3d e6 72 89 3d
       -0.15667906 -0.15285395 0.087983735 0.06711368
000130 d9 11 f9 3d 77 a2 05 be ec ad 2c 3d c6 cb 2a 3e
       0.12161607 -0.13050257 0.042158052 0.16679296
000140 ec 09 21 3e 6b 63 bd bc b9 49 e4 bc 08 3f a5 bd
       0.15726441 -0.023118695 -0.027867185 -0.08068663
000150 b0 b7 80 bd b5 52 ec bd dd c4 c5 bd 89 43 90 3e
       -0.062850356 -0.115392126 -0.09656689 0.28176525
000160 9a 09 04 3e 6c cd da 3d c2 6f 39 be 06 03 31 3e
       0.12894288 0.10683712 -0.18109038 0.1728631
000170 27 d3 da 3d b1 5a 21 3e eb f4 bd bd cc ab f4 3d
       0.10684805 0.15757252 -0.0927523 0.1194683
000180 98 68 68 3e 3b 2d a0 3d 44 da 1f 3e 1d 92 2b bb
       0.2269615 0.07821127 0.15610605 -0.002617962
000190 57 c6 13 3e 96 45 1f be 79 d2 9a 3c 6b be ed bd
       0.1443113 -0.15553889 0.01889919 -0.11608585
0001a0 12 12 4d bd 36 0c 81 bd 25 db d8 3c dc 6f 57 3e
       -0.05006606 -0.06301157 0.026471684 0.21038765
0001b0 a2 62 f4 3d 6e ad 80 bb 31 a7 1b 3e 45 6b aa bd
       0.11932875 -0.0039269244 0.15200497 -0.08321241
0001c0 2e 9c 00 3e ad be 58 38 fe 64 f5 bc 0f c9 0a 3d
       0.12559578 5.1675994e-05 -0.029955383 0.03388315
0001d0 ee 9b 0d be 86 98 48 3d f3 3a a1 3d f5 c7 36 3e
       -0.13829014 0.048973583 0.07872572 0.17849715
0001e0 4b d6 9c bd 51 95 90 3d b1 a5 60 3e 7c ed b5 bd
       -0.07658061 0.0705973 0.21938206 -0.08883187
0001f0 f0 d7 35 3e da b8 14 be 56 b5 64 3d ce 45 91 3d
       0.17758155 -0.1452364 0.055836998 0.07093392
000200 38 0a da 3c 03 60 f9 3d 84 57 f8 bd c0 73 94 3d
       0.0266162 0.12176516 -0.12126067 0.0724864
000210 e4 1c af 3c 10 5f 2f be 36 8a a2 bd e3 b8 09 be
       0.02137608 -0.17126107 -0.07936518 -0.13449435
000220 49 a0 6f 3e 36 fe 37 3e 5a c1 e4 3d 23 b6 e2 bc
       0.23400988 0.17968068 0.111696914 -0.02767474
000230 f1 cf 2e 3d 6f d3 a1 3d a2 bc 64 3e 75 37 91 3e
       0.042678777 0.07901656 0.22337583 0.28362623
000240 01 9a 84 3d 5e 45 cc bc 7d 22 34 bd bc 1a bc 3d
       0.064746864 -0.02493542 -0.043978203 0.09184787
000250 3d 41 d2 bd e3 c6 f5 bd 69 2b 1d be 95 c8 ad bd
       -0.102663495 -0.12000825 -0.15348591 -0.084855236
000260 6b 98 47 3c be 01 e9 3d ec 60 62 3d e8 bf 09 3e
       0.012182335 0.113772854 0.055268213 0.13452113
000270 d8 47 06 be c9 2f bd 3c 91 3e 33 be 7a b3 b9 3d
       -0.13113344 0.023094075 -0.17504336 0.090674356
000280 e2 20 10 3d 9f e9 59 3e 55 10 03 be 8a ae 36 3e
       0.03518761 0.21280526 -0.12799199 0.17840019
000290 44 58 24 3e 8a da 26 3e b5 78 3a 3d df 74 59 3e
       0.16049296 0.16294304 0.04552527 0.21235989
0002a0 f3 b7 01 3e 33 7a 12 3e 01 42 ba bc a6 53 1d be
       0.12667827 0.14304428 -0.022736551 -0.1536394
0002b0 f0 73 98 3b 72 65 10 3d a2 fb 0f be 61 5e 14 be
       0.0046524927 0.035252996 -0.14060834 -0.14489128
0002c0 25 94 3e be 20 50 94 bd a2 5a 2e 3e 1c db bc 3b
       -0.186112 -0.07241845 0.17026761 0.0057634246
0002d0 aa 83 78 bd 72 ae 06 3d b6 bf f3 3d 64 2e 4d be
       -0.06067244 0.032881208 0.119018 -0.20037228
0002e0 68 ff 40 be 82 c6 d1 bd ae 4e 9a bc 1d bd 4b 3e
       -0.1884743 -0.102429405 -0.018836346 0.1989636
0002f0 45 7b 2f 3e df a3 50 be c0 ff 3e be 4c 2c f7 bd
       0.17136867 -0.20375012 -0.18652248 -0.12068996
000300 e3 97 1f 3e 0f 0c 32 3e 32 24 36 be 7d f8 c6 bd
       0.15585284 0.17387412 -0.17787245 -0.09715364
000310 29 59 ad 3d 0a 6c 00 be ba ff 1a 3e 48 ed eb 3c
       0.084642716 -0.12541214 0.15136614 0.028799668
000320 05 3d 1c bd 9a 69 86 ba 74 6b 19 3d cb d4 94 bd
       -0.03814413 -0.001025486 0.03745599 -0.072671495
000330 ae a9 17 be fe 75 07 3b b4 d6 32 3b 6a 7b ec 3c
       -0.14810821 0.0020669694 0.0027288618 0.028867442
000340 6a 4b ae bc f8 7d 0e 3e 52 42 44 bd a4 57 08 bd
       -0.021276195 0.13915241 -0.04791481 -0.033286706
000350 f7 14 e9 3c 05 36 14 be a9 14 5c 3d 41 28 03 bd
       0.02845238 -0.14473732 0.05373064 -0.03202081
000360 93 ef d0 3d 21 2c 12 be 19 ef 91 3c a8 57 1c 3d
       0.10201945 -0.14274646 0.017814206 0.038169533
000370 97 fd 22 be cd 7b 1d be db 5e c9 3d 11 6f 41 bd
       -0.1591705 -0.15379258 0.09832545 -0.04722506
000380 1b c1 e3 3d 1f e4 3d be cf 21 a5 bd 07 c4 1f be
       0.11120816 -0.18544053 -0.08063089 -0.15602122
000390 30 e8 95 3d fc 52 0f bc e2 b6 2f bc c0 ef 24 bd
       0.07319677 -0.008747812 -0.010724755 -0.040267706
0003a0 4b ac 29 be f5 9e 39 3d 1f 39 88 bb 16 e5 f8 bd
       -0.16569631 0.04531761 -0.0041572 -0.1215307
0003b0 7e 37 34 3d 91 64 bd bc 55 13 68 be f3 1c b8 3d
       0.043998234 -0.023119243 -0.22663625 0.089898966
0003c0 98 9b f8 3d 63 dd 33 bd 4f 08 00 be fe 68 45 3a
       0.12139052 -0.043912303 -0.1250317 0.00075305987
0003d0 b6 6e 14 3e 8f a4 56 3e 37 76 10 be 17 dd c2 bd
       0.14495358 0.20961212 -0.14107595 -0.09514826
0003e0 24 cf 30 3e 20 f1 e5 3d 60 94 02 3e 70 ad a5 bd
       0.17266518 0.112276316 0.12751913 -0.08089721
0003f0 8d dd 44 3e 1e 63 18 be af bd c5 bb 9c aa c8 3b
       0.1922514 -0.1488156 -0.006034575 0.006123854

first_part.0.bias f4 [56]
000000 e9 98 45 3e 0f 80 e1 3c 72 d5 a1 bd 9e a1 eb 3d
       0.19296612 0.027526883 -0.079020396 0.115054354
000010 ab 6f 23 be 8a 06 20 3d be c5 00 3e 56 21 02 3e
       -0.15960567 0.039068736 0.12575433 0.12708029
000020 c6 0b 1b be d4 b4 b3 bd 07 23 08 bd fd 25 fe bd
       -0.1514121 -0.087747246 -0.03323653 -0.124095894
000030 a3 7c d4 3d d6 90 5a 3d 54 31 26 3d 97 a8 0f 3e
       0.10375335 0.053360783 0.040574387 0.14029156
000040 6d 1a 6b bd c9 6c e0 3d 6f a0 20 3d 70 81 07 be
       -0.05739825 0.10958249 0.0392155 -0.1323297
000050 98 14 c3 bd 75 2d c9 bd e2 d9 ea 3d de 9f f5 bd
       -0.09525412 -0.09823123 0.11467339 -0.11993383
000060 5a 21 49 be 64 98 04 bd ee ce 38 bc 96 10 3a bd
       -0.19641629 -0.032371894 -0.011279805 -0.045425974
000070 a7 74 e3 bd 2a 45 4d 3e 39 4f 3a 3e a2 3d 1a be
       -0.11106234 0.20045915 0.18194284 -0.15062574
000080 2b 73 d6 bd b1 24 19 3d 99 77 fc bd b4 44 8d bd
       -0.10471185 0.037388507 -0.12327499 -0.0689787
000090 90 b4 de bd 3a c9 42 bd d8 e3 4c 3e 70 8c 33 3e
       -0.10874283 -0.047555186 0.2000879 0.17534041
0000a0 88 92 af bc 83 03 46 be 15 cf 8e bd e0 c6 b8 3d
       -0.021432176 -0.19337277 -0.069730915 0.090223074
0000b0 24 e1 13 be f1 bb 21 3e 51 81 22 3c 13 b7 d1 3d
       -0.14441353 0.1579435 0.009918527 0.10239997
0000c0 7b 63 f7 3d e1 49 17 3e 97 05 0a 3e 47 90 4a 3e
       0.12079521 0.14774276 0.13478695 0.197816
0000d0 2e b2 8a bc 0f 7b c0 bd e9 94 bc 3d 4d 8c 26 3e
       -0.016930666 -0.093984716 0.0920809 0.16264458

mid_part.0.0.weight f4 [12, 56, 1, 1]
000000 22 0a 22 bd 2e 37 fc 3d c1 61 e6 3d d9 b7 18 3d
       -0.039560445 0.12315212 0.11249114 0.037284706
000010 50 df 0e 3e 29 ab 23 bb a4 9b 88 3d e9 5a 13 be
       0.13952374 -0.0024973846 0.06670311 -0.14390148
000020 b3 43 1f 3d 19 6a 0b 3d b3 d9 47 3d cd 6c bf 3d
       0.038882922 0.03403673 0.0487916 0.09346924
000030 40 fb b0 bd 56 29 72 3e 69 09 16 3e 34 b4 81 bd
       -0.08641672 0.23648581 0.14652027 -0.06333199
000040 28 11 01 bd 87 ba 93 3c 10 a8 3b 3d 85 a8 90 bd
       -0.031510502 0.01803328 0.045814574 -0.070633925
000050 47 07 8f 39 fc 3f fe bd f9 72 f0 bd c9 1d fc 3d
       0.00027280507 -0.12414548 -0.11740679 0.123103686
000060 0f 10 d3 3d c4 ab 3f 3d 28 24 8a bc 5d ce b9 3d
       0.10305797 0.046794668 -0.016862944 0.09072564
000070 92 c0 b0 bd 3c 8e 90 3c 4d 7d 45 3d ad b7 e6 3d
       -0.0863048 0.017645948 0.0482152 0.11265502
000080 55 d0 a2 3d f7 6c 38 bd c9 8e 5a 3c 86 bd 67 3d
       0.079498924 -0.045025792 0.013339707 0.056577228
000090 d7 e4 c5 3d 9d 3b 07 be 2e 47 23 39 f4 29 df bd
       0.09662788 -0.13206334 0.00015571408 -0.10896674
0000a0 47 e4 2e bd a3 dd 33 3d d0 ac aa 3d 98 ef 11 be
       -0.04269817 0.04391254 0.083337426 -0.14251554
0000b0 44 05 00 be 84 01 6d 3c 63 8d 65 3d cc f1 02 3d
       -0.12502009 0.014465693 0.05604304 0.031968877
0000c0 a1 66 14 3d 65 b4 36 3d 01 65 c4 bb 9b 3a b2 3d
       0.036230687 0.04460563 -0.005993486 0.08702584
0000d0 23 b0 74 be c5 b4 18 be 12 23 1e be 64 b3 0b 3c
       -0.23895316 -0.14912708 -0.15443066 0.008526657
0000e0 d1 0a 0c be df 21 36 3b 8f 8c 3a bc c1 ad e7 bd
       -0.13676001 0.0027791185 -0.011386051 -0.11312438
0000f0 55 d1 0f 3e dd 79 99 3b 32 bc d3 3d 39 15 0e 3e
       0.14044698 0.0046837167 0.1033863 0.13875283
000100 32 7b 48 bd 27 cd 43 bd 15 e7 11 3e 8e 91 9b 3c
       -0.048945613 -0.04780307 0.14248307 0.018990304
000110 67 99 c7 3d a7 f3 42 3d 77 5c a9 3d 10 32 09 be
       0.09746056 0.047595646 0.082695894 -0.13398004
000120 d3 7e b3 3c 4a 55 c4 3d 5b bf e5 bc ac 9e ee bd
       0.02191106 0.0958658 -0.028045347 -0.11651358
000130 c3 05 72 3c b2 cf e4 3c 62 d8 ad 3b 49 a7 2f 3d
       0.0147718815 0.027931068 0.005305336 0.042884145
000140 e4 2c 94 3d 1d 5f ab bd 89 4b fc 3c 76 ce cb bd
       0.07235125 -0.08367751 0.030797737 -0.09951489
000150 ef 0c 48 3d 2d 00 d9 bd 6f 2f 7e bd d0 4d d8 3c
       0.04884046 -0.10595737 -0.062056955 0.026404291
000160 cf 65 ab 3d 8e 1b b3 3d db af c8 bd 90 f2 00 be
       0.08369028 0.0874549 -0.09799167 -0.1259253
000170 43 b4 ba 3d 7a 36 8a bd 02 17 04 be d9 5e 60 3c
       0.091164134 -0.06748672 -0.12899402 0.013694488
000180 e9 68 d6 3d 6a 73 b6 3c ad 22 ce bc c1 2a 05 be
       0.10469229 0.02227183 -0.02516302 -0.1300459
000190 c9 30 04 3e 3d bf c2 3d 57 af e9 3d 3f a3 a6 3d
       0.12909235 0.09509132 0.114103965 0.081366055
0001a0 b4 03 b0 bd f7 44 03 be d4 17 e8 bc 8d c2 38 3d
       -0.08594456 -0.12819277 -0.028331675 0.045107413
0001b0 f1 36 bc bd af a9 92 3d e2 f7 3c bd fd 2e 39 3a
       -0.09190167 0.07161271 -0.046134837 0.0007064192
0001c0 55 e0 cc bc 90 f0 d1 3d 6b b1 01 3c ac 53 b8 3c
       -0.025009314 0.10250962 0.007915835 0.022500835
0001d0 50 1d 49 3d 75 fc 4a 3d e0 ab 03 bd 90 39 00 3d
       0.04910022 0.049557168 -0.032146335 0.031304896
0001e0 25 90 0f 3d ca c1 f3 bd cb dd b7 3c 4e 24 01 be
       0.035049576 -0.11902197 0.022444626 -0.12611505
0001f0 ff 2f 05 be 3c 0b e6 bc b0 bb f7 3c 18 21 bb 3b
       -0.1300659 -0.028081529 0.030240864 0.005710732
000200 d2 13 63 3d 13 3b 27 bd 1a 2a 1f bd 1b a1 08 bb
       0.055438824 -0.040827822 -0.03885851 -0.002084798
000210 ee 05 b7 bd d7 cc 3c 3d 55 08 5d 3d df f9 a6 bc
       -0.08936678 0.046093788 0.053963024 -0.02038282
000220 ab 6b 22 3d 0d 8f 69 3d 09 e5 43 3e 31 18 c2 bc
       0.03965346 0.05702119 0.19130339 -0.023693176
000230 32 8e 09 be f3 88 05 be 74 ff 54 bc 88 45 c6 bd
       -0.1343315 -0.13040523 -0.013000358 -0.09681231
000240 eb 71 03 be c0 67 2b bd 57 4e 08 bd de 82 9c bc
       -0.12836425 -0.04184699 -0.033277836 -0.019105371
000250 10 b0 98 3c 93 09 b1 3d ae 95 0d 3e be b9 6e bd
       0.01863864 0.08644404 0.1382663 -0.058282606
000260 8d 0e 10 be b8 e5 02 3e 49 e9 fe 3d 79 f4 fd 3d
       -0.1406805 0.12782943 0.12446839 0.12400145
000270 63 47 60 3d c5 16 af 3d 0f de a1 3c 8d 13 d0 bd
       0.05475558 0.08549265 0.019759206 -0.10159979
000280 1f af 43 be 54 aa c8 bd c0 99 3c 3c 62 b3 4f bd
       -0.19109772 -0.097981125 0.011511266 -0.050708182
000290 cf d3 87 3a f1 32 52 3d a2 1f df bd fc cb d7 3c
       0.0010362806 0.051318113 -0.10894705 0.026342385
0002a0 b6 ca 1e 3e 77 4e c6 3d a3 d5 64 3c 7f d3 62 bd
       0.15507016 0.09682935 0.013966951 -0.05537748
0002b0 cb 57 8e bd ad f1 7c bc c0 1a c6 bd ed 0e 08 3e
       -0.06950339 -0.015438479 -0.09673071 0.13286944
0002c0 92 0f 5c bb 14 72 61 bd a9 db bc bd d6 7b 88 bd
       -0.0033578617 -0.055040434 -0.09221584 -0.06664245
0002d0 05 5c c0 bd e6 76 3b bd bc 67 20 be 9d 89 a8 3d
       -0.09392551 -0.045767687 -0.15664572 0.08229373
0002e0 e8 60 8a bc 28 18 92 3c 54 36 4a bc 68 90 96 bd
       -0.016891912 0.017833784 -0.012342054 -0.07351762
0002f0 fe db 81 bd ad 0c 99 bc 8c 34 e4 bd 8f a2 ec bc
       -0.06340788 -0.018682802 -0.11142835 -0.028886108
000300 f2 ca 04 3d 3d 7a 8d bd 9a 61 c7 3d 13 1f 02 3e
       0.032420106 -0.06908081 0.09735413 0.12707166
000310 c1 f1 8f 3d 89 40 0d 3e 04 ca 0e bd bc ec 74 3d
       0.07028533 0.1379415 -0.034860626 0.05979608
000320 f5 31 f4 3b 74 85 2f 3e 69 fd f4 bd 43 6a 14 bd
       0.0074522444 0.17140752 -0.11962397 -0.03623415
000330 fc 32 b5 3d c3 f4 b3 3d e1 46 04 be c2 ff f8 3d
       0.08847615 0.08786919 -0.12917663 0.12158157
000340 eb 3f 90 3d e3 18 f9 3d 88 ae b7 bd 1d 6a 84 bd
       0.070434414 0.1216295 -0.08968836 -0.06465552
000350 f1 cb fc 3b 93 be d5 3d 0d 8f fa 3c 4a 20 00 be
       0.0077147414 0.1043674 0.03058579 -0.12512317
000360 f6 8c fc 3d 71 ad f8 bb 5d aa 3a bd 47 a1 e6 3d
       0.12331574 -0.007589035 -0.045572627 0.1126123
000370 de 43 3d 3e f3 ca ad 3c 9e f2 78 bd 93 15 f7 3d
       0.1848292 0.021214938 -0.060778253 0.12064662
000380 73 26 42 bc 92 fa 6f bd 86 52 ae bc df 3b ff bd
       -0.011849987 -0.05858857 -0.021279585 -0.124625914
000390 45 fd 82 bd 86 c9 d4 3d b7 bf 90 3c ec 6b c7 bd
       -0.063959636 0.1039 0.017669542 -0.09737381
0003a0 86 7a d6 3d 74 71 81 bc 09 67 c3 bd 77 aa 79 bd
       0.10472588 -0.015801169 -0.09541137 -0.060953584
0003b0 3a ee 68 bd 9e e4 d2 3d da cb e5 3d 25 0d 5b 3c
       -0.056867816 0.102975115 0.11220522 0.013369833
0003c0 d7 c5 47 3e fc 07 0d 3e c1 65 28 3c 1b 46 b0 3d
       0.19509064 0.13772577 0.010278166 0.086071216
0003d0 7f c9 69 3d bb 4b 29 3d 6d 52 23 3e 72 54 f8 bd
       0.057076927 0.041331988 0.15949412 -0.12125482
0003e0 c2 03 ff bd 7d 3f 1f be 7a 20 27 3e a8 3a dd bd
       -0.124518886 -0.15551563 0.16320983 -0.108022034
0003f0 d7 6c 01 3e 80 c1 a2 bc 89 ad be bd 99 ce f8 3b
       0.12639175 -0.019867659 -0.09310443 0.0075929877

mid_part.0.0.bias f4 [12]
000000 4a 9b 13 be bc d5 39 3d c7 b8 ea bc f5 b4 08 3d
       -0.14414707 0.04536985 -0.028652562 0.0333757
000010 b1 45 bc 3d d6 57 ff bc 9b b0 3c 3b a3 0f b2 bd
       0.0919298 -0.031169813 0.0028791788 -0.08694389
000020 6a b3 97 3d 42 c5 84 bc 62 ae 06 bd 58 12 bb 3b
       0.074072674 -0.016207341 -0.03288115 0.005708974

mid_part.1.weight f4 [12, 12, 3, 3]
000000 db aa e6 bc 46 5d 6b ba de d1 65 3d eb 5a c6 3d
       -0.028157642 -0.00089784374 0.056108348 0.0968531
000010 b1 79 c2 3d 0b 90 bb bd cf ac 1e be aa 4e 22 3d
       0.09495867 -0.091583334 -0.15495609 0.0396258
000020 53 35 50 3d b9 f3 9b 3d 6d 2d b2 bd dc 99 b1 bc
       0.050832104 0.07614846 -0.087000705 -0.021679811
000030 b3 ba 85 3d c3 35 9a bd 09 46 9f bd 43 d3 20 bc
       0.06529751 -0.075297855 -0.0777703 -0.009815994
000040 bd 06 89 3d 49 ce 0a bd b0 7f ac bc 08 fb 3f bd
       0.06690738 -0.033888135 -0.02105698 -0.04687026
000050 f0 54 86 bd e1 44 06 bd d6 ac d7 3c 0c 52 b0 3d
       -0.06559169 -0.03278053 0.026327532 0.08609399
000060 8a 3b a0 bd 43 15 d6 bd 8e 04 fb bd 94 4a 12 be
       -0.07823856 -0.10453274 -0.12256728 -0.14286262
000070 c6 ac 44 bd 4d 15 3c bd 6d e4 59 bd 1f 32 85 3d
       -0.048016332 -0.04591875 -0.05319636 0.065037005
000080 41 bb 00 3e 40 cd 21 3e e5 62 b8 3d a9 15 3b bd
       0.12571432 0.15800953 0.09003238 -0.045674954
000090 3a 1f 9f 3d c8 1b f0 bd 1d 4a 9a 3d 79 93 79 3d
       0.07769628 -0.11724049 0.07533667 0.060931657
0000a0 a4 a5 f2 bd 57 a8 a0 ba 8e 52 60 3d 21 0a b5 3c
       -0.11848 -0.00122572 0.05476623 0.022099556
0000b0 0f e8 d3 bd 1c 48 3a 3e 07 ef e6 bb 18 af cd 3d
       -0.10346996 0.1819157 -0.0070475372 0.10043162
0000c0 bd f0 18 bc 41 47 88 be 5b dc 19 be 7d b9 6e ba
       -0.00933474 -0.26616862 -0.15025465 -0.00091066194
0000d0 d7 05 9a 3d 3c 42 70 bd ef 94 97 bd be f9 75 bd
       0.07520645 -0.058656916 -0.07401454 -0.060052626
0000e0 89 37 8b bc 01 fb e8 3d 45 47 38 bc 25 9b a4 bd
       -0.016994255 0.11376 -0.011247461 -0.08037404
0000f0 3d f6 86 bd 1e 84 01 3e c9 fa 6b 3d 1b 07 d1 3c
       -0.06589935 0.12648055 0.057612214 0.025516083
000100 90 6d d6 3d 8d 4b 8d 3a a1 bd 9a 3d e8 db d4 bc
       0.10470116 0.0010779962 0.075557 -0.025983766
000110 f5 f8 6a 3a 9c d2 4f bd d6 fb 15 bd e3 99 01 3d
       0.0008963489 -0.050737962 -0.036617123 0.0316409
000120 4e 98 a1 bd f0 a9 f6 bd 01 b2 d3 bd 1a 27 45 3c
       -0.07890378 -0.12044132 -0.10336686 0.012033248
000130 23 ad 35 3e 9b d8 ca bc 1b 0b d1 3a 15 ab 5a bd
       0.17741828 -0.024761489 0.0015948744 -0.053385813
000140 c0 b1 42 3d eb a9 c9 bd e5 13 ad bd c9 fe 44 3d
       0.047532797 -0.098468624 -0.0845106 0.048094545
000150 7d f5 2c bd 22 66 22 bd 86 3e d4 3b c3 e0 a7 bc
       -0.042226303 -0.039648183 0.00647718 -0.020492917
000160 6a 2e df bc b2 6e 88 3d 49 fe 30 3b e1 dc b8 3d
       -0.027243812 0.066617385 0.0027007035 0.09026504
000170 1c 27 3f bd a5 ec 70 bd 6a 31 c9 3d 34 00 9d bd
       -0.046668157 -0.05881943 0.09823878 -0.07666054
000180 18 d5 80 bd a5 96 c1 3d 6e 1a 28 bd 97 5b 87 3c
       -0.062906444 0.09452561 -0.04104083 0.016523166
000190 e0 00 d2 bc 75 65 d2 3d 36 34 89 3d e4 8d 91 3d
       -0.025635183 0.10273258 0.066994116 0.071071416
0001a0 37 dc af bd 3d 9c a9 3d bb 33 d0 3d 68 ca 23 3e
       -0.085869245 0.08281753 0.10166117 0.1599518
0001b0 50 a8 b7 bc 4e b5 07 3e e0 21 8b 3d 2d ab 9c 3d
       -0.022419125 0.13252756 0.067935705 0.07649837
0001c0 c1 82 91 bc c3 a4 8e 3d 7b 46 b1 bd 5c 6c b0 3d
       -0.017762544 0.069650196 -0.08656021 0.08614418
0001d0 9b eb 61 3d 23 a6 26 3d 27 58 03 3d 10 40 97 3d
       0.05515633 0.040685784 0.03206649 0.07385266
0001e0 bb fd 15 bd 43 02 c1 3d 5a 37 6f 3d b4 fa 33 bc
       -0.03661893 0.094242595 0.058402397 -0.010985065
0001f0 5c 8c 1d 3d a2 21 89 bb e5 e3 96 3d 88 ae 93 bb
       0.038463935 -0.0041849175 0.07367686 -0.0045068897
000200 6d 63 63 bb fd 4a cd 3d 9a 50 38 3d 4a 05 d8 3c
       -0.0034696714 0.100240685 0.044998743 0.02636971
000210 fb bb d2 bc e5 ce ad bd 22 91 8b bd 13 3c 73 3d
       -0.025724402 -0.084867276 -0.06814791 0.059383463
000220 c2 e9 05 bc 44 d7 d6 3c 37 87 d4 bd cd 76 c3 3c
       -0.008173408 0.026225694 -0.10377353 0.02386036
000230 a6 bf 52 bb 3d 3c 2f bb fe b2 eb bd 8e 2d 35 b8
       -0.0032157688 -0.0026738786 -0.115087494 -4.319619e-05
000240 0e dd 8a 3c d8 3d d1 bd 89 59 3d 3c e2 4a 8c bc
       0.01695111 -0.10216874 0.011556991 -0.01712555
000250 1a e9 b2 3d 28 46 25 3d 59 68 ac bd ae 0f bb bd
       0.08735867 0.04035011 -0.0841834 -0.0913385
000260 94 c4 84 bc 9f 3e cb 3b cb 6f 55 3d 90 3b 5a 3e
       -0.016207017 0.0062025334 0.052108567 0.21311784
000270 0c b2 7a 3d 33 a4 d3 3d f9 27 3a 3e 4c 4e 70 bd
       0.061204955 0.10334053 0.18179311 -0.05866842
000280 2d 97 80 3d 82 d3 de 3d ad 3e 8e 3c 76 df 2b bc
       0.062788345 0.10880186 0.01736387 -0.010490289
000290 f2 2a d4 bd dd 77 67 3d ff 93 26 3d 30 a1 98 3d
       -0.10359754 0.056510795 0.040668484 0.07452619
0002a0 b8 69 e9 3c 21 ae 8d bd 20 7a 82 3c a3 87 27 bc
       0.028492793 -0.06917978 0.015927374 -0.010225209
0002b0 89 18 29 bd eb a6 03 3e 62 c5 1f bc 60 ae d9 bd
       -0.041283164 0.12856643 -0.00975165 -0.106289625
0002c0 22 db 9a bc 86 ec a4 3d 77 fb ae bb d5 b9 b8 3d
       -0.018903319 0.08052926 -0.0053400355 0.0901982
0002d0 47 8b 92 3d ce a2 28 be 4f 57 6f bd 0b 97 06 bc
       0.07155471 -0.16468355 -0.058432873 -0.008214722
0002e0 19 93 c1 bd 98 91 34 3d f2 08 b7 bc ae 78 04 be
       -0.09451885 0.04408416 -0.022343133 -0.1293666
0002f0 65 1a ee bc 0d d9 27 bd 1f 53 c8 bd a5 5d 84 bd
       -0.02906532 -0.04097848 -0.09781479 -0.06463174
000300 52 4d e1 3c de 2f 63 3d 8b 33 a7 bc ef 79 fd 3b
       0.02750269 0.05546557 -0.02041032 0.007735483
000310 74 a7 c6 3d 33 25 aa 3d de fb 5d 3d ea 86 74 bd
       0.09699908 0.083078764 0.054195277 -0.059698977
000320 9e 3e d4 3d 02 07 31 3d 67 40 86 3d a7 55 7f 3d
       0.10363506 0.043219574 0.065552525 0.062337544
000330 58 1b 9b 3d ba 6c 48 bd 1a f0 91 3c f8 35 93 3d
       0.07573575 -0.048931815 0.017814685 0.07188028
000340 22 dc 06 3e 03 05 fd 3d eb 1e d0 3c 2c a4 27 be
       0.13169912 0.123544715 0.025405368 -0.1637122
000350 dd 4c c7 bc 70 91 9a 3d 50 ee 35 bd 17 9d 1b 3d
       -0.024328643 0.07547271 -0.044416726 0.03799161
000360 8f 11 3c 3c 92 ee 54 bd 88 a2 93 bd 8b 33 26 3b
       0.011478796 -0.05198533 -0.07208735 0.0025360312
000370 6b b9 b5 b9 16 d2 7e bd 66 a4 a9 bd b7 45 56 bd
       -0.00034661157 -0.062212072 -0.0828331 -0.05231258
000380 76 97 7c 3c 0f 47 81 3d e6 2c 44 3d f6 c7 38 bd
       0.0154169705 0.063123815 0.04789438 -0.045112573
000390 16 3f 8d 3d 06 87 9a bd 56 55 d5 bd 66 0a bd bd
       0.06896798 -0.07545285 -0.10416667 -0.09230499
0003a0 ab bf 11 3c 47 fd 7c bd a7 fc 12 3d 4e 2c 9d bd
       0.008895795 -0.06176498 0.03588548 -0.07674466
0003b0 87 ff b2 bb ea d3 dd bd 92 3f 4e 3d 1e d0 92 bc
       -0.00546259 -0.10831435 0.050353594 -0.017921504
0003c0 ea fe 51 3d fc 1b ee bd b0 e3 b0 3a 47 05 92 3d
       0.051268496 -0.11626431 0.001349559 0.07129913
0003d0 5f da 39 bb c8 ce 95 bd 4a 58 94 bc 38 d8 64 bd
       -0.002835892 -0.07314831 -0.018108506 -0.055870265
0003e0 76 e5 96 3c 08 e9 be 3d d1 40 3c 3d ed ff cd 3c
       0.018419962 0.09321791 0.04596025 0.025146449
0003f0 9c 91 65 bd 88 2a 89 bc 24 f4 7b bd f3 61 bf bd
       -0.056047067 -0.016743913 -0.061512128 -0.09344854

mid_part.1.bias f4 [12]
000000 6b a2 f8 3b f7 d1 02 3d cc 12 7f 3d f0 b7 e6 3b
       0.007587721 0.03193852 0.062273785 0.00704097
000010 fb 22 26 3d a4 07 6b bd a1 8e 37 bd 08 6b 3e bc
       0.040560704 -0.057380334 -0.044813756 -0.011622198
000020 f5 ec e0 ba 4b fb 6b bc 67 1c 80 bd 3e ce a9 bd
       -0.0017160462 -0.014403175 -0.06255417 -0.08291291

mid_part.2.weight f4 [12, 12, 3, 3]
000000 06 86 ed 3d c1 d1 ff 3d 92 f7 d3 3d 48 c5 af bd
       0.115978286 0.12491179 0.10349955 -0.0858255
000010 0c 25 94 bd 7e c4 29 3a 13 4b 87 bc 9c fa c2 bd
       -0.07233629 0.0006476118 -0.01651529 -0.09520456
000020 09 a4 81 bd 8b a5 f1 bd 47 db c2 bd f9 f9 1e 3d
       -0.06330115 -0.11799153 -0.0951448 0.03881261
000030 e0 e5 fc bd 26 e0 0c 3d 81 ac b3 3d 05 d3 85 3c
       -0.12348533 0.034393452 0.08773137 0.016335974
000040 25 e4 d1 bc 20 09 99 3d 05 55 28 3b 9d 2a bf 3d
       -0.025621483 0.074724436 0.0025685441 0.093343
000050 9e 94 a1 bd 61 e2 7f 3c 95 2d a3 3c e9 d9 94 bd
       -0.078896746 0.015617938 0.019919196 -0.072681256
000060 12 81 3e 3d 57 69 57 3d 97 92 5a bd 17 cd 51 3c
       0.04650981 0.052590694 -0.053362455 0.012805245
000070 09 9f be ba bb 1a e5 bd 0c 2b da 3d c4 3b 36 bb
       -0.0014543246 -0.11186739 0.10652742 -0.002780662
000080 10 d8 8f 3b d7 ba 94 bd 5f d0 b1 bc 0e 0f 93 bc
       0.0043897703 -0.07262199 -0.021705804 -0.017951515
000090 9a 1e 1b 3e df dd f9 3c f6 3e 82 bc 3a 16 bd bc
       0.15148392 0.030501304 -0.015899163 -0.023081888
0000a0 ae 52 71 3a a2 e0 c7 bc 9a 8b 80 bb df 0a 06 3d
       0.00092057406 -0.024399105 -0.003922892 0.03272521
0000b0 19 ad c5 3c 34 9d f0 bd 00 70 af 3c 42 c0 21 3e
       0.024130391 -0.11748734 0.02141571 0.15795997
0000c0 b0 17 72 3d ba d0 50 3e 82 63 1a be cb 98 be 3c
       0.05910462 0.20392123 -0.15077022 0.023266217
0000d0 87 18 7f bd 28 2b 96 3d 88 0f 0d bc cf 52 40 3c
       -0.06227925 0.0733245 -0.00860966 0.011738493
0000e0 5d b0 59 3d 21 03 0c be be aa f0 bd 1e 19 0a 3d
       0.05314671 -0.13673069 -0.117513165 0.03371536
0000f0 37 31 fe bb 1d b4 fe 3d 11 84 10 3e 23 ea 5a bd
       -0.0077573317 0.12436698 0.1411288 -0.053445946
000100 07 1c 80 3c 18 1d 26 3b 8d 6c 69 bd 12 a1 1c bd
       0.015638364 0.002534693 -0.056988288 -0.038239546
000110 e5 03 6a 3c 34 72 c1 3d c2 c8 52 3d 94 cc 1e bd
       0.014283155 0.09445611 0.05146099 -0.03876932
000120 2d 06 3f 3d 33 cb 17 3d 09 f2 9d bd 7f 9c 5b bd
       0.04663675 0.03705902 -0.0771218 -0.053616043
000130 4e eb 25 3d c9 fc fb bb 9f a9 91 bd 12 cc 35 b9
       0.040507607 -0.0076900464 -0.07112431 -0.00017337527
000140 cf 00 d4 3d 71 41 b6 bc 1c 97 17 bd 99 dc 51 3d
       0.10351717 -0.022248002 -0.037009344 0.05123577
000150 da 6a 01 be 0c 75 0a be 54 7b 0c be be 12 c2 3c
       -0.12638417 -0.13521212 -0.13718921 0.023690578
000160 9f ea 04 bd 1d 56 e1 3c cf 0a 11 3e 0d 5b 1d 3e
       -0.032450315 0.027506882 0.1416428 0.15366764
000170 fb 26 fd bc 46 95 5f bd 11 22 b4 bd 30 6f bb 3c
       -0.030902376 -0.054585718 -0.0879556 0.022880167
000180 4d 1d 73 3d ed d6 5d bd 4f e9 19 3d 38 fb b8 3d
       0.059354115 -0.054160047 0.037576016 0.09032291
000190 5c 47 29 3d 3c 51 c6 3c 97 84 cb 3d c8 62 80 bd
       0.04132782 0.024208657 0.09937399 -0.06268841
0001a0 d5 b2 66 3c ac 2d 83 bc 7d 25 71 bd bf 57 76 3d
       0.014080723 -0.016012989 -0.058873642 0.060142275
0001b0 eb 19 0e 3e 53 1d 26 bc d6 6c 95 bc fb 74 5c 3c
       0.13877074 -0.010138827 -0.018240374 0.013455625
0001c0 d5 8f 4f bd 58 2b 48 be bb 06 60 3d f0 9b 3b bd
       -0.05067428 -0.19547784 0.05469392 -0.04580301
0001d0 b9 84 a7 3d e1 b4 a9 bd 45 0b f2 bc c0 74 de 3c
       0.08179612 -0.08286453 -0.02954639 0.02715528
0001e0 78 b3 68 bd a9 d8 c2 3c ca 79 0d 3d 5b 0b 8a bd
       -0.05681178 0.023784952 0.034539975 -0.06740447
0001f0 d8 67 9f 3d 57 d7 3a 3c 12 89 97 3c c9 e1 e1 3d
       0.077834785 0.01140388 0.018497977 0.11029393
000200 67 e7 3c bc fe 55 da 3d af 8c 42 bc 29 c5 28 bc
       -0.01152978 0.10660933 -0.011874362 -0.010300913
000210 eb e0 dc 3d ee 89 c1 bd 41 58 99 bc 57 25 e9 3c
       0.10785087 -0.09450136 -0.01871884 0.028460188
000220 6c 51 46 3b b9 d0 f2 3c 69 1c 88 bc 75 94 b2 bd
       0.0030260934 0.029640542 -0.01661511 -0.08719722
000230 d9 a6 19 3e 33 5e 39 3d d1 ed d8 bd 0c d7 43 3e
       0.15005054 0.04525585 -0.10592235 0.19125003
000240 dc e5 cc 3d a6 7d 12 3c dd e8 72 bd 72 07 e3 3d
       0.1000478 0.00894109 -0.059304107 0.110854045
000250 87 f8 df bd cf 2a 95 bd eb 22 77 3d c5 fe 1f bd
       -0.10936075 -0.07283556 0.060336035 -0.039061327
000260 51 17 7b bc 61 43 f4 bc a1 4b 3c 3e 95 02 60 3c
       -0.015325383 -0.029817285 0.18388225 0.013672491
000270 14 54 06 3e 47 5d 12 bc 27 2c 3a be b4 57 a2 bd
       0.13118011 -0.008933372 -0.18180905 -0.07926884
000280 8b c1 2c 3b c8 7b f2 bc aa 1c f9 bd a6 ee 27 bd
       0.0026360478 -0.02960004 -0.1216367 -0.040999077
000290 4a 2b 82 3d bd 2f 0a bd 46 fa 2e 3d 4a 45 f1 3d
       0.06355913 -0.033736933 0.042719148 0.11780794
0002a0 c7 7f 7f 3d 1e 1a 01 3e 7c 10 59 3d 22 73 dd 3c
       0.062377717 0.12607619 0.052994236 0.027032439
0002b0 87 ae b0 3d 29 c8 52 bd 75 5f 7e 3b 9c a5 46 3d
       0.086270384 -0.05146042 0.003881422 0.04849778
0002c0 2c f9 05 bd 6f 71 46 bd e6 cc de bd f3 5d 8c bd
       -0.032708332 -0.048448022 -0.10878925 -0.06853857
0002d0 32 91 23 bc 78 4b 7e 3d c5 0d 2a ba 95 59 12 3d
       -0.009983348 0.06208369 -0.0006487037 0.035729963
0002e0 5a fa 35 bb 5a 32 54 3d e5 1f 0d 3d fa d8 92 3d
       -0.002776763 0.05180583 0.034454245 0.07170291
0002f0 c8 52 61 3d 0b 05 7b bd 88 7f 9d bd a4 f5 12 be
       0.055010587 -0.061284106 -0.0769034 -0.14351517
000300 1c a2 7b bd f5 38 28 bc 79 a2 2c 3e 29 ad 5a bd
       -0.061433896 -0.010267486 0.16858853 -0.053387795
000310 12 dd c5 bc 57 51 83 3e 7b 3e c7 3d b8 d3 ac bd
       -0.024153266 0.25647995 0.09728714 -0.0843882
000320 e4 99 b1 bd 89 99 87 3a dc 88 88 bd 1c c7 73 bd
       -0.086719304 0.001034544 -0.06666729 -0.059516057
000330 22 86 01 bd 10 ac 24 3d 33 96 3d bd 3b 96 aa bd
       -0.03162206 0.040203154 -0.04628582 -0.083294354
000340 24 28 39 bc 9a 45 28 3d d3 a3 83 bd de eb 12 bc
       -0.011301074 0.041082002 -0.06427731 -0.008967368
000350 5d 5e c3 3c 1a af 0e 3b 84 35 6f 3d c1 b5 15 3d
       0.023848707 0.002177185 0.058400646 0.036550287
000360 7b b9 52 3b bd 56 dd bd 37 e0 89 bd c1 b7 53 bd
       0.0032154012 -0.1080756 -0.06732219 -0.051688913
000370 b5 9e ca bd 18 f1 96 3c 32 09 ce 3d b7 ad 10 3d
       -0.09893552 0.01842551 0.100603476 0.035321917
000380 12 ac 61 3d 37 bc f1 3c 2c 05 78 3d ef 2d 48 bc
       0.05509574 0.029508693 0.060551807 -0.012217983
000390 0b 4a 6b bd 00 6a de 3d dc 97 8b bd 64 f3 0b bd
       -0.05744366 0.10860062 -0.06816074 -0.034167662
0003a0 11 54 5a bc f3 06 d1 bc 64 af df bd 45 a1 70 bd
       -0.013325707 -0.025516009 -0.10922125 -0.05874755
0003b0 fb 86 ad bd 1b aa e0 3c b3 6d 67 3c 88 00 8f 3d
       -0.08473011 0.027424863 0.014125275 0.06982523
0003c0 61 a3 6e bd 15 89 e0 3c 6f 3e 5c 3a f7 27 c5 bd
       -0.05826128 0.027409116 0.00084016373 -0.09626763
0003d0 67 9d f9 3c 73 04 80 3d bd e9 61 bd a5 14 dc 3d
       0.030470563 0.062508486 -0.05515455 0.10746125
0003e0 a9 da a8 3c e0 8e 90 3d 77 6b 75 bd e3 5e 56 3d
       0.020612078 0.07058501 -0.05991694 0.052336585
0003f0 8b 6a 8c bd 8f bb 96 3b 45 bd 43 bd 6b 5a dd bd
       -0.06856259 0.0045999954 -0.047787923 -0.108082615

mid_part.2.bias f4 [12]
000000 94 6a c6 3d 6a 44 d9 3d a6 c5 b8 3c 95 07 86 bd
       0.09688297 0.10608752 0.022555184 -0.06544415
000010 06 fa 95 bd df ae 65 bd df b4 bb bd 3e 2e 24 bc
       -0.07323079 -0.056074973 -0.09165358 -0.010020791
000020 b8 3e b5 3d cc 64 93 b9 b4 bd fd 3c 67 67 b9 bd
       0.08849853 -0.00028113124 0.030974247 -0.090529256

mid_part.3.weight f4 [12, 12, 3, 3]
000000 9d e7 b6 bc d3 94 2f bd aa 78 94 bd 55 1a a2 3d
       -0.022327239 -0.04286654 -0.07249577 0.07915179
000010 d6 28 0b 3e 19 07 d2 3d d5 0f 10 3e 41 8d f2 bd
       0.13589796 0.1025526 0.1406854 -0.11843348
000020 f4 2f a9 bd bf e6 a9 bc 67 00 8b bd 2e 47 5b bd
       -0.082610995 -0.020739911 -0.06787186 -0.05353468
000030 96 0d 09 3c 0f a6 88 3d af 4f 78 3d 80 20 e3 3d
       0.008365056 0.06672298 0.060622867 0.11090183
000040 95 ab 92 3d 3b 20 bc 3d 33 37 af bd 5e 1e 35 3c
       0.07161633 0.09185835 -0.0855545 0.011054603
000050 37 07 2e be c6 52 5e 3c 01 1f 95 bd 36 b3 44 bd
       -0.1699494 0.013569539 -0.07281304 -0.04802247
000060 bd 81 12 3e 57 ac a3 3b b6 83 d2 3c 1e 47 0b bd
       0.14307304 0.0049949097 0.02569757 -0.03400337
000070 83 c6 be bc 1d 52 df 3d 82 ad aa bb d1 59 06 bd
       -0.023288017 0.10904334 -0.005208672 -0.0328005
000080 c4 f2 02 bd 2a c2 05 3d 01 75 36 be d7 a3 03 3e
       -0.0319698 0.032655872 -0.17818071 0.12855469
000090 1a 31 59 bd 99 6f 74 bd ff 39 f4 3d 2a 4f 22 bd
       -0.053025343 -0.05967674 0.119251244 -0.039626278
0000a0 be 40 a2 bc 59 7c 5e 3c 01 75 e1 bd 08 9d fc bb
       -0.019806262 0.0135794515 -0.11008645 -0.0077091493
0000b0 67 d1 6c bd 65 c6 01 3d 6c db 13 3d 83 9c 47 3a
       -0.05781689 0.031683344 0.03609793 0.00076145696
0000c0 47 c7 19 3e 13 13 91 3c 1f 60 ea 3c d5 5a 89 3d
       0.15017425 0.01770929 0.028610287 0.06706778
0000d0 92 a7 9d bd ee 0e ce bd c7 48 e9 bd ce 53 da 3d
       -0.07697977 -0.10061441 -0.11390834 0.10660516
0000e0 0b 39 75 3c 69 a8 ee 3d b5 28 1b bd b6 b8 0f 3d
       0.014967213 0.116532154 -0.037880618 0.035088263
0000f0 44 2d ef 3d 0e 20 35 bc 58 d9 13 3e 86 9d 80 bd
       0.116785556 -0.011055006 0.14438379 -0.06280045
000100 6f 87 98 3e 28 84 d6 bd 4b fa 34 3e 21 5f 10 bf
       0.29790828 -0.104744256 0.17673604 -0.56395155
000110 22 52 f4 3e 09 4c 68 b9 6f 71 59 3e 2b c9 0f 3e
       0.47718912 -0.0002215357 0.21234678 0.14041583
000120 ad 2d 8e 3d 23 43 6b bd e7 8f be bd ae 4a 96 3d
       0.06942306 -0.057437073 -0.09304791 0.07338463
000130 0e 62 a4 3c a1 90 40 bd 9e 7a 1f bd 65 d1 0a 3d
       0.020066287 -0.04701293 -0.038935296 0.0338911
000140 24 16 2b bd 1b aa 3a bd 7c 49 f2 bc 99 6f df bd
       -0.04176916 -0.04557238 -0.029576056 -0.109099574
000150 44 a0 f0 3d bf e3 5f 3d 30 b0 eb 3c 46 be db 3d
       0.11749318 0.054660555 0.028770536 0.10729651
000160 f6 f2 d8 bd a2 4c b7 bd 55 d3 a4 3d 58 93 8a 3d
       -0.10593216 -0.089501634 0.08048121 0.06766385
000170 d6 d6 fb 3b 1d 31 a9 3d 70 12 31 bd 41 b4 89 3e
       0.0076855225 0.08261321 -0.043230474 0.26895335
000180 1f 6b 84 bd 3d e5 96 bd 08 b9 22 3e d1 58 56 bd
       -0.06465744 -0.073679425 0.15890896 -0.052330796
000190 42 77 80 3c 0e 5b 06 3e 95 c5 f6 bd 98 be 59 3d
       0.015681867 0.13120672 -0.120494045 0.05316028
0001a0 99 58 81 3e ca 80 ed 3c 92 df 5d bd 0f 80 7e 3e
       0.25262907 0.028992075 -0.05416829 0.24853538
0001b0 7f 91 76 bc a3 6f 8b bd 53 5f d0 3c a6 66 ba bd
       -0.015049337 -0.068084024 0.02543608 -0.0910161
0001c0 cd 8e e2 bd 89 6e 0a 3e 50 da d7 bb 1a 00 fe bd
       -0.11062393 0.13518728 -0.006587304 -0.12402363
0001d0 73 75 03 bd 26 85 fb 3c 3c 98 bf 3d a2 22 a8 3d
       -0.03209443 0.030703139 0.09355208 0.08209731
0001e0 ce aa 81 3d 89 ca ab bd ea 17 82 3d 15 26 7a bd
       0.063314065 -0.0838824 0.063522175 -0.061071474
0001f0 50 1f 8e bb fe 6a 82 3d 8d 94 d7 bc 72 ab 9c 3d
       -0.004337229 0.063680634 -0.026315952 0.07649888
000200 1d 5e 2f 3c 76 13 05 bd c3 e3 ad bc ec 9d e6 bc
       0.010703591 -0.032489263 -0.02122677 -0.028151475
000210 2c 81 2f 3d e4 88 15 3d 0d 7e 03 bd 2c a1 e9 3c
       0.042847797 0.036507502 -0.032102633 0.028519236
000220 15 0f 31 bc 61 52 3d bd ba f4 d4 bd bf fa dc bc
       -0.0108068185 -0.04622114 -0.103982404 -0.026975034
000230 ca 2e bc 3d 65 48 9c bd 1b 0e be bd 21 56 60 3d
       0.09188612 -0.07630996 -0.09280034 0.05476964
000240 78 85 b7 bd ef 04 28 bd cf a8 81 bd f1 13 c2 bc
       -0.08961004 -0.04102033 -0.06331026 -0.02369115
000250 c9 6c ab bd 56 98 0d 3d c5 73 de bc 88 b2 f5 3c
       -0.083703585 0.034569107 -0.027154813 0.029992357
000260 3c dc d8 bc b5 08 86 3d fb 79 5e bb 7c a4 0a bd
       -0.026472203 0.065446295 -0.0033947218 -0.03384827
000270 06 c9 ef 3c 3f e6 32 3d 2a 35 01 bd 38 94 13 3d
       0.02927066 0.04367661 -0.03154484 0.036030024
000280 56 22 a2 bd ef 61 b8 3c 0d e1 b1 3c 60 c2 57 3d
       -0.07916705 0.022507636 0.021713758 0.052675605
000290 8b 1d e4 3c 68 40 90 3d 4a 9d 89 3d cd 8c 50 3d
       0.027846118 0.070435345 0.06719454 0.050915528
0002a0 88 13 76 ba ae 8a 44 bd aa e5 c5 bd b5 86 36 be
       -0.00093870657 -0.047983818 -0.096629456 -0.17824824
0002b0 1e af 16 3e 33 99 0e 3e e3 55 19 3c 38 03 ec 3b
       0.1471524 0.13925628 0.009358856 0.007202532
0002c0 01 7c 4d bd c6 de 00 3d 2e 5f 1d 3e 0d ed 37 be
       -0.050167087 0.031462453 0.1536834 -0.17961521
0002d0 58 e5 54 3c 78 cf 8b 3d 30 c6 9c bd 4e b8 46 3d
       0.012994133 0.06826681 -0.07654989 0.04851561
0002e0 61 62 89 bd fd 81 d2 bc 2a 6d 3b bd 9b 99 a8 bd
       -0.067082174 -0.025696749 -0.045758404 -0.08232423
0002f0 d2 e8 89 bd a8 8b 7d bd 7e ce 83 3d 5d a8 82 bc
       -0.0673386 -0.061900765 0.0643587 -0.015949422
000300 6b b3 3b bc 84 77 50 3d 28 5c 90 3d 76 21 a4 bd
       -0.011456351 0.05089523 0.070488274 -0.08014195
000310 64 77 7f 3d e0 2c a7 bd 8e 2e 92 3d 21 87 b4 bd
       0.06236972 -0.08162856 0.07137786 -0.08814836
000320 18 59 c6 bd 15 eb 78 3d 3d 79 dc 3c 21 33 34 bd
       -0.09684962 0.060771067 0.02691328 -0.043994073
000330 de f2 25 3d d1 3a a6 bd e0 e6 80 bb 3e 19 ba bc
       0.04051482 -0.08116687 -0.0039337724 -0.022717115
000340 7f f4 2d bc 32 10 ad 3c 4c 34 0e 3c f3 6f 93 bd
       -0.010617374 0.021125887 0.008679461 -0.07199087
000350 e7 05 85 bd ce 72 56 3d 9c 4b 59 bd ff 6d 24 3d
       -0.064952664 0.05235558 -0.053050622 0.040143963
000360 d5 6b a3 3c fc 11 9a bd 9f 13 40 3d 4e 54 13 3d
       0.01994888 -0.075229615 0.046893712 0.03596907
000370 c8 c6 07 3e 99 d1 19 3c 50 f9 78 3d 98 50 8a 3d
       0.13259423 0.009388351 0.060784638 0.06753653
000380 ac bc 3c 3d 65 6b 0b bd ad 5d 53 bd 30 70 77 3c
       0.04607837 -0.034037966 -0.051603008 0.015102431
000390 6f 55 a7 bd 90 65 42 3d 02 e2 9b 3d ab c9 5d bb
       -0.08170592 0.04746014 0.07611467 -0.0033842127
0003a0 6c 08 9f 3d 35 0b 99 3d 14 18 63 bd c0 d9 b7 bc
       0.07765278 0.07472841 -0.055442885 -0.022442698
0003b0 d5 66 7a bd de 02 06 bd a2 f1 ba bd 31 2f 12 3d
       -0.061133225 -0.032717578 -0.09128119 0.035689536
0003c0 fe fb ad 3b 37 80 34 bd 52 9f 91 bd 54 6e f8 3b
       0.005309581 -0.044067588 -0.07110466 0.0075815115
0003d0 df c3 6e 3d 45 19 9c 3d ba e4 0e bd 2b 61 ca 3c
       0.058292266 0.07622007 -0.0348861 0.024704536
0003e0 46 bf c0 bd 9c f6 99 3d ef 6e 8f 3d 8e a9 b6 ba
       -0.094114825 0.0751774 0.07003581 -0.0013936029
0003f0 24 06 32 bd 0c 9e 8a 3d 6a b8 c3 bd 9e 2e 88 3d
       -0.043462887 0.06768426 -0.095566586 0.066495165

mid_part.3.bias f4 [12]
000000 eb 04 37 3d 17 89 1c 3d 36 35 fa bc 4d 66 a4 bd
       0.044682425 0.038216677 -0.030542951 -0.08027325
000010 9a af e2 3b 7b b0 50 3d f5 fa 7a 3c 54 7b b2 3c
       0.006917906 0.050949555 0.015318622 0.021787323
000020 7a 5c 6c 3d 0c d8 14 bd 60 0a 51 bd 19 c5 a6 bd
       0.05770538 -0.03633885 -0.051035285 -0.08143062

mid_part.4.weight f4 [12, 12, 3, 3]
000000 0b bb f6 bd f6 98 e9 bc 0c 07 49 bd 25 1b 66 3d
       -0.12047394 -0.02851532 -0.049078986 0.05617823
000010 36 8d 85 3d e8 7f 57 3d df 0b 01 bd 60 82 f1 3d
       0.065210745 0.052612215 -0.03150546 0.11792445
000020 54 8a aa bd bf 77 8f 3d 0a 5a 26 bd 94 2a 89 bd
       -0.08327165 0.07005262 -0.04061321 -0.06697574
000030 dd 4e bf bd ef 1e c3 bd d9 6d 43 bd 5b 7e 61 bd
       -0.09341214 -0.095273845 -0.04771218 -0.055052143
000040 d7 d6 95 bd 02 17 41 bd 61 0d b1 3b b3 ba 86 3d
       -0.07316368 -0.047141083 0.005403206 0.06578579
000050 5c 1c 6b 3d 5d 26 15 3e b9 f5 b5 bc d0 e3 94 3d
       0.057400092 0.14565416 -0.022211896 0.07270014
000060 24 01 11 bc b7 51 42 3d 89 90 67 3d eb 47 be 3d
       -0.00885037 0.04744121 0.056534324 0.09291061
000070 64 e7 1d bc 35 e6 c9 3d c9 c7 59 3d b9 a3 80 bd
       -0.009637687 0.09858362 0.053169046 -0.062812276
000080 5f 5c 40 3d 05 d8 bf bd c5 da 98 bd a9 ee 51 3c
       0.046963092 -0.09367374 -0.07463602 0.012813249
000090 ad 25 4f 3d d8 fc 20 bd eb a0 b6 bd a5 b6 42 3d
       0.05057304 -0.03930363 -0.089174114 0.047537465
0000a0 56 a8 00 bc 9f 92 96 3d 50 dd 88 bd e4 2c b6 bb
       -0.007852634 0.073521845 -0.06682837 -0.0055595506
0000b0 2f 01 8a bd 34 b7 47 3d 47 1b 0c 3d ca 44 6e bd
       -0.06738507 0.0487587 0.0342057 -0.05817107
0000c0 cf 9c 1b bd e4 86 8e 3d 72 fb d0 bc ce 18 f2 bd
       -0.03799134 0.06959322 -0.025510523 -0.11821137
0000d0 e8 f7 1e bd 97 d2 e0 bc 1c 84 de bd 01 ef 31 3d
       -0.03881064 -0.027444167 -0.108650416 0.043440823
0000e0 8b 58 a8 3d ef 2d 37 3d be d1 8e 3d bd ca 07 3c
       0.08220013 0.04472154 0.06973599 0.008288083
0000f0 fb 28 9b bd cf b1 91 3d 2d b5 1f b9 66 b6 63 3d
       -0.07576176 0.071139924 -0.00015230915 0.05559387
000100 0d 1b 94 bd 6c c6 15 3d 9e 99 8d bd 63 05 51 3d
       -0.07231722 0.036566183 -0.06914066 0.051030528
000110 5e 3d 22 3d 2d 6e dd bd e5 63 f9 3c 82 9d 65 bd
       0.039609306 -0.1081203 0.030443141 -0.056058414
000120 dc e0 ca 3d 7b 72 55 3d 6b 55 90 bd 96 f5 f0 bc
       0.0990617 0.05211113 -0.07047542 -0.02941398
000130 3f b4 71 bd 59 f5 a3 3d b7 17 a7 3d 46 b7 c2 bd
       -0.059009787 0.08005781 0.0815882 -0.09507613
000140 8b e7 8a bd 54 84 ab 3d 32 99 87 bc d7 cd 84 3d
       -0.067824446 0.08374849 -0.016552541 0.06484573
000150 ba b7 3a bc e5 1b 0c bd 7c c3 94 bb bc 46 ad bd
       -0.011396343 -0.03420629 -0.004539905 -0.08460757
000160 ac d5 b2 3d 90 21 d6 3d 98 1c ec bc ea 80 2e bc
       0.08732161 0.1045562 -0.028822228 -0.010650853
000170 00 09 c0 bd b8 9b a7 bc 0d 65 de bc 17 e8 fb 3c
       -0.093767166 -0.020459995 -0.027147794 0.030750317
000180 61 b7 43 3c 73 79 17 3d d8 40 00 bd 45 ec a6 bb
       0.011945576 0.036981057 -0.03131184 -0.0050940835
000190 00 e4 16 bc d0 6a 99 bd 18 83 7e bd 77 5d ea bd
       -0.009209633 -0.07491076 -0.06213674 -0.11443608
0001a0 23 0b e6 bc 64 34 84 3d 53 33 f7 3b 19 f6 d2 bc
       -0.028081482 0.06455305 0.00754396 -0.025752114
0001b0 b7 2b d3 3d b5 cf 26 be fd 8f 90 3d 8b 02 a7 bd
       0.10311072 -0.16290171 0.070587136 -0.08154782
0001c0 23 5f 80 be de f2 96 3e 77 13 2c 3e 9f 61 7a 3d
       -0.25072584 0.29482168 0.168043 0.061128255
0001d0 38 a8 93 bd c2 69 97 bd b4 34 50 3d 8e 54 87 bd
       -0.072098196 -0.073932186 0.05083151 -0.066079244
0001e0 1a 71 a8 bb 2e 8f 3b bc a4 fe 93 3d 30 61 03 3e
       -0.005140436 -0.011447711 0.07226303 0.12830043
0001f0 91 b4 19 bc 59 a9 9e 3d 86 eb 11 bd 00 d2 7a bd
       -0.009381429 0.07747144 -0.035625003 -0.061235428
000200 12 d5 29 3d 5f 1d 34 bd b9 2b ec 3d 45 e6 0e 3d
       0.041462965 -0.043973323 0.11531777 0.03488757
000210 39 3d 9b bd 8e 28 11 bc 52 2b ab bc 3a 06 a0 3c
       -0.07580037 -0.008859767 -0.02089468 0.019534219
000220 66 88 f7 bd f3 92 0e bd af aa 7e bc 11 45 9e 3d
       -0.12086563 -0.03480811 -0.015543624 0.07728017
000230 ba e8 de bc 8e 8c 49 3e 75 e1 e6 bc 15 23 68 be
       -0.027210582 0.19682524 -0.028183678 -0.22669633
000240 d0 42 44 3c 2b e1 e3 bd 04 30 be 3c be e4 c8 bd
       0.01197882 -0.11126932 0.023216255 -0.09809254
000250 ad b0 eb bd 42 9c 74 bc 6d 50 94 bd 05 9c fa bd
       -0.115083076 -0.014929833 -0.072419025 -0.122367896
000260 5e 29 5d bd 03 be 93 3d ee 0d 0d 3e 06 c9 ef bd
       -0.05399453 0.07213976 0.13774845 -0.11708264
000270 9c 4b 8e 3d 5c f8 2a bd 31 81 05 3d c4 7a e4 bd
       0.06948015 -0.04174076 0.03259391 -0.11156228
000280 0b e6 37 be e9 78 32 be e9 bb ec bd 13 f1 25 bd
       -0.17958848 -0.17428936 -0.115592785 -0.04051311
000290 22 fc 24 bd 25 cd 3a ba b8 08 30 bd 40 0e 26 bd
       -0.040279515 -0.0007125906 -0.042977065 -0.040540934
0002a0 04 00 74 39 a5 3c a9 3c 41 6d 37 bc 2d 66 4a 3d
       0.00023269659 0.0206588 -0.011195482 0.04941385
0002b0 40 83 eb bd a8 df 93 bd d7 3c 6c bc 82 ef f7 bd
       -0.11499643 -0.072203934 -0.014418802 -0.12106229
0002c0 7c 01 24 3d fe f6 da bd 1e 80 34 be b8 8c ed bd
       0.040040478 -0.10691641 -0.17626998 -0.115991056
0002d0 1c 8e 6b bd 2e 63 44 3d 2b f2 cc bd 41 ae ad 3c
       -0.057508573 0.047946148 -0.100071274 0.021201255
0002e0 29 82 22 bc 2a 57 09 be 90 1b 04 3d ad da 1c be
       -0.009918728 -0.13412157 0.03225285 -0.15317793
0002f0 94 ab 97 bd e5 d0 59 be c3 39 51 bc 2e 71 85 bc
       -0.07405773 -0.21271093 -0.012770119 -0.01628932
000300 fe 3c f7 bd 3b 19 05 3e 26 ae 46 3e e2 98 df bd
       -0.1207218 0.12997906 0.1940237 -0.10917832
000310 fa c4 04 be f9 04 40 3e 26 2c 5d 3b 62 fe 55 bd
       -0.12965766 0.18751897 0.0033748238 -0.05224455
000320 65 e0 0f 3e 35 d5 eb 3d 33 34 b5 3d ca 2b 3c 3b
       0.14050443 0.115152754 0.08847847 0.0028712624
000330 b8 d9 b2 3d ac 7d eb 3c 9f 6e 99 bd 92 bd bd 3a
       0.08732933 0.028746448 -0.074918024 0.0014476052
000340 0d 89 13 3e 4f 3d 4d 3d cc 8d f3 3d 1b 3c 65 3d
       0.1440775 0.050107297 0.1189228 0.055965524
000350 c5 7c df 3d 14 f9 53 bd 2d 68 65 bc 52 74 a7 3d
       0.1091247 -0.05175121 -0.014001888 0.08176483
000360 9a 83 fa 3c 93 e4 a0 bd 20 9c 14 3e 9e f1 96 bd
       0.03058033 -0.07856097 0.14512682 -0.073703036
000370 5e 6d fd bc 18 c4 d3 bc 5b dd ec bd aa 2c d1 3d
       -0.03093594 -0.02585034 -0.11565658 0.10213597
000380 23 4d 89 3d 5b a5 c8 3c 22 49 4e bd cc db 9a 3d
       0.06704166 0.02449291 -0.050362714 0.07561454
000390 4e ce ed 3c c8 9e 88 bc 44 4d 62 bd 9f 36 76 3d
       0.029029038 -0.016677275 -0.055249467 0.060110684
0003a0 6e d5 ab bd 18 31 25 bb cc 4f ca bc d4 f1 56 3d
       -0.08390318 -0.0025206264 -0.024696253 0.05247672
0003b0 57 bd f3 bc 20 46 62 3b 5c ba 70 3d b4 ac 6f bc
       -0.02975337 0.003452666 0.058771476 -0.014628578
0003c0 09 b0 6b bc fa 6e 0c 3e 33 93 8d 3c a0 4b 28 bd
       -0.014385232 0.13714209 0.017282104 -0.041087747
0003d0 9e 45 91 3c 71 53 03 bd 88 0b f7 bd 98 72 88 bd
       0.017733391 -0.032061998 -0.12062746 -0.06662482
0003e0 0d 82 02 be 21 91 dd bc c3 62 a9 bc 11 1c e0 3d
       -0.12744923 -0.027046742 -0.020676976 0.10942853
0003f0 1d 18 97 3b f2 1a c9 bd 28 b0 75 bd 58 ff d6 bd
       0.004611029 -0.098195925 -0.05998245 -0.10497922

mid_part.4.bias f4 [12]
000000 1c 5b 88 3c 08 96 0b bc 7b ee 2a 3c fc 35 65 3c
       0.016645007 -0.008519657 0.010432835 0.013989922
000010 16 fd c1 bd 09 1c a0 bd 1d c8 a4 bc 16 f9 3e bd
       -0.094721004 -0.07817847 -0.020114953 -0.046624266
000020 11 a2 89 3d 5d 0a a2 bc 14 27 37 3e 04 8f 98 3d
       0.06720365 -0.019780332 0.17886001 0.07449153
