checkpoints/model_up_4_epoch_150.pth (torch_old, 50087 bytes, 15 tensors)

first_part.0.weight f4 [56, 1, 5, 5]
-0.026523445 0.0586684 -0.06130783 0.13483998 -0.10851763 0.1901824 -0.12432547 -0.15391035
-0.10114945 0.14510387 -0.059806257 0.04485259 -0.22973767 -0.14417191 -0.039512526 -0.02111629
-0.166039 0.097281106 -0.030723285 0.10914988 0.16838886 0.05205632 0.06460989 0.22428896
-0.045893416 0.03652651 -0.11307177 0.094962515 0.16001432 -0.23894162 0.199276 0.103544526
0.15763633 0.13532941 0.16022617 0.0036509424 -0.17852512 -0.04335048 -0.09883903 0.01550844
-0.028517691 -0.1305504 -0.08847074 0.25777265 -0.01655211 0.013671856 -0.026660278 0.077800244
0.17199539 0.103899926 0.11069915 0.07329792 0.06858547 0.10906174 0.009201903 -0.16428259
-0.12527153 0.1697719 0.05070116 -0.11632255 0.011179903 0.0948169 -0.2900659 -0.16967839
-0.062354326 -0.017086627 -0.09230167 -0.076433115 -0.21330127 0.11583104 0.17263524 0.09923677
-0.15943004 -0.15764081 0.10222941 0.021919927 0.07385644 -0.14887656 -0.027520707 0.23370114
0.054876037 0.0043182555 -0.09953422 -0.13685074 -0.15136337 -0.15409116 -0.12390143 0.10177803
0.18628189 0.018264323 -0.21527043 0.16016906 0.10740507 0.020519603 -0.10844813 -0.01776984
0.15682222 0.050078906 0.16880845 -0.021794656 0.1430345 -0.15261476 0.029733738 -0.1172694
-0.05400707 -0.04652776 0.031968858 0.21811941 0.12590098 -0.006691249 0.15838066 -0.06561039
0.16298603 0.026550895 -0.030629981 0.027311834 -0.12975408 0.0581511 0.08826865 0.1702326
-0.074510686 0.07252134 0.2088537 -0.090796635 0.17007342 -0.029964877 0.10059956 0.15158568
0.14208826 0.33897713 -0.02340113 0.14950891 -0.009651112 -0.17437276 -0.023801038 -0.16475217
0.1275435 0.058367725 0.218465 -0.14180757 0.0031546135 -0.034548175 0.05917504 0.135409
-0.017639097 -0.03506635 -0.017880803 0.06052606 -0.05074964 -0.021552207 -0.14504345 -0.07403519
0.029850371 0.13361292 0.063004285 0.14056504 -0.097714745 0.03101611 -0.1701828 0.092649125
0.05329215 0.23855416 -0.09950895 0.23961365 0.15726581 0.16423538 0.06751981 0.22944435
0.13187374 0.1318877 -0.029272877 -0.14416353 -0.003488873 0.03835477 -0.15532334 -0.110748455
-0.19311717 -0.07932558 0.16777687 0.024790185 -0.022234177 0.014372583 0.1303303 -0.2064817
-0.18361938 -0.055194292 -0.068192475 0.1597701 0.14041601 -0.20787811 -0.14538977 -0.15364362
0.12640187 0.18084748 -0.16141206 -0.07266765 0.09254458 -0.10584553 0.180219 0.04625907
-0.027581297 0.06505389 0.055003546 -0.069148235 -0.17852545 0.10862988 0.041443236 0.02129494
0.041748736 0.15803216 0.04018946 0.026964383 0.080138065 -0.09409548 0.12826924 0.0136708245
0.14910947 -0.14139305 0.072396755 0.015138705 -0.07756134 -0.10847355 0.17779551 -0.018133374
0.18258716 -0.17746447 -0.090283714 -0.16678485 0.08856705 0.010260213 -0.02795843 -0.058185413
-0.1822519 0.045742713 0.014787287 -0.14314969 0.034594566 -0.045440774 -0.22938854 0.10144477
0.12167971 -0.055241108 -0.1656148 0.006180235 0.15823375 0.21411452 -0.13244615 -0.078759015
0.17376629 0.11860902 0.11314965 -0.0919103 0.18886547 -0.1651582 -0.021975707 0.0029236178
00000000: b247 d9bc 474e 703d eb1d 7bbd 7e13 0a3e
00000010: 7e3e debd 2dbf 423e 5a9e febd ad9a 1dbe
00000020: 7127 cfbd 1c96 143e 68f7 74bd 59b7 373d
00000030: 5a40 6bbe cda1 13be e3d7 21bd 12fc acbc
00000040: 2106 2abe 513b c73d 66af fbbc f989 df3d
00000050: 216e 2c3e 0239 553d 3152 843d 01ac 653e
00000060: bcfa 3bbd d29c 153d 2c92 e7bd b57b c23d
00000070: cbda 233e 1dad 74be 020f 4c3e 270f d43d
00000080: 6b6b 213e cb93 0a3e 5412 243e a644 6f3b
00000090: 4acf 36be 4690 31bd 1e6c cabd 1d17 7e3c
000000a0: ef9d e9bc 01af 05be 2630 b5bd c7fa 833e
000000b0: 4a98 87bc ecff 5f3c a866 dabc bc55 9f3d
000000c0: 8f1f 303e 7cc9 d43d 3cb6 e23d 381d 963d
000000d0: 8a76 8c3d c35b df3d 94c3 163c b239 28be
000000e0: 2e47 00be afd8 2d3e 05ac 4f3d 843a eebd
000000f0: e92b 373c 5d2f c23d 8583 94be 2cc0 2dbe
00000100: 4067 7fbd 41f9 8bbc a808 bdbd f788 9cbd
00000110: a66b 5abe d338 ed3d 4bc7 303e a63c cb3d
00000120: a141 23be 986c 21be a75d d13d 6b91 b33c
00000130: 0c42 973d 1973 18be 1b73 e1bc 5a4f 6f3e
00000140: b2c5 603d 2780 8d3b 99d8 cbbd 9a22 0cbe
00000150: 00ff 1abe 13ca 1dbe 08c0 fdbd 0071 d03d
00000160: aec0 3e3e 109f 953c da6f 5cbe 5c03 243e
00000170: 30f7 db3d ba18 a83c 0e1a debd 0e92 91bc
00000180: 0196 203e 8a1f 4d3d 1fdc 2c3e b58a b2bc
00000190: a377 123e 0b47 1cbe 2b94 f33c f02a f0bd
000001a0: 8436 5dbd e493 3ebd c7f1 023d b25a 5f3e
000001b0: 30ec 003e 4442 dbbb 8a2e 223e bd5e 86bd
000001c0: cfe5 263e 4381 d93c baeb fabc 11bd df3c
000001d0: 41de 04be d92f 6e3d 32c6 b43d 7451 2e3e
000001e0: 0f99 98bd 1186 943d bfdd 553e 96f3 b9bd
000001f0: ba27 2e3e e778 f5bc 2407 ce3d 4739 1b3e
00000200: 967f 113e 698e ad3e bab3 bfbc dd18 193e
00000210: b31f 1ebc c68e 32be 65fa c2bc cbb4 28be
00000220: c39a 023e ff12 6f3d 4ab5 5f3e 0136 11be
00000230: a2bd 4e3b 6382 0dbd 8761 723d a8a8 0a3e
00000240: de7f 90bc bca1 0fbd c37a 92bc 2dea 773d
00000250: dbde 4fbd 418e b0bc 4586 14be c39f 97bd
00000260: c488 f43c d3d1 083e 6408 813d 48f0 0f3e
00000270: ab1e c8bd 7f15 fe3c 6644 2ebe d3be bd3d
00000280: df48 5a3d 8b47 743e 59cb cbbd 485d 753e
00000290: 4a0a 213e 522d 283e d347 8a3d 76f3 6a3e
000002a0: e909 073e 920d 073e accd efbc 9b9f 13be
000002b0: 93a5 64bb e419 1d3d 150d 1fbe 16d0 e2bd
000002c0: 82c0 45be 7375 a2bd b3cd 2b3e c914 cb3c
000002d0: 7324 b6bc fb7a 6b3c 4e75 053e f06f 53be
000002e0: b806 3cbe 6913 62bd 7fa8 8bbd c69a 233e
000002f0: 37c9 0f3e 00de 54be 0ee1 14be c154 1dbe
00000300: 7e6f 013e 1530 393e 3449 25be c7d2 94bd
00000310: 0388 bd3d 8bc5 d8bd 548b 383e 277a 3d3d
00000320: 2cf2 e1bc f93a 853d 664b 613d 979d 8dbd
00000330: 60cf 36be 5879 de3d 62c0 293d ba72 ae3c
00000340: b900 2b3d 2fd3 213e b49d 243d 69e4 dc3c
00000350: 6d1f a43d 22b5 c0bd 0359 033e 98fb 5f3c
00000360: 27b0 183e 57c9 10be c044 943d 5508 783c
00000370: 7bd8 9ebd 6127 debd 0710 363e 718c 94bc
00000380: 21f8 3a3e 3fb9 35be abe6 b8bd a6c9 2abe
00000390: a462 b53d 741a 283c 1409 e5bc d453 6ebd
000003a0: 3ea0 3abe b65c 3b3d 6146 723c d595 12be
000003b0: 08b3 0d3d 1b20 3abd d4e4 6abe 47c2 cf3d
000003c0: 3633 f93d 8044 62bd ed96 29be 9283 ca3b
000003d0: 0708 223e d640 5b3e f79f 07be 684c a1bd
000003e0: caef 313e 49e9 f23d 01bb e73d 783b bcbd
000003f0: f365 413e 3b1f 29be 6606 b4bc 2b9a 3f3b

first_part.0.bias f4 [56]
0.23075852 0.04064497 -0.05881141 0.082147285 -0.16577104 -0.00820816 0.119714 0.13546517
-0.10275628 -0.06529548 -0.05619724 -0.18093368 0.08718889 0.081129976 0.033170436 0.14048304
-0.08010611 0.0869465 0.08317482 -0.12174096 -0.08142087 -0.12427652 0.10318286 -0.14451662
-0.17901821 -0.04510505 -0.08766336 -0.052422862 -0.12808788 0.20946386 0.19784036 -0.1901704
-0.065510385 0.08263453 -0.1554556 -0.06637167 -0.05480084 -0.02907201 0.21721618 0.17437279
-0.14097124 -0.18604986 -0.010623927 0.089783534 -0.15390725 0.14682622 -0.0019895742 0.08834367
0.13279255 0.12957695 0.13723607 0.18392543 -0.008409736 -0.07813271 0.10307742 0.15300691
00000000: f64b 6c3e 577b 263d 3ce4 70bd d63c a83d
00000010: e2bf 29be 857b 06bc 9d2c f53d 62b7 0a3e
00000020: e271 d2bd a3b9 85bd 142f 66bd ae46 39be
00000030: 1790 b23d 7927 a63d b9dd 073d c9da 0f3e
00000040: ac0e a4bd 0211 b23d 8f57 aa3d 5353 f9bd
00000050: fcbf a6bd b084 febd 8951 d33d 2afc 13be
00000060: 8d50 37be 13c0 38bd d988 b3bd 5bb9 56bd
00000070: 7829 03be b27d 563e aa96 4a3e 08bc 42be
00000080: 4f2a 86bd 4b3c a93d c12f 1fbe dfed 87bd
00000090: d876 60bd 6d28 eebc eb6d 5e3e c88e 323e
000000a0: c45a 10be db83 3ebe fb0f 2ebc 6ee0 b73d
000000b0: dd99 1dbe 9d59 163e 8463 02bb 87ed b43d
000000c0: c5fa 073e d2af 043e 9d87 0c3e f356 3c3e
000000d0: fdc8 09bc 0b04 a0bd 411a d33d d8ad 1c3e

mid_part.0.0.weight f4 [12, 56, 1, 1]
-0.08283758 0.09484397 0.10407635 0.055502042 0.101030305 0.033793304 0.0626246 -0.124254346
0.04170894 0.006530178 0.05164229 0.041408643 -0.07502661 0.14609051 0.1296254 -0.075441636
-0.0364197 0.099796616 0.062481724 -0.059831325 0.015901754 -0.12692119 -0.086050406 0.008809517
0.122996226 0.003088106 0.019399146 0.06167898 -0.07492183 0.01153543 0.11251175 0.07625107
0.0839972 -0.064625636 0.030110866 0.07447911 0.096113585 -0.14348349 -0.010519557 -0.09898624
-0.035496715 0.048983134 -0.009716246 -0.039473277 -0.11471253 0.08546177 0.061563283 0.031351265
0.04027854 0.06753796 -0.006605394 0.059922285 -0.24895924 -0.14860904 -0.1309636 0.006649322
-0.18528569 0.006331504 -0.019440576 -0.09734196 0.15492444 -0.010530808 0.10972545 0.12855658
-0.051323716 -0.06883163 0.144731 0.030616987 0.10756465 -0.010805214 0.093233 -0.14473073
0.017114645 0.082071654 -0.028034922 -0.12086349 0.014185994 0.040364236 0.0097852675 0.047106363
0.06640252 -0.07156964 0.016658586 -0.11524722 0.059686802 -0.12399049 -0.07920964 0.038844615
0.09737897 0.11211996 -0.075650245 -0.13142972 0.09049088 -0.0806892 -0.13637264 0.021407334
0.12747861 0.040366784 -0.0039578965 -0.1375891 0.14111497 0.08741921 0.124421135 0.096127115
-0.12858362 -0.12832008 -0.030091194 0.043967105 -0.10617778 0.12498088 -0.050800554 0.0021781153
-0.041736104 0.09824687 0.0008649676 0.034610514 0.04889644 0.03344677 -0.029810391 0.03138454
0.043004815 -0.12717228 0.017530434 -0.11267684 -0.12616135 -0.018384423 0.03406146 -0.01219121
0.0042604897 -0.053712673 -0.041250095 6.775043e-05 -0.08651396 0.048073754 0.055001236 -0.02211258
0.0049843374 0.043271165 0.15737756 -0.03467894 -0.1044615 -0.13837354 -0.03892424 -0.118229724
-0.10604691 -0.06916182 -0.027564578 -0.01649032 0.01771864 0.08188011 0.13202651 -0.037931968
-0.10212863 0.13843021 0.12571885 0.12237192 0.05988563 0.079889186 0.025716668 -0.0832885
-0.19527473 -0.09330705 -0.005468293 -0.066526406 -0.045251187 0.082360305 -0.123594664 0.024811769
0.16047268 0.14131175 -0.00015107334 -0.04269222 -0.048742868 0.044416707 -0.07035734 0.1553814
0.0290364 -0.045799613 -0.089232676 -0.070370235 -0.089204386 -0.10430796 -0.13866921 0.089793935
-0.05004231 0.010747006 -0.02193522 -0.08308834 -0.08533235 -0.009540748 -0.096035674 -0.07204739
0.007277425 -0.04518589 0.086413376 0.11866788 0.06925997 0.13110307 -0.024230357 0.02833072
-0.0035040022 0.19089098 -0.19524485 -0.05428516 0.06699015 0.06521636 -0.118528746 0.16058598
0.08333176 0.09725891 -0.11215943 -0.027298171 0.016357303 0.12155305 0.07986142 -0.11797281
0.13174246 0.001211542 -0.044467874 0.1074232 0.15230127 0.004562977 -0.030439124 0.12547223
-0.070874736 -0.011479556 -0.068939954 -0.083555415 -0.0032758499 0.028383663 0.035508323 -0.036195222
0.10748435 -0.033553645 -0.097527675 -0.034153532 -0.03917887 0.05453682 0.1322937 -0.03568381
0.14950679 0.17487237 -0.008419923 0.071064055 0.042861827 0.05716663 0.14834414 -0.035939742
-0.12873033 -0.077853836 0.136078 -0.13582075 0.07463597 -0.05789748 -0.14489429 -0.045545366
00000000: c0a6 a9bd 8e3d c23d fb25 d53d 1c56 633d
00000010: fae8 ce3d d96a 0a3d 5441 803d 1079 febd
00000020: fed6 2a3d 1afb d53b de86 533d 1c9c 293d
00000030: 8da7 99bd c098 153e 85bc 043e 2581 9abd
00000040: d32c 15bd 2b62 cc3d d6ec 7f3d b111 75bd
00000050: 6544 823c a1f7 01be 323b b0bd cb55 103c
00000060: 72e5 fb3d d261 4a3b f5ea 9e3c 19a3 7c3d
00000070: 9e70 99bd 1aff 3c3c 8f6c e63d 8529 9c3d
00000080: b906 ac3d 725a 84bd 10ab f63c 8188 983d
00000090: 33d7 c43d 56ed 12be 385a 2cbc 4cb9 cabd
000000a0: 0165 11bd 8aa2 483d e430 1fbc bbae 21bd
000000b0: 67ee eabd 9506 af3d c829 7c3d 2f6a 003d
000000c0: 1cfb 243d 5851 8a3d 1072 d8bb 1271 753d
000000d0: 2cef 7ebe f82c 18be 521b 06be 8ee2 d93b
000000e0: 88bb 3dbe 8178 cf3b d841 9fbc 395b c7bd
000000f0: 83a4 1e3e 6989 2cbc bdb7 e03d 56a4 033e
00000100: d138 52bd 99f7 8cbd 5d34 143e 7ad0 fa3c
00000110: db4a dc3d 5a08 31bc f1f0 be3d 4b34 14be
00000120: 0334 8c3c 2f15 a83d 7ea9 e5bc 4787 f7bd
00000130: 5f6c 683c f854 253d 6352 203c 9af2 403d
00000140: 0bfe 873d 1a93 92bd 9677 883c bc06 ecbd
00000150: 267a 743d baee fdbd aa38 a2bd 881b 1f3d
00000160: a06e c73d 269f e53d 84ee 9abd 8395 06be
00000170: 4853 b93d 6140 a5bd 45a5 0bbe 6f5e af3c
00000180: c189 023e a457 253d 3eb1 81bb 28e4 0cbe
00000190: 7180 103e d808 b33d 82d0 fe3d 4bde c43d
000001a0: 6dab 03be 5766 03be cf81 f6bc da16 343d
000001b0: bc73 d9bd faf5 ff3d 3e14 50bd b6be 0e3b
000001c0: 7af3 2abd a835 c93d febe 623a c1c3 0d3d
000001d0: a247 483d 7bff 083d ec34 f4bc 138d 003d
000001e0: d125 303d 7339 02be fc9b 8f3c 1dc3 e6bd
000001f0: 7130 01be ee9a 96bc 0884 0b3d a4bd 47bc
00000200: 949b 8b3b d201 5cbd dcf5 28bd 3c15 8e38
00000210: 3b2e b1bd fce8 443d fa48 613d 7125 b5bc
00000220: a753 a33b 1b3d 313d 9527 213e 810b 0ebd
00000230: e9ef d5bd cbb1 0dbe 066f 1fbd 6d22 f2bd
00000240: 1f2f d9bd b6a4 8dbd 1ccf e1bc b516 87bc
00000250: ae26 913c c2b0 a73d f531 073e 8d5e 1bbd
00000260: d128 d1bd a6c0 0d3e 71bc 003e 219e fa3d
00000270: a24a 753d f19c a33d c3ab d23c 2993 aabd
00000280: 19f6 47be c417 bfbd 5e2f b3bb ff3e 88bd
00000290: 4f59 39bd 85ac a83d 331f fdbd 0d42 cb3c
000002a0: f352 243e 07b4 103e 7169 1eb9 0ade 2ebd
000002b0: 9aa6 47bd 4bee 353d 8217 90bd 4d1c 1f3e
000002c0: bfdd ed3c 6098 3bbd 9fbf b6bd 451e 90bd
000002d0: cab0 b6bd 699f d5bd 4dff 0dbe e2e5 b73d
000002e0: 2af9 4cbd 3614 303c 7eb1 b3bc 382a aabd
000002f0: bac2 aebd cc50 1cbc 5aae c4bd 958d 93bd
00000300: 7777 ee3b d714 39bd 7ff9 b03d 2508 f33d
00000310: 2cd8 8d3d e23f 063e be7e c6bc d315 e83c
00000320: 67a3 65bb ed78 433e 44ee 47be 1e5a 5ebd
00000330: 2232 893d 2890 853d 33bf f2bd a770 243e
00000340: d7a9 aa3d ae2f c73d d8b3 e5bd 6aa0 dfbc
00000350: c0ff 853c cef0 f83d 628e a33d bb9b f1bd
00000360: 7fe7 063e 9bcc 9e3a f223 36bd b200 dc3d
00000370: ddf4 1b3e 0685 953b 785b f9bc cb7b 003e
00000380: c626 91bd bf14 3cbc 6430 8dbd 1a1f abbd
00000390: a4af 56bb db84 e83c 2d71 113d 7141 14bd
000003a0: c120 dc3d 8c6f 09bd 97bc c7bd 93e4 0bbd
000003b0: 067a 20bd 0062 5f3d 0078 073e 3029 12bd
000003c0: 4f18 193e be11 333e b7f3 09bc 088a 913d
000003d0: e28f 2f3d 8e27 6a3d 87e7 173e 8d35 13bd
000003e0: e2d1 03be d571 9fbd 0858 0b3e 9814 0bbe
000003f0: beda 983d e825 6dbd 2b5f 14be c78d 3abd

mid_part.0.0.bias f4 [12]
-0.13654839 0.039499454 -0.031225206 0.04761855 0.107293 -0.017573176 0.02594484 -0.06747926
0.04892325 -0.027728083 -0.011263945 0.009973407
00000000: 57d3 0bbe 2eca 213d 01cc ffbc ab0b 433d
00000010: 6fbc db3d 9ff5 8fbc 468a d43c 9132 8abd
00000020: bf63 483d 0126 e3bc 698c 38bc 8067 233c

mid_part.1.weight f4 [12, 12, 3, 3]
-0.07071137 -0.0450069 0.08620806 0.08440955 0.09128834 -0.14120077 -0.09744486 0.033005998
0.13927546 0.11263627 -0.035418957 -0.014613464 0.06757465 -0.09668727 -0.09803866 -0.0016565602
0.033066314 -0.039070692 0.042594317 0.022902971 -0.07078626 0.07050906 0.024724882 0.09033538
-0.12197661 -0.11030658 -0.13967028 0.014864416 0.032930486 0.024989454 -0.0851989 -0.015493889
0.32109645 0.12119998 0.14930658 -0.20786278 0.12963264 -0.013075237 0.10062694 0.04248672
-0.16495982 -0.06310298 0.01062065 0.00047945115 -0.12596552 0.2298888 0.0489484 0.07180679
-0.074095584 -0.18413985 -0.22979027 0.0064263577 0.15844275 -0.045822524 -0.12864551 -0.0401886
-0.0033600105 0.089421704 0.015459985 -0.08316877 -0.09568575 0.10176784 0.025542768 0.083737016
0.118165955 -0.008051863 0.11312455 -0.36945245 0.11509818 -0.106101096 0.09857522 -0.090922125
-0.09523332 -0.06090308 -0.08024552 0.075970106 0.08669767 0.09268814 -0.021793574 -0.016713984
0.027108094 -0.07418559 -0.14450958 -0.017014893 -0.12960373 -0.12396637 0.06807621 -0.02854341
0.03281103 0.045246713 0.015163997 0.18821716 -0.1653026 -0.20762587 0.31161606 -0.32601961
-0.26017815 0.074566156 0.06865813 0.043030012 -0.21337202 0.1386195 0.14275712 -0.051431384
0.011575743 0.15730776 0.2579805 0.18302484 -0.008547595 0.120397486 0.1123267 0.064746924
-0.024373239 0.07770746 -0.069089726 0.08134406 0.054192305 0.040476125 0.05347781 0.10146436
-0.051917426 0.10966081 0.070815645 -0.00930515 0.055042606 0.0048745065 0.06996419 0.026363527
0.048060954 0.10793886 0.09707565 0.023766978 -0.003950649 -0.04914879 -0.056583803 0.04779133
-0.009086243 -0.021017438 -0.13132635 -0.027940104 -0.010333886 0.00026298224 -0.08734325 0.07614954
0.015693221 -0.07580087 0.044916905 -0.054604474 0.08260036 0.031577293 -0.08002509 -0.06025641
0.027259715 0.0204722 0.061358225 0.17245837 0.03462692 0.0257433 0.12538153 -0.104092695
0.01006936 0.10704948 0.00055925746 -0.06079472 -0.11094531 0.046015527 -0.0038172554 0.030515857
0.07442403 -0.078940414 -0.0028509665 0.0046368064 -0.039128847 0.109755054 0.024582667 -0.13226601
0.012449777 0.04628436 -0.06366016 0.11789914 0.05220516 -0.122268274 -0.062054794 0.0066100606
-0.07202296 0.03386179 0.027517239 -0.1052833 0.0024813174 -0.031244015 -0.060173947 -0.055434503
-0.0035030742 -0.021629954 -0.011815692 0.004382738 0.09300393 0.12175344 0.026577009 -0.06875625
0.083682865 0.06497836 0.03738733 -0.044305395 0.06891139 -0.085831404 -0.028200159 0.043328583
0.11563199 0.09013967 0.06402461 -0.12902531 0.102136776 0.06990981 -0.02432187 0.10536033
0.011727957 -0.05334583 -0.061944254 -0.0035334094 0.007983562 -0.048916105 -0.095200315 -0.03217199
0.042238228 0.08015253 0.037708946 -0.05531597 0.09319647 -0.08691029 -0.10958982 -0.055019137
0.021043658 -0.050374907 0.045906402 -0.09393286 -0.0016963363 -0.11408416 -0.004742144 -0.03801188
0.072040744 -0.10401455 0.012817669 0.09074305 0.037620302 -0.06487863 -0.01724446 -0.09676983
-0.006348815 0.12516679 0.03681503 0.01335176 -0.035169862 -0.01575206 -0.09476293 -0.06780969
00000000: 1fd1 90bd 2859 38bd da8d b03d eade ac3d
00000010: 62f5 ba3d ef96 10be 2c91 c7bd 4c31 073d
00000020: 3a9e 0e3e d8ad e63d 7813 11bd 4f6d 6fbc
00000030: 9464 8a3d fa03 c6bd 7ec8 c8bd f020 d9ba
00000040: 8b70 073d 9708 20bd 6177 2e3d 039f bb3c
00000050: 63f8 90bd 0e67 903d d68b ca3c c101 b93d
00000060: dfce f9bd 6be8 e1bd ba05 0fbe e189 733c
00000070: 1ee2 063d afb6 cc3c c37c aebd 15da 7dbc
00000080: c166 a43e b237 f83d d3e3 183e fbd9 54be
00000090: 6bbe 043e 8539 56bc 7f15 ce3d 8e06 2e3d
000000a0: 3aeb 28be 233c 81bd 3c02 2e3c d85e fb39
000000b0: 1bfd 00be f867 6b3e 1e7e 483d 700f 933d
000000c0: 6dbf 97bd 288f 3cbe 244e 6bbe 3294 d23b
000000d0: d13e 223e 66b0 3bbd a6bb 03be cd9c 24bd
000000e0: 9f33 5cbb ba22 b73d e04b 7d3c 6354 aabd
000000f0: e4f6 c3bd a86b d03d 113f d13c 507e ab3d
00000100: fe00 f23d f6eb 03bc d8ad e73d df28 bdbe
00000110: 98b8 eb3d 884b d9bd cee1 c93d 6135 babd
00000120: b009 c3bd 8275 79bd c357 a4bd 3796 9b3d
00000130: 8c8e b13d 48d3 bd3d 7088 b2bc c4eb 88bc
00000140: cb11 de3c 9dee 97bd 52fa 13be d162 8bbc
00000150: d7b6 04be 15e2 fdbd 8a6b 8b3d dfd3 e9bc
00000160: dc64 063d 9e54 393d 6a72 783c 00bc 403e
00000170: 1645 29be e09b 54be 248c 9f3e 0bec a6be
00000180: 1236 85be 24b6 983d a29c 8c3d 3d40 303d
00000190: 327e 5abe 45f2 0d3e ec2e 123e b7a9 52bd
000001a0: 2fa8 3d3c 4915 213e 0516 843e dd6a 3b3e
000001b0: 360b 0cbc f592 f63d 8a0b e63d 099a 843d
000001c0: 63aa c7bc 1725 9f3d ea7e 8dbd b797 a63d
000001d0: c0f8 5d3d 4bca 253d 8c0b 5b3d 8ccc cf3d
000001e0: 5ea7 54bd d995 e03d cb07 913d a174 18bc
000001f0: 5b74 613d 53ba 9f3b 6349 8f3d 53f8 d73c
00000200: 90db 443d 0d0f dd3d 99cf c63d f7b2 c23c
00000210: 7274 81bb 3e50 49bd 6bc4 67bd d7c0 433d
00000220: 77de 14bc c32c acbc 6a7a 06be a5e2 e4bc
00000230: 764f 29bc e1e0 8939 05e1 b2bd 4af4 9b3d
00000240: 128f 803c 7d3d 9bbd cafa 373d f1a8 5fbd
00000250: 612a a93d 3157 013d 32e4 a3bd 6dcf 76bd
00000260: c44f df3c 51b5 a73c c352 7b3d ed98 303e
00000270: f5d4 0d3d 9de3 d23c 0464 003e 8d2e d5bd
00000280: f5f9 243c c23c db3d 229b 123a e203 79bd
00000290: 4b37 e3bd c77a 3c3d eb2a 7abb 64fc f93c
000002a0: a06b 983d 83ab a1bd 48d7 3abb 5af0 973b
000002b0: 9245 20bd 42c7 e03d 9761 c93c be70 07be
000002c0: 26fa 4b3c ab94 3d3d 4260 82bd 1b75 f13d
000002d0: 14d5 553d ca67 fabd 2b2d 7ebd 3599 d83b
000002e0: c680 93bd a9b2 0a3d d56b e13c c59e d7bd
000002f0: 999d 223b 73f3 ffbc f578 76bd 4a0f 63bd
00000300: d593 65bb 4d31 b1bc 9b96 41bc 129d 8f3b
00000310: d878 be3d de59 f93d 07b8 d93c 14d0 8cbd
00000320: ec61 ab3d 6013 853d 7523 193d 9379 35bd
00000330: 6a21 8d3d 60c8 afbd 0504 e7bc 5079 313d
00000340: 77d0 ec3d 269b b83d 561f 833d 361f 04be
00000350: 162d d13d e02c 8f3d a93e c7bc 28c7 d73d
00000360: 9e26 403c 2881 5abd 42b9 7dbd c690 67bb
00000370: 7ccd 023c 415c 48bd 62f8 c2bd c7c6 03bd
00000380: fe01 2d3d 0227 a43d b274 1a3d 0093 62bd
00000390: cadd be3d 06fe b1bd a170 e0bd bf5b 61bd
000003a0: c063 ac3c eb55 4ebd 5a08 3c3d df5f c0bd
000003b0: 9a57 deba f5a4 e9bd fd63 9bbb 58b2 1bbd
000003c0: 198a 933d 9505 d5bd 3301 523c 7ed7 b93d
000003d0: bf17 1a3d 16df 84bd 4144 8dbc 432f c6bd
000003e0: b809 d0bb b92b 003e 5bcb 163d 57c1 5a3c
000003f0: 460e 10bd 770a 81bc 1113 c2bd cfdf 8abd

mid_part.1.bias f4 [12]
-0.0011540675 0.028386107 0.05534365 0.0053788694 0.039465956 -0.06609967 -0.03649558 -0.009335169
-0.001688023 -0.008994634 -0.039866455 -0.06846541
00000000: 1444 97ba fb89 e83c 06b0 623d 3a41 b03b
00000010: 0ea7 213d 445f 87bd 647c 15bd 89f2 18bc
00000020: a740 ddba 3b5e 13bc 024b 23bd 9837 8cbd

mid_part.2.weight f4 [12, 12, 3, 3]
0.09472582 0.09335905 0.015136458 -0.040172093 0.0425486 0.066407725 -0.018180888 -0.084653385
-0.08526838 -0.08343309 -0.094744295 0.067795336 -0.1173189 0.00855527 0.084885366 0.030061245
-0.067152396 0.04998993 0.0018008865 0.10265136 -0.13483872 -0.0031119927 0.038987372 -0.12855722
0.060634058 0.116855495 -0.045119375 -0.01812142 0.011517434 -0.12982537 0.114558876 0.09623224
0.030295882 -0.09827853 0.05184419 -0.047297355 0.1193291 0.045710877 -0.084776625 0.042227365
0.10094714 0.013156293 -0.054580905 0.041191403 0.026420863 -0.11125431 -0.063412905 0.0017494536
0.12781525 0.29933533 0.013861841 -0.067389704 -0.15750086 0.07927587 0.024966339 0.015215405
0.06133553 -0.13327011 -0.14911954 0.006235585 -0.003587119 0.07428458 0.10930802 -0.018269511
0.019511765 0.018968692 -0.077322 -0.06359261 0.020909596 0.09550427 0.040781666 -0.047017105
0.056091197 0.02990594 -0.07184896 -0.044997714 0.024373101 -0.0069948076 -0.05861771 -0.015775152
0.08864055 -0.07386412 -0.110713035 0.028593892 -0.08218525 -0.04093082 -0.09720703 -0.045367952
-0.07799905 -0.07606381 0.080997124 0.08911382 -0.066328675 -0.03786911 -0.042678177 0.046839528
0.043652616 -0.040180057 0.066275336 0.07514311 0.037021577 -0.008661473 0.15874684 -0.008160721
0.007854652 -0.016226403 -0.069944635 0.06430143 0.30623296 0.0050769537 0.24578182 -0.12080053
-0.27193516 -0.16573505 0.11040063 -0.077683516 0.19665022 -0.076075725 -0.058563888 -0.0031287824
-0.055630773 -0.023456307 -0.026732141 -0.037566565 0.08638386 0.026510766 0.033700667 0.03314198
-0.05301699 0.102211036 0.0087921955 0.02552459 0.077096336 -0.17824057 -0.049565516 0.05656345
0.10251849 0.084543034 -0.04637194 -0.013858695 0.11094611 0.053422697 -0.07027675 0.107259154
0.1949531 0.10452941 -0.02493359 0.028075943 -0.20238067 -0.08363158 0.058697216 -0.067597575
-0.021797808 0.13142915 0.14531969 0.07386751 0.040012352 -0.2751781 -0.10261844 0.009034926
0.05422769 0.12666868 -0.14614445 -0.12309311 0.01590568 0.02009827 -0.017722825 0.08408188
0.0725748 0.07107143 0.042637244 0.027982768 0.016574282 -0.06774608 0.028179782 0.08058832
0.023684017 -0.019206662 -0.06318761 -0.044219017 0.014031536 0.05222802 0.009433551 0.05571452
-0.0010093823 0.057784274 0.05638966 0.094187655 0.06676347 -0.110426776 -0.03662601 -0.1063108
-0.057680488 0.069928035 0.06571344 -0.01679507 0.0017399029 0.11258259 0.1240326 -0.031633295
-0.01455944 0.0050477064 -0.035706583 -0.005469357 -0.07823863 -0.018618176 -0.09806779 -0.04978388
0.022240799 -0.048607755 0.06127911 -0.01383608 0.06593887 0.050137322 0.089848444 0.061295934
0.04435579 -0.14129452 -0.014676541 -0.0808241 -0.13801765 -0.008934709 0.07282435 0.023141054
0.06698053 0.001236233 0.053992253 -0.0258477 -0.06479838 0.12943305 -0.07568088 -0.04128976
0.011658621 -0.029266668 -0.07539957 -0.04449941 -0.037064277 0.04904965 0.014745428 0.09397133
-0.03995113 -0.009173845 0.018733185 -0.055851486 0.022762388 0.056918394 -0.027751096 0.035849467
0.021385405 0.05626735 -0.07115921 0.043824907 -0.023484439 0.024703998 -0.0005011802 -0.1091652
00000000: 9cff c13d 0833 bf3d e8fe 773c 7e8b 24bd
00000010: 7147 2e3d c600 883d 16f0 94bc c15e adbd
00000020: 30a1 aebd f8de aabd 4c09 c2bd 48d8 8a3d
00000030: e444 f0bd 672b 0c3c 61d8 ad3d 0043 f63c
00000040: 3287 89bd 3ec2 4c3d b90b ec3a e03a d23d
00000050: 2913 0abe 93f2 4bbb 39b1 1f3d 81a4 03be
00000060: 6b5b 783d ef51 ef3d 18cf 38bd 5f73 94bc
00000070: 9fb3 3c3c f1f0 04be d89d ea3d 6915 c53d
00000080: 122f f83c 4146 c9bd 935a 543d dfba 41bd
00000090: d162 f43d 543b 3b3d 5e9f adbd 9af6 2c3d
000000a0: 60bd ce3d 7e8d 573c 3a90 5fbd 51b8 283d
000000b0: 9170 d83c 4dd9 e3bd a0de 81bd ec4d e53a
000000c0: 00e2 023e 7b42 993e c61c 633c 9d03 8abd
000000d0: e847 21be 635b a23d 3586 cc3c 094a 793c
000000e0: f73a 7b3d f677 08be cbb2 18be e153 cc3b
000000f0: df15 6bbb 8422 983d e2dc df3d f1a9 95bc
00000100: 23d7 9f3c 3b64 9b3c ff5a 9ebd d83c 82bd
00000110: 9a4a ab3c be97 c33d ad0a 273d 0295 40bd
00000120: e2bf 653d 4dfd f43c 8c25 93bd 864f 38bd
00000130: 19aa c73c b334 e5bb 2019 70bd e43a 81bc
00000140: 2d89 b53d 1246 97bd 84bd e2bd bd3d ea3c
00000150: be50 a8bd 13a7 27bd 7b14 c7bd bfd3 39bd
00000160: f7bd 9fbd 58c7 9bbd d2e1 a53d 4e81 b63d
00000170: 54d7 87bd a41c 1bbd 50cf 2ebd ceda 3f3d
00000180: 16cd 323d d893 24bd 5dbb 873d a1e4 993d
00000190: f0a3 173d dae8 0dbc 888e 223e 8bb4 05bc
000001a0: ccb0 003c 3ced 84bc 223f 8fbd 78b0 833d
000001b0: 91ca 9c3e 935c a63b 3bae 7b3e 4566 f7bd
000001c0: 163b 8bbe 73b6 29be ba19 e23d 8918 9fbd
000001d0: ad5e 493e 97cd 9bbd b0e0 6fbd 420c 4dbb
000001e0: 18dd 63bd 7127 c0bc 5dfd dabc 66df 19bd
000001f0: 05ea b03d 1b2d d93c b609 0a3d e3bf 073d
00000200: 5828 59bd 0554 d13d 240d 103c f218 d13c
00000210: afe4 9d3d b284 36be 3605 4bbd 13af 673d
00000220: 37f5 d13d e624 ad3d 81f0 3dbd 940f 63bc
00000230: b737 e33d c2d1 5a3d 42ed 8fbd b0aa db3d
00000240: c9a1 473e 8413 d63d 8741 ccbc 85ff e53c
00000250: e13c 4fbe 0947 abbd 7e6c 703d 9970 8abd
00000260: 5191 b2bc 5d95 063e afce 143e d947 973d
00000270: fee3 233d 25e4 8cbe 9e29 d2bd 3a07 143c
00000280: db1d 5e3d 6fb5 013e e4a6 15be 3e18 fcbd
00000290: a14c 823c 21a5 a43c 752f 91bc 1f33 ac3d
000002a0: 19a2 943d e68d 913d 64a4 2e3d 1e3c e53c
000002b0: cac6 873c 75be 8abd 49d9 e63c 7d0b a53d
000002c0: fc04 c23c 4a57 9dbc 8168 81bd 001f 35bd
000002d0: 87e4 653c 0ced 553d 2e8f 1a3c e934 643d
000002e0: 404d 84ba 34af 6c3d d8f8 663d 75e5 c03d
000002f0: 49bb 883d 6f27 e2bd 2805 16bd 7ab9 d9bd
00000300: 6042 6cbd 6e36 8f3d c594 863d d195 89bc
00000310: 740d e43a b391 e63d ce04 fe3d ea91 01bd
00000320: b88a 6ebc 3b67 a53b 1141 12bd 4b38 b3bb
00000330: 933b a0bd 2585 98bc c4d7 c8bd 2fea 4bbd
00000340: 5632 b63c ed18 47bd ceff 7a3d bab0 62bc
00000350: f50a 873d cb5c 4d3d 7602 b83d 7211 7b3d
00000360: 6bae 353d 83af 10be e075 70bc 1b87 a5bd
00000370: 8054 0dbe e362 12bc ef24 953d 4f92 bd3c
00000380: 172d 893d 1909 a23a fb26 5d3d 8ebe d3bc
00000390: 03b5 84bd 198a 043e 94fe 9abd 741f 29bd
000003a0: cd03 3f3c a7c0 efbc 176b 9abd 0345 36bd
000003b0: b6d0 17bd 49e8 483d cf96 713c 0a74 c03d
000003c0: cca3 23bd e54d 16bc 5676 993c 87c4 64bd
000003d0: 3078 ba3c 4323 693d 4456 e3bc e4d6 123d
000003e0: 7230 af3c 9878 663d ebbb 91bd bf81 333d
000003f0: 7062 c0bc 0a60 ca3c a261 03ba 0192 dfbd

mid_part.2.bias f4 [12]
0.08556648 0.09109629 0.026170148 -0.07821772 -0.07698681 -0.08338716 -0.0758415 -0.0264331
0.09618905 -0.012038094 0.044805165 -0.08864921
00000000: 7b3d af3d b190 ba3d c762 d63c 9d30 a0bd
00000010: 43ab 9dbd e3c6 aabd ca52 9bbd 3b8a d8bc
00000020: c4fe c43d 6d3b 45bc 9f85 373d b88d b5bd

mid_part.3.weight f4 [12, 12, 3, 3]
0.06517556 0.08915863 0.008949468 0.04624473 0.16430695 -0.03838086 0.10085266 -0.074523985
-0.034043007 0.040962737 -0.087653555 0.006799518 0.014508989 0.0258988 0.06263411 0.08894878
0.0031180675 0.06826196 -0.0060206 -0.06060654 -0.06873177 -0.012146056 -0.09066824 -0.013629651
0.116455175 0.0015792989 0.051208887 -0.04119401 -0.040041786 0.07130023 0.015676955 -0.04930583
-0.07007431 0.009437937 -0.11296942 0.070982516 -0.07884422 0.0066446117 0.03513461 -0.07172966
0.059378494 -0.025172444 -0.0814228 0.06295533 -0.07018074 0.05947986 0.025110995 0.0634731
0.06790816 0.05740499 0.030354677 0.05119347 -0.06913099 -0.10152145 0.07226008 0.11896771
-0.013083406 -0.12963618 -0.06441441 -0.0662902 0.14694421 0.016611818 -0.18134838 0.07284147
0.01614519 -0.079703994 -0.30116493 -0.020387368 0.058301676 0.13023683 0.026611777 -0.08028494
0.048530992 -0.028864278 -0.05856411 0.045605287 -0.02185068 -0.06925269 -0.056147672 -0.0137643665
-0.059870448 -0.069307536 -0.03440606 -0.014129828 0.10128404 0.074399926 0.049496274 0.07257705
-0.080806 -0.05567563 0.05836446 0.10099312 0.0491135 0.06957706 0.038994543 0.056337584
-0.046882916 0.078349575 0.013343687 0.095936626 -0.13122807 0.14290337 -0.16992968 -0.23094669
-0.03901613 -0.1928182 0.057904635 -0.015861139 -0.06534347 -0.076974116 -0.006456881 -0.08049504
-0.1303711 0.08571307 -0.026116382 -0.12175483 -0.012089883 0.025536796 0.15334387 0.07753056
0.04015766 -0.07537542 0.03446222 -0.07180924 0.01891833 0.049874377 -0.02870514 0.08829333
-0.011641058 -0.032390166 0.00030253033 -0.030565068 0.036962118 0.043456774 -0.043515917 0.027126739
-0.02037865 -0.045749605 -0.10775557 -0.045639522 0.08466763 -0.060171306 -0.10144846 0.07214926
-0.105076045 -0.088682435 -0.073116004 -0.017898906 -0.11377435 0.03224759 -0.035689246 0.0043289266
-0.019096566 0.08210477 -0.049754146 -0.039277684 0.046611506 -0.008950918 -0.03371038 0.058761977
-0.117457815 0.023108464 -0.034474533 -0.025564918 -0.037341997 0.11885752 0.0015534888 0.01485458
-0.032388795 -0.029414443 -0.11226937 -0.098258965 0.089304596 -0.0051421653 0.08554156 0.056911293
-0.12042206 -1.0804638e-05 0.2914013 -0.08946743 0.023426108 0.095599234 -0.059432395 0.05792974
-0.032812398 -0.003561844 -0.048626445 -0.06385782 -0.068808414 -0.05263077 0.045351643 -0.004237068
0.0051429034 0.043627072 0.07266826 -0.09823181 0.027202582 -0.0970508 0.06240276 -0.12324393
-0.05988251 0.045666195 -0.0296267 -0.04843694 0.059470885 -0.09818786 0.015333418 -0.026149817
0.11234284 -0.08368284 0.11783665 0.07697642 -0.08311798 0.16453041 0.0882076 0.06079528
0.02940188 -0.07474503 0.07057006 0.049506884 0.10730947 0.01766122 0.026056996 0.023889596
0.0413108 -0.05091113 -0.05845962 0.011323189 -0.069188446 0.067172654 0.08237223 -0.016788686
0.077129014 0.048106857 -0.061996475 -0.025746865 -0.07447824 -0.041214596 -0.096162125 0.03309917
0.0010218837 -0.038150303 -0.06299983 0.016395096 0.07015368 0.0728011 -0.029998805 0.024101978
-0.11368982 0.06962495 0.056797005 -0.030245058 -0.03557631 0.0733906 -0.07465374 0.06293127
00000000: c47a 853d cd98 b63d caa0 123c 1d6b 3d3d
00000010: 1540 283e 4035 1dbd d78b ce3d 08a0 98bd
00000020: ae70 0bbd 8bc8 273d b583 b3bd 7ece de3b
00000030: 1cb7 6d3c b829 d43c 5046 803d c72a b63d
00000040: 7e58 4c3b edcc 8b3d 7448 c5bb 903e 78bd
00000050: 3ec3 8cbd 4000 47bc 45b0 b9bd e64e 5fbc
00000060: 0d80 ee3d 7a00 cf3a 69c0 513d 0dbb 28bd
00000070: db02 24bd db05 923d f56c 803c e9f4 49bd
00000080: 1f83 8fbd 94a1 1a3c 835c e7bd 485f 913d
00000090: 1479 a1bd 0bbb d93b 4fe9 0f3d 00e7 92bd
000000a0: dd36 733d 7136 cebc ffc0 a6bd b9ee 803d
000000b0: ebba 8fbd 27a1 733d 93b5 cd3c 2ffe 813d
000000c0: 6f13 8b3d 7f21 6b3d 5faa f83c 3eb0 513d
000000d0: 8c94 8dbd 7aea cfbd 18fd 933d 58a5 f33d
000000e0: c85b 56bc 59bf 04be b4eb 83bd 28c3 87bd
000000f0: 8b78 163e 8215 883c 64b3 39be e92d 953d
00000100: eb42 843c d93b a3bd 4a32 9abe 6903 a7bc
00000110: bdcd 6e3d ce5c 053e f100 da3c 6e6c a4bd
00000120: 6fc8 463d c774 ecbc ece0 6fbd 9ccc 3a3d
00000130: 3200 b3bc 5bd4 8dbd 1afb 65bd f083 61bc
00000140: b73a 75bd 1cf1 8dbd 5eed 0cbd cb80 67bc
00000150: 026e cf3d fd5e 983d 9bbc 4a3d 47a3 943d
00000160: 9e7d a5bd 210c 64bd 920f 6f3d 7bd5 ce3d
00000170: 3d2b 493d 6b7e 8e3d beb8 1f3d 3dc2 663d
00000180: 4d08 40bd be75 a03d 7b9f 5a3c 6c7a c43d
00000190: a760 06be 4355 123e 0c02 2ebe 4a7d 6cbe
000001a0: 61cf 1fbd 2272 45be 692d 6d3d 38ef 81bc
000001b0: ccd2 85bd 9ba4 9dbd 3e94 d3bb 95da a4bd
000001c0: 0080 05be 568a af3d 06f2 d5bc 995a f9bd
000001d0: a514 46bc 8b32 d13c 2d06 1d3e 58c8 9e3d
000001e0: 5c7c 243d 6e5e 9abd 4228 0d3d b910 93bd
000001f0: 9dfa 9a3c 1349 4c3d 0b27 ebbc 22d3 b43d
00000200: 23ba 3ebc 8dab 04bd ef9c 9e39 9863 fabc
00000210: 9765 173d bbff 313d bf3d 32bd e538 de3c
00000220: 20f1 a6bc f063 3bbd f4ae dcbd 82f0 3abd
00000230: 3966 ad3d 3076 76bd 36c4 cfbd fec2 933d
00000240: 1c32 d7bd 239f b5bd d8bd 95bd baa0 92bc
00000250: 8702 e9bd 0d16 043d e32e 12bd abd9 8d3b
00000260: 6770 9cbc 8c26 a83d 01cb 4bbd a3e1 20bd
00000270: b5eb 3e3d dfa6 12bc e513 0abd 66b0 703d
00000280: b98d f0bd f64d bd3c 2b35 0dbd 856d d1bc
00000290: ecf3 18bd 926b f33d 6f9e cb3a a060 733c
000002a0: 1daa 04bd 8ff6 f0bc 7ced e5bd ff3b c9bd
000002b0: 54e5 b63d 9c7f a8bb 6a30 af3d d11b 693d
000002c0: d79f f6bd 9145 35b7 8d32 953e b33a b7bd
000002d0: 1ce8 bf3c 88c9 c33d 626f 73bd bc47 6d3d
000002e0: 4b66 06bd d36d 69bb 862c 47bd e4c7 82bd
000002f0: 6deb 8cbd 5d93 57bd a5c2 393d 1ad7 8abb
00000300: cd85 a83b 4db2 323d 19d3 943d c22d c9bd
00000310: f3d7 de3c 92c2 c6bd 099a 7f3d 5067 fcbd
00000320: 5d47 75bd 7a0c 3b3d b1b3 f2bc d065 46bd
00000330: be97 733d b716 c9bd 0439 7b3c 2438 d6bc
00000340: 0114 e63d e961 abbd 5754 f13d d0a5 9d3d
00000350: c239 aabd a97a 283e 30a6 b43d 7904 793d
00000360: 36dc f03c ec13 99bd 0987 903d bbc7 4a3d
00000370: 11c5 db3d 43ae 903c 7b75 d53c 1db4 c33c
00000380: 8335 293d 3088 50bd 5b73 6fbd e684 393c
00000390: acb2 8dbd d191 893d c6b2 a83d 6d88 89bc
000003a0: d1f5 9d3d b20b 453d 04f0 7dbd 17eb d2bc
000003b0: 0c88 98bd a3d0 28bd a6f0 c4bd ff92 073d
000003c0: baf0 853a 7e43 1cbd 0e06 81bd 024f 863c
000003d0: bcac 8f3d be18 953d 0ec0 f5bc 8371 c53c
000003e0: 35d6 e8bd 8797 8e3d faa3 683d 7cc4 f7bc
000003f0: 77b8 11bd d04d 963d 0fe4 98bd 1ce2 803d

mid_part.3.bias f4 [12]
0.09159488 0.0596078 -0.05025997 -0.009433296 0.042790398 0.048742514 0.031732958 0.0020595554
0.11039827 0.05031238 -0.064904384 -0.057044026
00000000: 1996 bb3d 4f27 743d 66dd 4dbd 1c8e 1abc
00000010: fc44 2f3d 3ba6 473d 6bfa 013d 9bf9 063b
00000020: 7d18 e23d 5b14 4e3d 97ec 84bd ffa6 69bd

mid_part.4.weight f4 [12, 12, 3, 3]
-0.12874824 -0.0696857 0.026025724 -0.031924624 0.2124703 0.16565171 -0.056308813 0.1460636
-0.04714606 0.026569735 -0.076251715 -0.11094698 -0.0809429 -0.12993826 -0.0924536 -0.025781224
-0.09042902 -0.03878212 -0.03203117 0.11821801 0.15461828 0.108668864 0.0307588 0.15065117
-0.04012226 0.037012726 0.082860865 0.07321567 -0.045485757 0.05246666 -0.027290173 -0.15134637
-0.0053187027 -0.027905017 -0.058398135 -0.037831 0.041819558 -0.07257941 -0.1293772 0.08119679
-0.024846263 0.039546985 -0.03947377 -0.025613796 -0.08836388 0.03924091 -0.024557898 -0.13664852
-0.014313073 -0.052753557 -0.10922184 -0.0036514157 -0.063467406 0.01622148 -0.07395332 0.0015335821
0.01325867 0.08033654 0.012087357 -0.04910892 -0.029707124 0.045613185 -0.020426236 -0.006742518
-0.067230366 0.024141805 -0.2131579 -0.032100543 0.081749186 -0.12821491 0.091641776 -0.046276852
0.063224934 0.0064867884 -0.12930682 0.004979514 -0.036976453 0.04484145 0.111774564 -0.06866253
-0.079373784 0.028067136 0.059683964 0.044827066 -0.17515066 -0.13027178 -0.04210302 -0.09645695
-0.04780007 0.012297692 -0.03577093 0.07136537 -0.06606749 -0.05194257 0.13240075 0.13441394
-0.042209 0.05638845 0.028422857 -0.005112835 -0.038757354 -0.09970485 -0.07601711 -0.18450929
-0.107992455 0.1108795 0.07317244 -0.061185893 0.13331592 -0.08229166 -0.099425234 -0.15094307
-0.0031085338 0.049320307 0.01352385 0.06862713 -0.11725203 -0.07159132 0.06876365 -0.044590306
-0.006058564 -0.029691584 0.03239862 0.073351085 0.008316917 0.01851983 -0.019182555 -0.048438825
0.068703145 -0.031193474 0.121883795 0.051124327 -0.074343994 0.009097423 -0.03886956 -0.03975204
-0.061745193 0.006401176 -0.010054965 0.022777194 0.0010528074 0.110678844 0.034647834 -0.09568109
-0.003232321 -0.09497675 0.05228358 -0.0978049 -0.059153166 0.028366549 -0.05553004 -0.074523814
-0.004835217 -0.0076773954 0.1557785 -0.03273212 0.079822406 -0.041964736 0.031147223 -0.12692465
-0.061454654 0.0039619245 -0.09252019 -0.02694693 -0.00834898 0.015554823 -0.014841721 -0.0042003
0.02216412 0.048127383 0.034131043 0.0015870874 -0.008198455 0.033305496 -0.0052906843 -0.055894252
0.10899347 -0.08781629 -0.016791483 -0.1353566 0.022090612 0.021414379 -0.08913923 -0.084227696
-0.04312086 -0.10884377 0.08289997 -0.06553992 -0.048444606 -0.0037652594 0.20484239 -0.026796449
-0.10715381 -0.012727549 0.062385775 0.03139599 -0.06127681 -8.178327e-05 -0.03829189 0.01871403
0.075179935 0.011936772 0.15286215 0.09172365 0.044529974 -0.04110021 0.011664213 -0.041274942
0.039624672 -0.009955946 0.09953454 0.028177114 0.06632101 -0.076358296 0.048564374 0.0990755
-0.10601569 -0.07878129 -0.017730147 -0.18375936 0.2758074 -0.018450262 -0.12332643 0.19449694
-0.1456737 -0.0071853334 -0.025180927 0.07649636 0.05370511 -0.032301553 -0.051913127 0.0499461
-0.0729196 0.00046097155 -0.08058239 0.02284864 -0.031091437 -0.03571943 0.046104383 -0.042523634
-0.026517874 0.0719658 -0.0042742672 -0.043219477 0.012068276 -0.06468074 -0.12221999 0.00583014
-0.10044223 0.04471644 0.031983957 0.03320909 -0.013228241 -0.08723383 -0.065919295 -0.08966403
00000000: 94d6 03be 60b7 8ebd e633 d53c 65c3 02bd
00000010: d091 593e 9aa0 293e 12a4 66bd b291 153e
00000020: 3a1c 41bd c6a8 d93c dc29 9cbd 2c38 e3bd
00000030: 64c5 a5bd 890e 05be 5058 bdbd 2533 d3bc
00000040: da32 b9bd 00da 1ebd 1e33 03bd 491c f23d
00000050: 4154 1e3e c88d de3d e1f9 fb3c 4d44 1a3e
00000060: 3d57 24bd a89a 173d f5b2 a93d 19f2 953d
00000070: 464f 3abd 48e7 563d a48f dfbc 8bfa 1abe
00000080: 8348 aebb 1099 e4bc e232 6fbd aef4 1abd
00000090: fc4a 2b3d 84a4 94bd 757b 04be 814a a63d
000000a0: 648a cbbc 05fc 213d 3faf 21bd 06d4 d1bc
000000b0: 1ff8 b4bd 14bb 203d a52d c9bc 97ed 0bbe
000000c0: 6181 6abc 1d14 58bd b3af dfbd 974c 6fbb
000000d0: 33fb 81bd e9e2 843c d774 97bd 7a02 c93a
000000e0: e53a 593c 7c87 a43d 0d0a 463c 6f26 49bd
000000f0: 5b5c f3bc e4d4 3a3d ec54 a7bc 57f0 dcbb
00000100: 13b0 89bd 09c5 c53c 1146 5abe dc7b 03bd
00000110: 1e6c a73d c54a 03be afae bb3d cc8c 3dbd
00000120: 137c 813d 208f d43b 0269 04be 312b a33b
00000130: 9f74 17bd abab 373d 10ea e43d f19e 8cbd
00000140: b98e a2bd 0ded e53c 2c77 743d 969c 373d
00000150: b25a 33be f765 05be 3774 2cbd 398b c5bd
00000160: 02ca 43bd 427c 493c 8a84 12bd 0228 923d
00000170: 644e 87bd bbc1 54bd 1094 073e cfa3 093e
00000180: 58e3 2cbd 93f7 663d 0dd7 e83c 9289 a7bb
00000190: 08c0 1ebd 0e32 ccbd dcae 9bbd 01f0 3cbe
000001a0: 262b ddbd cb14 e33d 6fdb 953d 0f9e 7abd
000001b0: f883 083e 8888 a8bd 759f cbbd d290 1abe
000001c0: 8bb8 4bbb 1704 4a3d 2393 5d3c 618c 8c3d
000001d0: d521 f0bd 789e 92bd f5d3 8c3d 53a4 36bd
000001e0: eb86 c6bb c43b f3bc 6ab4 043d 1839 963d
000001f0: ae43 083c e6b6 973c bc24 9dbc ca67 46bd
00000200: 3cb4 8c3d 7589 ffbc 369e f93d be67 513d
00000210: aa41 98bd 5c0d 153c b035 1fbd 09d3 22bd
00000220: 87e8 7cbd f5c0 d13b 94bd 24bc 3d97 ba3c
00000230: 5bfe 893a 97ab e23d e3ea 0d3d 73f4 c3bd
00000240: 59d5 53bb 2c83 c2bd 4f27 563d ef4d c8bd
00000250: 974a 72bd f760 e83c 7873 63bd f19f 98bd
00000260: bd70 9ebb a992 fbbb 6684 1f3e 1e12 06bd
00000270: ee79 a33d 37e3 2bbd 7628 ff3c 89f8 01be
00000280: e0b7 7bbd 08d3 813b 3a7b bdbd cfbf dcbc
00000290: 29ca 08bc a8d9 7e3c b12a 73bc aca2 89bb
000002a0: 8791 b53c 3821 453d fecc 0b3d d105 d03a
000002b0: d052 06bc 586b 083d 7a5d adbb 5ff1 64bd
000002c0: f837 df3d 07d9 b3bd 4b8e 89bc ec9a 0abe
000002d0: 5ff7 b43c 356d af3c a18e b6bd 927f acbd
000002e0: 809f 30bd 7ce9 debd 76c7 a93d cb39 86bd
000002f0: da6d 46bd 92c2 76bb 34c2 513e 3a84 dbbc
00000300: 7573 dbbd 3687 50bc 3a88 7f3d 1599 003d
00000310: 64fd 7abd 0f83 abb8 f5d7 1cbd 2a4e 993c
00000320: f0f7 993d 7392 433c e587 1c3e 9cd9 bb3d
00000330: 1065 363d b258 28bd 411b 3f3c ea0f 29bd
00000340: 7b4d 223d 441e 23bc c4d8 cb3d b1d3 e63c
00000350: 4fd3 873d bd61 9cbd 70eb 463d 19e8 ca3d
00000360: c11e d9bd 1658 a1bd d03e 91bc 6a2b 3cbe
00000370: a136 8d3e 0125 97bc 9192 fcbd 352a 473e
00000380: 7d2b 15be f272 ebbb 3b48 cebc 20aa 9c3d
00000390: e4f9 5b3d a24e 04bd dca2 54bd 4894 4c3d
000003a0: df56 95bd 8eae f139 6108 a5bd 122d bb3c
000003b0: 78b3 febc 894e 12bd f3d7 3c3d 432d 2ebd
000003c0: 033c d9bc ce62 933d 270f 8cbb e806 31bd
000003d0: 05ba 453c 5677 84bd 794e fabd c20a bf3b
000003e0: a8b4 cdbd 9628 373d 9c01 033d 4106 083d
000003f0: 44bb 58bc a6a7 b2bd b200 87bd c6a1 b7bd

mid_part.4.bias f4 [12]
0.02886238 -0.057047054 -0.090624414 0.04254258 -0.1977937 -0.071193345 -0.0671501 -0.17073065
0.097821034 -0.0033589443 -0.013449252 0.023993108
00000000: cc70 ec3c 2caa 69bd 4b99 b9bd 2141 2e3d
00000010: 6f8a 4abe d1cd 91bd fe85 89bd 04d4 2ebe
00000020: 6556 c83d bc21 5cbb 405a 5cbc 328d c43c

mid_part.6.0.weight f4 [56, 12, 1, 1]
-0.23262894 0.014651798 -0.34234986 -0.17454444 0.04390561 -0.2358848 -0.071163036 0.15757379
-0.06692457 0.027482405 0.026778465 -0.29757157 -0.28794786 -0.10667008 0.22831184 0.060941886
0.015463347 -0.30639446 0.109109685 0.21177888 -0.25854015 0.12969534 -0.21420081 -0.34660363
-0.058173846 0.19248015 0.26058283 0.15721457 0.21935979 0.027760379 0.1585542 0.16337954
-0.33817592 -0.24502851 -0.0111858975 0.112675235 -0.0093039125 0.03328165 0.037282106 -0.19346946
-0.15035735 -0.20640193 0.18334892 0.16961016 -0.0314891 -0.022584774 -0.081164174 -0.18358539
0.16106384 0.16523221 0.032255583 0.20745535 -0.038508758 0.0872864 0.19886623 0.10380559
-0.085156664 0.24759534 -0.18533994 -0.12057739 -0.22593978 -0.25446337 -0.088926114 0.122057244
-0.029813047 0.014100574 -0.35473746 0.13985811 0.3191798 -0.25502056 -0.052227348 0.08892547
0.11204453 -0.085862674 -0.17596301 -0.16762625 0.37266806 0.020888153 0.113396645 -0.11371301
-0.17001763 -0.19123977 0.077030756 0.3328179 -0.022036366 -0.23671712 -0.21322748 0.09881907
-0.03708828 0.25800583 -0.16421854 0.05645039 -0.036160838 -0.3819113 -0.30710733 -0.082145676
0.20477188 0.07344931 -0.107949086 -0.21827292 0.2644436 0.24450149 0.1469108 0.26918396
0.1722019 0.15088403 0.29943708 0.25734416 0.20225692 0.18103355 -0.053041663 -0.24925996
-0.1853894 0.033324715 0.22699565 -0.21920809 0.04657289 0.15308145 -0.34600538 0.25045344
0.21764131 -0.15698202 -0.13459642 -0.0074933744 -0.12839618 -0.014442177 -0.03338463 0.08186326
-0.1439534 -0.30759788 -0.10827789 0.100424185 0.034852058 -0.14859279 0.09406452 -0.011808193
0.13743052 -0.006141859 -0.098721474 -0.05325073 -0.06545713 -0.058989104 0.0012478976 0.15003607
-0.056831572 -0.008670544 0.36436406 -0.0037306342 0.053074583 -0.054342154 -0.1366007 0.035119414
0.007938209 0.18028773 0.19138299 0.1394788 -0.051214494 -0.0061150687 -0.17288867 -0.1935592
0.187859 0.1777856 0.021240277 0.27116445 -0.29572806 -0.20616058 -0.054848414 0.15549189
0.14550097 0.15643305 0.2083258 -0.18222684 0.06275536 0.13143139 -0.05073761 0.30320844
0.117082365 -0.15528193 -0.110195085 0.047311027 -0.21468571 0.11617641 -0.05166406 0.012603853
-0.22789228 -0.11667796 -0.117372446 0.14033449 -0.22054267 0.16930823 0.037705053 0.047406588
0.09767753 -0.12843847 -0.068224706 0.22764014 0.3818439 -0.2686172 0.028476616 0.016141264
-0.33747008 -0.06302364 -0.19601092 0.07000886 0.15191993 0.105507046 -0.1890351 -0.21009241
-0.013372744 0.3012617 0.15001227 -0.21508923 -0.024959939 -0.12664 -0.3275887 0.08438095
0.044109397 -0.039480064 -0.019546088 0.27094665 0.14293027 0.04638071 -0.4256135 -0.10965479
0.08483749 0.016780565 0.17582074 0.027687522 -0.14364372 -0.0248549 -0.3359669 0.042651396
0.14672701 0.24924658 0.0898469 -0.15246367 0.13598315 -0.13243619 0.07098031 0.014223002
0.2812671 0.09977812 0.2743882 -0.17115366 0.27160716 -0.22467472 0.25037897 0.25937203
0.15778944 -0.11473879 -0.13720305 -0.07492759 -0.093303375 0.2058709 0.22037847 -0.01785702
00000000: 4836 6ebe 180e 703c 7b48 afbe c7bb 32be
00000010: 5ed6 333d c98b 71be edbd 91bd 065b 213e
00000020: c00f 89bd c822 e13c 835e db3c 4d5b 98be
00000030: e76d 93be d875 dabd 94ca 693e 339e 793d
00000040: fa59 7d3c bcdf 9cbe e674 df3d 90dc 583e
00000050: 605f 84be dbce 043e 7557 5bbe 0876 b1be
00000060: b347 6ebd 8419 453e 1d6b 853e dbfc 203e
00000070: da9f 603e bc69 e33c 085c 223e f74c 273e
00000080: 6525 adbe c1e8 7abe 0e45 37bc 46c2 e63d
00000090: 706f 18bc 5752 083d 1fb5 183d dc1c 46be
000000a0: 47f7 19be 075b 53be d2bf 3b3e 49ae 2d3e
000000b0: b7fa 00bd b403 b9bc 6739 a6bd cffd 3bbe
000000c0: ebed 243e a232 293e 6e1e 043d 2d6f 543e
000000d0: 5cbb 1dbd 36c3 b23d 97a3 4b3e 0698 d43d
000000e0: 9e66 aebd a289 7d3e c1c9 3dbe 47f1 f6bd
000000f0: c25c 67be 0649 82be e51e b6bd 26f9 f93d
00000100: 7e3a f4bc 1806 673c 26a0 b5be f736 0f3e
00000110: 896b a33e 0e92 82be 58ec 55bd 8f1e b63d
00000120: 9a77 e53d c5d8 afbd a62f 34be 37a6 2bbe
00000130: 59ce be3e a21d ab3c 803c e83d 5ee2 e8bd
00000140: 1a19 2ebe 5cd4 43be 4dc2 9d3d 1c67 aa3e
00000150: 9c85 b4bc f965 72be 4e58 5abe a761 ca3d
00000160: e1e9 17bd 5719 843e e828 28be 8638 673d
00000170: 631d 14bd e189 c3be 2c3d 9dbe fe3b a8bd
00000180: b8af 513e 986c 963d 6914 ddbd f082 5fbe
00000190: 2765 873e 995e 7a3e c96f 163e 7bd2 893e
000001a0: b255 303e 5881 1a3e d14f 993e 9dc2 833e
000001b0: 701c 4f3e dc60 393e 3742 59bd 013e 7fbe
000001c0: b8d6 3dbe 7f7f 083d 8c71 683e 1678 60be
000001d0: 37c3 3e3d 62c1 1c3e 9e27 b1be 6f3b 803e
000001e0: 5ddd 5e3e e5bf 20be a5d3 09be fb8a f5bb
000001f0: 4a7a 03be e19e 6cbc 52be 08bd eda7 a73d
00000200: 8568 13be 787d 9dbe ccc0 ddbd 32ab cd3d
00000210: 08c1 0e3d b528 18be e6a4 c03d 2777 41bc
00000220: 96ba 0c3e a641 c9bb 7c2e cabd 701d 5abd
00000230: 630e 86bd 8f9e 71bd 7f90 a33a 0ea3 193e
00000240: 39c8 68bd e60e 0ebc ed8d ba3e a87d 74bb
00000250: bc64 593d e195 5ebd 0ee1 0bbe 60d9 0f3d
00000260: 430f 023c 599d 383e e7f9 433e 88d3 0e3e
00000270: 4ac6 51bd ea60 c8bb ba09 31be 6234 46be
00000280: 1c5e 403e 6e0d 363e 1700 ae3c 11d6 8a3e
00000290: ab69 97be c21b 53be bba8 60bd 4439 1f3e
000002a0: 35fe 143e fc2f 203e 5c53 553e ac99 3abe
000002b0: e285 803d f395 063e 3dd2 4fbd 233e 9b3e
000002c0: e1c8 ef3d 3a02 1fbe f6ad e1bd 35c9 413d
000002d0: 92d6 5bbe e6ed ed3d b29d 53bd 6480 4e3c
000002e0: 985c 69be dbf4 eebd f760 f0bd d8b3 0f3e
000002f0: f0d5 61be 235f 2d3e 9d70 1a3d 692d 423d
00000300: 280b c83d 6085 03be 65b9 8bbd 7f1a 693e
00000310: 0b81 c33e 3288 89be cb47 e93c af3a 843c
00000320: e1c8 acbe 8a12 81bd 16b7 48be ce60 8f3d
00000330: e690 1b3e 1414 d83d 6b92 41be 7722 57be
00000340: 5b19 5bbc f93e 9a3e d19c 193e 5a40 5cbe
00000350: c978 ccbc ebad 01be b5b9 a7be ebcf ac3d
00000360: 0eac 343d d9b5 21bd 1e1f a0bc 85b9 8a3e
00000370: 505c 123e b3f9 3d3d 03ea d9be b192 e0bd
00000380: 47bf ad3d 6577 893c 5a0a 343e f1d0 e23c
00000390: 5717 13be 819c cbbc db03 acbe 3bb3 2e3d
000003a0: 9b3f 163e 7f3a 7f3e a701 b83d 701f 1cbe
000003b0: 2b3f 0b3e 5a9d 07be 205e 913d 9807 693c
000003c0: 3e02 903e 7958 cc3d 9c7c 8c3e e842 2fbe
000003d0: 1810 8b3e 2111 66be ac31 803e 69cc 843e
000003e0: 8e93 213e 2cfc eabd f57e 0cbe a373 99bd
000003f0: d715 bfbd d2cf 523e e5aa 613e e348 92bc

mid_part.6.0.bias f4 [56]
-0.24871044 -0.077867225 -0.18209632 0.008244735 -0.029254714 -0.009312764 -0.20893133 0.19658431
-0.09560736 0.023524642 -0.19100201 -0.13158874 -0.23946986 0.16429392 0.037698627 -0.017366512
0.05867229 0.20158929 -0.12614727 0.15526174 -0.03045253 0.11984797 0.18294145 0.1546293
-0.12611727 0.06445531 0.0033945895 -0.05628652 -0.17693165 -0.040764783 0.09174453 -0.055119
0.06635372 -0.1108461 -0.001209743 -0.017053604 0.06404257 -0.18072858 -0.14588182 -0.04536234
-0.06678851 -0.18249357 0.09363063 0.07621875 0.19825952 -0.20836593 -0.09879047 0.05470753
0.11225524 0.016471907 0.06395101 0.032538112 -0.10636472 -0.21963863 -0.07054635 0.07162438
00000000: f3ad 7ebe da78 9fbd 7577 3abe ed14 073c
00000010: 95a7 efbc 9094 18bc 18f2 55be 664d 493e
00000020: cbcd c3bd c0b6 c03c 0896 43be 33bf 06be
00000030: 9637 75be aa3c 283e e069 1a3d 3744 8ebc
00000040: 5b52 703d 6c6d 4e3e c02c 01be effc 1e3e
00000050: 9677 f9bc da72 f53d 0155 3b3e 2557 1e3e
00000060: e324 01be 2501 843d c377 5e3b b28c 66bd
00000070: 922d 35be f9f8 26bd 8ee4 bb3d 76c4 61bd
00000080: 76e4 873d 4803 e3bd 3d90 9eba 00b4 8bbc
00000090: c028 833d ea10 39be 0b62 15be dccd 39bd
000000a0: 6ac8 88bd 98df 3abe 6ac1 bf3d 9318 9c3d
000000b0: 8b04 4b3e e15d 55be a852 cabd 0115 603d
000000c0: 13e6 e53d 18f0 863c bff8 823d af46 053d
000000d0: bfd5 d9bd f3e8 60be 9b7a 90bd ceaf 923d
