checkpoints/model_up_3_epoch_50.pth (torch_old, 46727 bytes, 15 tensors)

first_part.0.weight f4 [56, 1, 5, 5]
-0.008106178 0.06782039 -0.053373322 0.14648518 -0.08231478 0.19649358 -0.13750239 -0.18110095
-0.098457605 0.1657038 -0.03790859 0.048884142 -0.239832 -0.12973799 -0.0151412925 0.016655799
-0.1449481 0.09627803 -0.034789763 0.12525314 0.21249868 0.08835261 0.07579654 0.23190972
-0.0379428 0.05934625 -0.06056076 0.16234593 0.16729423 -0.20301442 0.18765898 0.08781918
0.054885168 0.092331015 0.17241378 0.0050069806 -0.21663508 -0.16182482 -0.15810715 0.025977775
0.012939793 -0.096645504 -0.05791101 0.20895648 0.01030371 0.028874146 0.007325696 0.04311978
0.18231018 0.09103313 0.08146722 0.08311467 0.08869211 0.097734146 -0.045648795 -0.14716941
-0.09788324 0.20062868 0.06604244 -0.14482756 0.083307795 0.1836107 -0.18591104 -0.08361147
-0.049903966 0.05285883 0.009601034 0.015431388 -0.14545774 0.10954991 0.17394984 0.1674763
-0.10138181 -0.15203172 0.040853642 -0.0072409054 0.04027701 -0.2444677 -0.02359486 0.15550126
0.066911004 0.0058404547 0.05692577 -0.0109239 -0.1123233 -0.095498405 -0.08110828 0.25503293
0.1557284 0.0689615 -0.17951332 0.14973903 0.07618944 0.12106188 -0.10631545 0.045646433
0.19156675 0.12501468 0.15286191 -0.020299839 0.14680068 -0.148031 0.0344944 -0.12396602
-0.07998954 -0.04278824 0.039098203 0.2276327 0.113769 -0.025745885 0.15173872 -0.079513095
0.16068639 0.01642837 -0.049310304 0.022256246 -0.14114715 0.06878151 0.09601757 0.15696047
-0.07778326 0.06741528 0.21417163 -0.08695193 0.16863172 -0.12839486 0.06947735 0.07989378
0.054216836 0.14923438 -0.10564857 0.06581449 0.046749733 -0.13019261 -0.05234815 -0.15114965
0.12564717 0.09695035 0.05983634 -0.057484478 -0.037295602 -0.06286771 0.09237539 0.20390716
0.02089707 -0.12878057 -0.14769435 0.01623365 -0.14944714 -0.14754389 -0.14047885 -0.07217037
0.023711557 0.1216559 0.042179096 0.15857983 -0.108338065 0.06501622 -0.15675898 0.094962046
0.05995473 0.2351278 -0.0590333 0.21091527 0.16658181 0.16290465 0.053026747 0.23935121
0.1585775 0.13674386 -0.02678072 -0.15643546 0.013021203 0.03169679 -0.15110746 0.008841204
-0.050933257 -0.0007193537 0.18276273 0.070682436 0.083537966 0.076599896 0.13121034 -0.22407211
-0.17811246 -0.047177467 -0.20604411 0.025933685 0.112611525 -0.2157486 -0.08334517 -0.22760554
0.080086485 0.2552062 -0.08281826 0.04364381 0.1577985 -0.04691591 0.27166063 0.11911473
-0.06910896 -0.034735143 0.056569297 -0.04592095 -0.13867974 -0.022430407 0.012437816 0.06803172
0.030673126 0.16622 -0.04221371 0.09406368 0.22491366 -0.061735734 0.10252775 -0.04598372
0.15708703 -0.03920074 0.010952951 0.048839837 -0.14190009 -0.13734493 0.10559226 -0.016958918
0.19059533 -0.19023885 -0.102598205 -0.17508751 0.10073029 0.033562858 -0.043693375 -0.06409446
-0.20538934 0.051109396 0.037719794 -0.14849108 0.037307166 -0.06954112 -0.21565963 0.13167591
0.10847722 -0.054495733 -0.17810866 0.0013897766 0.17656237 0.19205025 -0.15026633 -0.1020729
0.16563247 0.118868835 0.07842909 0.113978416 0.3240401 -0.199551 -0.14876229 0.12716238
00000000: c6cf 04bc 6be5 8a3d fc9d 5abd 3600 163e
00000010: a794 a8bd 9d35 493e 6dcd 0cbe 8772 39be
00000020: 24a4 c9bd 42ae 293e 0a46 1bbd bd3a 483d
00000030: 8596 75be 09da 04be 2f13 78bc be71 883c
00000040: 466d 14be 6a2d c53d b67f 0ebd 5c42 003e
00000050: 4199 593e 37f2 b43d 373b 9b3d be79 6d3e
00000060: e969 1bbd 0e15 733d 8f0e 78bd 033e 263e
00000070: 2e4f 2b3e 03e3 4fbe ad29 403e 8bda b33d
00000080: 45cf 603d 0b18 bd3d 3d8d 303e 9911 a43b
00000090: 96d5 5dbe 68b5 25be d7e6 21be 58cf d43c
000000a0: 6d01 543c 14ee c5bd 1834 6dbd b0f8 553e
000000b0: e4d0 283c 7989 ec3c 640c f03b 5e9e 303d
000000c0: 85af 3a3e 946f ba3d 49d8 a63d 0638 aa3d
000000d0: 35a4 b53d d728 c83d 3bfa 3abd 94b3 16be
000000e0: 0277 c8bd 9b71 4d3e 4241 873d ad4d 14be
000000f0: 479d aa3d 7104 3c3e 775f 3ebe 7e3c abbd
00000100: 1a68 4cbd 8082 583d a84d 1d3c efd3 7c3c
00000110: e0f2 14be b45b e03d e81f 323e e87e 2b3e
00000120: 44a1 cfbd 34ae 1bbe 2656 273d 1e45 edbb
00000130: 82f9 243d be55 7abe 024a c1bc b93b 1f3e
00000140: a308 893d 4961 bf3b ff2a 693d 28fa 32bc
00000150: c209 e6bd ab94 c3bd 191c a6bd ad93 823e
00000160: 4477 1f3e b03b 8d3d 57d2 37be 3055 193e
00000170: 3609 9c3d 4aef f73d eabb d9bd c1f7 3a3d
00000180: 132a 443e d903 003e d587 1c3e d94b a6bc
00000190: eb52 163e 7095 17be 004a 0d3d e6e1 fdbd
000001a0: 8ed1 a3bd b942 2fbd 7025 203d 8c18 693e
000001b0: b9ff e83d 09e9 d2bc 6561 1b3e c3d7 a2bd
000001c0: f98a 243e ca94 863c 9af9 49bd bb52 b63c
000001d0: e188 10be 52dd 8c3d dca4 c43d 3fba 203e
000001e0: d44c 9fbd 0611 8a3d cf4f 5b3e da13 b2bd
000001f0: cbad 2c3e f179 03be 244a 8e3d 5a9f a33d
00000200: 7912 5e3d e6d0 183e 475e d8bd bfc9 863d
00000210: a67c 3f3d 3651 05be 046b 56bd f9c6 1abe
00000220: a7a9 003e e88d c63d f316 753d d874 6bbd
00000230: 46c3 18bd c9c0 80bd 4f2f bd3d 0acd 503e
00000240: 5530 ab3c 0edf 03be 303d 17be 6efc 843c
00000250: ac08 19be bf15 17be b0d9 0fbe 0fce 93bd
00000260: bd3e c23c ba26 f93d fdc3 2c3d c062 223e
00000270: 59e0 ddbd 3927 853d 6d85 20be 767b c23d
00000280: 1793 753d 58c5 703e e7cc 71bd 2cfa 573e
00000290: 6c94 2a3e 7ad0 263e 9332 593d 7c18 753e
000002a0: 2462 223e 9506 0c3e 3e63 dbbc 9e30 20be
000002b0: e256 553c 7ed4 013d eabb 1abe b3da 103c
000002c0: 649f 50bd 0293 3cba 2726 3b3e f4c1 903d
000002d0: f415 ab3d 68e0 9c3d 015c 063e 2973 65be
000002e0: 1d63 36be 293d 41bd 3afd 52be e172 d43c
000002f0: dfa0 e63d 33ed 5cbe dfb0 aabd 6d11 69be
00000300: 6204 a43d 63aa 823e 9f9c a9bd dac3 323d
00000310: ee95 213e e62a 40bd 1a17 8b3e 6cf2 f33d
00000320: 0089 8dbd 7046 0ebd 35b5 673d 9b17 3cbd
00000330: 1002 0ebe f9bf b7bc fbc7 4b3c 3754 8b3d
00000340: 3546 fb3c 9335 2a3e 48e8 2cbd 75a4 c03d
00000350: c44f 663e 9cde 7cbd 12fa d13d 6d59 3cbd
00000360: 6cdb 203e f590 20bd 0274 333c 480c 483d
00000370: 424e 11be 26a4 0cbe c140 d83d 6eed 8abc
00000380: 6c2b 433e f9cd 42be 021f d2bd 244a 33be
00000390: af4b ce3d 3579 093d d3f7 32bd f543 83bd
000003a0: 9551 52be 1658 513d 1280 1a3d 0c0e 18be
000003b0: 66cf 183d 936b 8ebd e1d5 5cbe 0dd6 063e
000003c0: 4e29 de3d eb36 5fbd 1e62 36be 2a29 b63a
000003d0: c4cc 343e d2a8 443e 6bdf 19be 990b d1bd
000003e0: 8f9b 293e 8171 f33d 6e9f a03d 846d e93d
000003f0: 96e8 a53e 1957 4cbe 2455 18be db36 023e

first_part.0.bias f4 [56]
0.20416532 0.017640628 -0.12023587 0.099041805 -0.1507733 -0.008455227 0.13475968 0.17763467
-0.10941 -0.074648224 -0.090920866 -0.11885427 0.09029539 0.037019152 0.038650762 0.16019231
-0.06325572 0.08252622 0.034646425 -0.1106654 -0.08592439 -0.11152702 0.1163211 -0.13937834
-0.18831636 -0.04507707 -0.105318464 -0.058712382 -0.17046249 0.20383959 0.19843197 -0.1655131
-0.13601357 -0.0042111045 -0.16533424 -0.026823614 -0.10281681 -0.06298325 0.19872367 0.17396595
-0.17240067 -0.17055784 -0.10977905 0.11590595 -0.13135396 0.15938386 -0.00073952734 0.09086875
0.10189374 0.1470245 0.10782003 0.19004883 -0.035118368 -0.09769388 0.077298276 0.16672859
00000000: b710 513e 1483 903c 393e f6bd 6ed6 ca3d
00000010: 5164 1abe cb87 0abc 71fe 093e dde5 353e
00000020: 5a12 e0bd 2be1 98bd b834 babd de69 f3bd
00000030: caec b83d 65a1 173d 4350 1e3d 7409 243e
00000040: 378c 81bd 8203 a93d 69e9 0d3d 8ba4 e2bd
00000050: 20f9 afbd 4768 e4bd c239 ee3d 32b9 0ebe
00000060: 01d6 40be bca2 38bd 35b1 d7bd 657c 70bd
00000070: b88d 2ebe 53bb 503e c031 4b3e 447c 29be
00000080: 2447 0bbe 4efd 89bb 614d 29be 32bd dbbc
00000090: 9f91 d2bd 5dfd 80bd 387e 4b3e 2124 323e
000000a0: cd89 30be b7a6 2ebe d7d3 e0bd 1960 ed3d
000000b0: a781 06be 8635 233e d7dc 41ba 6519 ba3d
000000c0: aaad d03d 978d 163e bfd0 dc3d 299c 423e
000000d0: 47d8 0fbd bb13 c8bd 8f4e 9e3d e6ba 2a3e

mid_part.0.0.weight f4 [12, 56, 1, 1]
-0.0037607711 0.13587011 0.15111284 0.028969964 0.10582163 -0.17580685 0.061728936 -0.14284356
-0.025611093 0.012325597 0.09290713 0.054468345 -0.025202673 0.11334816 0.1338193 -0.016482685
-0.05149565 0.08230679 0.050552886 -0.12210153 0.011229915 -0.14221561 -0.11011709 0.08880559
0.08886969 0.10485519 -0.06989598 0.13311717 -0.02467664 0.054387484 0.1502096 0.018977143
0.027909677 -0.006798811 -0.007564655 0.03593745 0.1457459 -0.12126752 -0.0138866 -0.1507821
-0.06285946 -0.010068606 -0.055686764 -0.07662083 -0.2972207 0.037150774 0.0739463 0.020565037
0.0866435 0.06696561 -0.05568765 0.14103074 -0.12696826 -0.1651025 -0.08129935 0.0021344926
-0.038652916 0.09732429 0.06425154 -0.11202805 0.17010394 -0.043722644 0.10273066 0.15576398
-0.26205698 -0.12543994 0.27300942 0.02858156 0.19203776 0.12751739 0.10867816 0.04736478
-0.0059234356 0.1505513 -0.08704539 -0.19536181 -0.051451202 0.01657538 0.00751792 0.08325313
0.038069785 -0.08806287 0.021097803 0.034797348 0.08155027 -0.07288838 -0.030192602 0.14081608
0.08580749 0.05969182 -0.151474 -0.20482685 0.19571295 -0.031223584 -0.13584003 -0.0733292
0.10887424 -0.12200911 0.18663743 -0.14888358 0.027766138 0.12456148 0.09860489 0.07667043
0.052060287 -0.057544556 -0.04581476 0.1784162 0.008757928 -0.00838444 0.049791448 0.025666583
-0.033662617 0.09744408 0.0064697247 0.028306546 0.05258352 0.11902965 -0.03332999 -0.0070869396
0.08752133 -0.13409054 0.0077586053 -0.1278009 -0.15800187 0.0061447755 0.03426151 -0.0056369035
-0.029717855 -0.064223886 -0.004644941 0.004983852 -0.06752391 0.050593507 0.0633619 -0.013493478
-0.013105224 0.027665501 0.1440574 -0.06123032 -0.12128016 -0.1302344 -0.032418672 -0.09984068
-0.11733007 -0.04701981 -0.03385564 -0.0098835295 -0.005693953 0.074347615 0.14295906 -0.004632772
-0.14419605 0.13996787 0.09105734 0.1470457 0.112597235 0.08087343 -0.0001834412 -0.0771468
-0.16615093 -0.08212495 0.032358162 -0.10255143 0.025008094 0.070529476 -0.12514876 0.026869448
0.18472494 0.10392977 0.039242715 -0.045565628 -0.081561014 -0.040529113 -0.08933223 0.16964717
-0.0143018905 -0.050238557 -0.077236466 -0.0390984 -0.0850197 -0.018226815 -0.1420681 0.104462944
-0.07170162 0.089758776 -0.07431212 -0.07088419 -0.13026752 -0.027528882 -0.112947494 -0.100129426
0.017638948 -0.071678795 0.11752409 0.1714727 0.09084627 0.133138 -0.0387016 0.012880109
0.025906987 0.13247517 -0.15804525 -0.038340542 0.07876329 0.07456603 -0.13064568 0.11933185
0.102489464 0.06087504 -0.039835006 -0.07657142 -0.009907937 0.140106 0.093285896 -0.09291731
0.1287028 0.009860116 -0.07211624 0.13358192 0.10650091 0.019339526 -0.055651244 0.11822164
-0.063456915 -0.015636316 -0.045103386 -0.09523878 0.00190611 0.11189706 0.015378702 -0.041691273
0.15513207 -0.042161822 -0.15748444 -0.038528487 -0.07658996 0.07257444 0.12378318 -0.007862458
0.14026716 0.104292236 0.047388036 0.10404696 0.09330309 0.042997714 0.14078702 -0.043838784
-0.11246497 -0.14550026 0.11510901 -0.16200446 0.0427708 -0.04942249 -0.16023923 -0.03126864
00000000: 4577 76bb 8921 0b3e 53bd 1a3e 6b52 ed3c
00000010: 03b9 d83d b606 34be 7bd7 7c3d 9545 12be
00000020: 5bce d1bc 4df1 493c 1846 be3d 331a 5f3d
00000030: d675 cebc 1523 e83d ed07 093e b206 87bc
00000040: 1aed 52bd 7690 a83d 8b10 4f3d 5e10 fabd
00000050: adfd 373c f8a0 11be 1285 e1bd b5df b53d
00000060: 5001 b63d 51be d63d a025 8fbd de4f 083e
00000070: aa26 cabc 69c5 5e3d 8cd0 193e f475 9b3c
00000080: d6a2 e43c 8fc8 debb ede0 f7bb 2633 133d
00000090: 6a3e 153e 1b5b f8bd 9f84 63bc 9f66 1abe
000000a0: 76bc 80bd cbf6 24bc ce17 64bd 62eb 9cbd
000000b0: 502d 98be 692b 183d 2871 973d 0278 a83c
000000c0: 2672 b13d 4425 893d bc18 64bd 5d6a 103e
000000d0: f803 02be a110 29be 4680 a6bd d8e2 0b3b
000000e0: 8552 1ebd f551 c73d 5096 833d f66e e5bd
000000f0: ba2f 2e3e 8416 33bd 7464 d23d 9880 1f3e
00000100: 552c 86be 5473 00be e4c7 8b3e e023 ea3c
00000110: 8ca5 443e eb93 023e a892 de3d 9201 423d
00000120: 6119 c2bb 1f2a 1a3e da44 b2bd ed0c 48be
00000130: 7fbe 52bd 17c9 873c e258 f63b 9e80 aa3d
00000140: 10ef 1b3d 4e5a b4bd 4dd5 ac3c aa87 0e3d
00000150: d403 a73d 8146 95bd 7a56 f7bc 1732 103e
00000160: d6bb af3d 697f 743d 001c 1bbe 21be 51be
00000170: fa68 483e 9ac8 ffbc a619 0bbe 9f2d 96bd
00000180: 75f9 de3d eadf f9bd e21d 3f3e f074 18be
00000190: d075 e33c 171a ff3d 5cf1 c93d 6305 9d3d
000001a0: 2b3d 553d d7b3 6bbd 42a8 3bbd bdb2 363e
000001b0: 6a7d 0f3c e45e 09bc 1ef2 4b3d ba42 d23c
000001c0: d0e1 09bd c390 c73d fcff d33b 21e3 e73c
000001d0: d161 573d d1c5 f33d 0785 08bd 8f39 e8bb
000001e0: 623e b33d 084f 09be e63b fe3b 3dde 02be
000001f0: 3ecb 21be 1d5a c93b cc55 0c3d c6b5 b8bb
00000200: dc72 f3bc d087 83bd 9734 98bb 954f a33b
00000210: fa49 8abd 233b 4f3d e2c3 813d c013 5dbc
00000220: 4bb7 56bc c3a2 e23c c883 133e a5cc 7abd
00000230: bc61 f8bd 2b5c 05be 71c9 04bd 4579 ccbd
00000240: bf4a f0bd d897 40bd 36ac 0abd 87ee 21bc
00000250: 5794 babb 9043 983d dc63 123e 82ce 97bb
00000260: 21a8 13be bd53 0f3e 457c ba3d 2693 163e
00000270: 6199 e63d f8a0 a53d 1f5a 40b9 24ff 9dbd
00000280: 7823 2abe 2031 a8bd fe89 043d 7c06 d2bd
00000290: c6dd cc3c c271 903d ff26 00be 511d dc3c
000002a0: 8928 3d3e 22d9 d43d f8bc 203d 06a3 3abd
000002b0: 7609 a7bd db01 26bd d1f3 b6bd fdb7 2d3e
000002c0: 7a52 6abc f2c6 4dbd 272e 9ebd a525 20bd
000002d0: cf1e aebd 6750 95bc 4d7a 11be abf0 d53d
000002e0: 4dd8 92bd 73d3 b73d f430 98bd bb2b 91bd
000002f0: d964 05be 4084 e1bc 0451 e7bd a810 cdbd
00000300: 8e7f 903c 55cc 92bd 78b0 f03d 8a96 2f3e
00000310: 9c0d ba3d 5455 083e 9285 1ebd 1807 533c
00000320: e43a d43c 92a7 073e 9dd6 21be f90a 1dbd
00000330: a64e a13d 13b6 983d fbc7 05be 4264 f43d
00000340: ffe5 d13d 1b58 793d 082a 23bd 7ad1 9cbd
00000350: e654 22bc f277 0f3e ad0c bf3d 6e4b bebd
00000360: abca 033e 538c 213c aeb1 93bd b3c9 083e
00000370: 261d da3d ed6d 9e3c 8ff2 63bd 301e f23d
00000380: b3f5 81bd bb17 80bc 54be 38bd 8d0c c3bd
00000390: 70d6 f93a 492a e53d f4f6 7b3c 78c4 2abd
000003a0: f1da 1e3e e0b1 2cbd 9a43 21be 0cd0 1dbd
000003b0: 32db 9cbd e8a1 943d 0982 fd3d 8ad1 00bc
000003c0: 32a2 0f3e 2b97 d53d f519 423d 9316 d53d
000003d0: b115 bf3d 5f1e 303d 792a 103e 4c90 33bd
000003e0: 0954 e6bd 05fe 14be 46be eb3d 7fe4 25be
000003f0: 6f30 2f3d 3d6f 4abd c115 24be 8c13 00bd

mid_part.0.0.bias f4 [12]
-0.12675329 0.04955904 -0.018454643 0.029504044 0.101194814 -0.05898498 -0.010195877 -0.10917145
0.047075577 -0.020005569 -0.043577082 0.011423357
00000000: 9dcb 01be 6cfe 4a3d 312e 97bc 77b2 f13c
00000010: 3a3f cf3d 3c9a 71bd 9c0c 27bc 4895 dfbd
00000020: 52d2 403d b8e2 a3bc e27d 32bd 0829 3b3c

mid_part.1.weight f4 [12, 12, 3, 3]
0.012527048 0.03106583 0.0721903 0.079695515 0.10423688 -0.04197269 -0.09620506 0.07308226
0.0865554 0.025422478 -0.0820572 -0.03150829 0.08057852 -0.030972127 -0.024982426 -0.0036380256
0.065120585 -0.040137954 -0.044499677 -0.052061465 -0.044440467 -0.030443782 -0.05415197 0.016604241
-0.08809827 -0.058630925 -0.107958294 -0.09998294 0.05328873 0.007055112 -0.05668259 0.043309648
0.05960056 0.08626411 0.08299377 -0.09365876 0.017437851 -0.12171116 0.04804449 0.043897774
-0.13094637 -0.036384046 0.022676084 -0.022444524 -0.10327371 0.094365485 -0.047317337 0.022633376
0.07712678 -0.08574056 -0.028727977 -0.019562231 0.115036905 -0.03463512 -0.074342124 -0.07059918
-0.02387409 0.07875436 -0.062282354 -0.06509332 -0.1034593 0.0883937 0.05296115 0.05009903
0.09589577 0.031698115 0.08896652 0.015318835 0.038743746 -0.04125219 -0.0024110028 0.018899888
-0.049798097 -0.035681307 -0.03074779 0.05974194 0.07277243 -0.011745415 -0.0073491987 -0.04887881
0.0582402 -0.03894623 -0.040308036 0.065119796 -0.05471384 -0.008791284 0.054922473 -0.015551878
-0.021184005 0.08300316 -0.029045446 0.06851966 -0.031143615 -0.082539976 0.037056312 -0.09008264
-0.08759625 0.026928902 -0.07375303 0.018828621 -0.10128843 0.07832796 -0.003200663 0.031281356
-0.123096645 0.016221948 -0.039807905 0.024764821 -0.021840855 0.09354956 0.13352212 0.05330651
-0.074756265 0.08506219 -0.069168486 0.046964407 0.055182762 0.041955896 0.0025470585 0.081230104
-0.06547813 0.03358319 0.024909217 0.018954076 0.04522263 0.014504892 0.08404144 0.0020515989
0.02853651 0.10533037 0.053209033 0.0033943385 -0.0013373375 -0.06300484 -0.07147708 0.041533433
0.01086605 0.031804945 -0.094559625 0.04633375 -0.024787046 0.042827472 -0.04349288 0.0066130687
0.05871677 -0.04731865 0.0062079323 -0.022903623 0.108899206 -0.010583565 -0.061245874 -0.05239419
-0.011134526 0.058651425 0.055394046 0.10872102 0.08109385 0.020889828 0.023190735 -0.049634047
0.020985335 0.053930044 0.0053694355 0.030326294 -0.039900623 0.06773957 0.089703456 0.11458634
0.0658815 -0.029289406 0.009294386 -0.048478775 -0.051301293 0.10123154 -0.010691366 -0.08538249
-0.022855027 0.046302572 -0.015835812 0.06396305 0.023955435 -0.111200295 -0.031368896 -0.0022218856
-0.044262726 0.058893334 0.045542274 -0.056931775 0.023694783 -0.05813389 -0.08047499 -0.079754554
-0.007361059 0.020799836 -0.02604537 -0.016290225 0.08162875 0.09816943 -0.006195876 -0.020540362
0.07198177 0.005183835 0.11168596 0.05980157 0.045283437 0.006898513 0.041810665 0.0117522
0.096679725 0.0030454597 0.09229828 -0.04205707 0.06531132 0.05129234 -0.052389015 0.042431504
-0.17664327 -0.02432209 -0.17465308 -0.10215346 0.00158084 -0.38376912 -0.085305385 0.20946643
-0.22289729 0.32186982 0.29510918 -0.16918528 0.27038753 -0.1286102 -0.63547057 -0.006305602
0.089579575 -0.32984227 0.038167194 -0.09779358 -0.047913317 -0.08467532 0.1050087 0.09339128
0.0058323913 -0.03641517 0.11112426 0.34400684 -0.004551842 -0.12946557 -0.071060255 -0.23547406
-0.13109374 0.027660672 0.09465343 0.38253593 -0.1619921 -0.0049081272 0.032149453 -0.14378999
00000000: 3f3e 4d3c c47d fe3c 82d8 933d 6737 a33d
00000010: 257a d53d 8eeb 2bbd 2907 c5bd 27ac 953d
00000020: f543 b13d cd42 d03c 9b0d a8bd d60e 01bd
00000030: 5a06 a53d 42b9 fdbc f2a7 ccbc f16b 6ebb
00000040: f15d 853d b267 24bd 4b45 36bd 673e 55bd
00000050: 3507 36bd 3d65 f9bc 75ce 5dbd 9e05 883c
00000060: de6c b4bd fb26 70bd 3d19 ddbd dbc3 ccbd
00000070: 4945 5a3d 922e e73b 012c 68bd 7565 313d
00000080: b81f 743d 3dab b03d a3f8 a93d 2ad0 bfbd
00000090: d3d9 8e3c b343 f9bd 4dca 443d 27ce 333d
000000a0: ce16 06be 7007 15bd 32c3 b93c 94dd b7bc
000000b0: 2b81 d3bd b142 c13d d3cf 41bd a169 b93c
000000c0: a5f4 9d3d bf98 afbd ef56 ebbc f940 a0bc
000000d0: 7898 eb3d 8edd 0dbd af40 98bd 4e96 90bd
000000e0: 9893 c3bc f749 a13d c81b 7fbd a64f 85bd
000000f0: 78e2 d3bd c207 b53d caed 583d a434 4d3d
00000100: 0065 c43d e2d5 013d 1434 b63d dafb 7a3c
00000110: c3b1 1e3d 0ef8 28bd ea01 1ebb f0d3 9a3c
00000120: 17f9 4bbd 9026 12bd cae2 fbbc f7b3 743d
00000130: b609 953d d76f 40bc 8cd1 f0bb 2635 48bd
00000140: 478d 6e3d 1586 1fbd 0a1a 25bd 875d 853d
00000150: 9f1b 60bd 5109 10bc 63f6 603d 4ecd 7ebc
00000160: 148a adbc 90fd a93d b7f0 edbc 0954 8c3d
00000170: e520 ffbc b80a a9bd 5cc8 173d 3f7d b8bd
00000180: aa65 b3bd 009a dc3c d40b 97bd 7b3e 9a3c
00000190: 4f70 cfbd 696a a03d 37c2 51bb e120 003d
000001a0: 181a fcbd e4e3 843c 9d0d 23bd 98df ca3c
000001b0: 98eb b2bc e996 bf3d 06ba 083e ed57 5a3d
000001c0: d019 99bd 1635 ae3d 35a8 8dbd c05d 403d
000001d0: 5207 623d f2d9 2b3d 8dec 263b f85b a63d
000001e0: 6619 86bd 878e 093d 6a0e cc3c 9445 9b3c
000001f0: 5d3b 393d eda5 6d3c eb1d ac3d 1e74 063b
00000200: 66c5 e93c 73b7 d73d b7f1 593d 8d73 5e3b
00000210: 9a49 afba ae08 81bd 9362 92bd f61e 2a3d
00000220: 8407 323c e745 023d 7aa8 c1bd 75c8 3d3d
00000230: 340e cbbc dc6b 2f3d 9725 32bd 71b2 d83b
00000240: ff80 703d 33d1 41bd e96b cb3b 61a0 bbbc
00000250: 8c06 df3d b066 2dbc f4dc 7abd 4a9b 56bd
00000260: 966d 36bc 7a3c 703d dee4 623d 20a9 de3d
00000270: 8814 a63d 2521 ab3c 7ffa bd3c 124d 4bbd
00000280: 70e9 ab3c c0e5 5c3d 17f2 af3b d96e f83c
00000290: d66e 23bd 0bbb 8a3d 72b6 b73d 3eac ea3d
000002a0: e1ec 863d 56f0 efbc 7b47 183c ae91 46bd
000002b0: 4e21 52bd 7b52 cf3d d72a 2fbc 04dd aebd
000002c0: 773a bbbc c4a7 3d3d 1bba 81bc 0fff 823d
000002d0: 303e c43c fbbc e3bd ac7c 00bd 0e9d 11bb
000002e0: d54c 35bd 233a 713d 898a 3a3d 4b31 69bd
000002f0: 901b c23c cd1d 6ebd 12d0 a4bd 5b56 a3bd
00000300: 0a35 f1bb 6b64 aa3c 1a5d d5bc 1473 85bc
00000310: f92c a73d 0e0d c93d c606 cbbb 4344 a8bc
00000320: 2e6b 933d 29dd a93b 9cbb e43d 7ef2 743d
00000330: 207b 393d ec0c e23b a941 2b3d 4d8c 403c
00000340: 0500 c63d 5696 473b e106 bd3d 0944 2cbd
00000350: f1c1 853d eb17 523d dd95 56bd a8cc 2d3d
00000360: f9e1 34be 1f3f c7bc 42d8 32be d535 d1bd
00000370: 3034 cf3a 637d c4be 97b4 aebd 5e7e 563e
00000380: 303f 64be 1fcc a43e 8d18 973e e83e 2dbe
00000390: 3c70 8a3e 64b2 03be 33ae 22bf 399f cebb
000003a0: 7f75 b73d 16e1 a8be 3455 1c3d 0048 c8bd
000003b0: c140 44bd 416a adbd cd0e d73d ed43 bf3d
000003c0: a51d bf3b 1328 15bd 1e95 e33d aa21 b03e
000003d0: 9e27 95bb 9f92 04be 0a88 91bd 1d20 71be
000003e0: 703d 06be a298 e23c a8d9 c13d c0db c33e
000003f0: 42e1 25be 5bd4 a0bb 25af 033d af3d 13be

mid_part.1.bias f4 [12]
-0.01719981 0.061493836 0.021082265 0.0030518558 0.0053059156 -0.09753908 -0.027929666 -0.00423181
0.018452782 -0.002565668 -0.051473554 -0.07497367
00000000: 9ee6 8cbc f6e0 7b3d b7b4 ac3c a501 483b
00000010: 3fdd ad3b 92c2 c7bd c1cc e4bc ffaa 8abb
00000020: 4a2a 973c c424 28bb efd5 52bd cc8b 99bd

mid_part.2.weight f4 [12, 12, 3, 3]
0.03409451 0.007040762 0.07305704 -0.09118445 -0.05334606 0.06873464 -0.035405107 -0.077925675
-0.022779562 -0.08997686 -0.07988511 0.00630125 -0.07923901 0.07552913 0.06350221 0.023578381
-0.038592007 0.029174238 -0.008416599 -0.1065665 -0.2799291 0.13252649 -0.024195166 -0.27139273
0.060992952 0.07240004 -0.10398154 -0.012431501 0.012734509 -0.14472075 0.11059437 0.08109051
0.029481407 -0.1046586 0.02626496 -0.05391105 0.088056594 -0.004370171 0.021620099 -0.048886638
-0.038075276 0.044076845 -0.028596435 0.060708165 0.09900954 -0.006809344 0.022413502 0.10829184
0.019122412 0.060140036 -0.05496102 0.041794445 -0.044553593 0.109611325 -0.009181315 0.0367508
0.13185044 -0.13439603 -0.12708807 0.10255513 -0.0147411255 0.06238622 0.14730504 -0.01603899
0.046023104 -0.0072974237 -0.037672795 0.0043215165 -0.04128493 0.1326425 0.14681943 -0.05437155
0.058440015 0.039350234 -0.12074587 -0.001804948 0.08529398 -0.01937151 -0.080588065 -0.012207489
0.06222828 -0.081219465 -0.08126107 0.049170077 -0.07792954 0.007336203 -0.07164652 -0.0495702
-0.07689712 -0.08743865 0.0875302 0.09907017 -0.023418628 -0.0634713 -0.091522425 0.013869313
0.06297013 -0.029383548 0.06867398 0.10667916 0.0114063835 -0.05284414 0.13558775 -0.029269159
-0.06254019 0.014828615 -0.039425142 0.036773495 0.079234906 -0.035418373 0.022780139 -0.053518195
0.011204189 -0.09066851 -0.016428877 -0.06936959 -0.0048411465 0.020158222 -0.03221862 0.035585757
0.017375281 -0.03804175 0.023545396 -0.02658989 0.04774502 0.042761136 -0.10089558 -0.01984971
-0.1764525 0.07793022 0.11417047 -0.017936507 0.081907384 0.02452592 -0.07769302 -0.07129561
0.08560496 -0.02687634 -0.063670695 0.091048576 0.09794027 0.020617535 -0.045662247 0.020131022
0.08309489 0.041649397 -0.03654532 0.0010576493 -0.048691776 0.002025461 -0.02764032 -0.016324626
-0.089893945 0.046091046 0.0688224 0.02695411 0.06849061 -0.053829484 -0.036129914 -0.12701574
0.02610942 -0.023781598 -0.026808014 -0.03907678 0.13681555 -0.0003411031 -0.10553227 0.07032748
0.08154022 0.02400723 0.05162026 0.071376905 0.029508786 -0.06521363 0.009268107 0.011250662
-0.075353846 0.015837356 -0.017311012 -0.012374093 0.047378745 0.05652182 -0.029857432 0.09547826
0.0011498682 0.04489092 0.061772592 0.063089974 0.025797253 -0.05965959 0.0018052028 -0.06945335
-0.045120675 0.040122997 0.070984304 -0.04482364 -0.09883494 0.073300794 0.039890748 -0.07157074
-0.039597847 -0.021421686 -0.037692394 -0.016699037 -0.076384075 -0.0035806254 -0.074963346 -0.09349887
-0.035370182 -0.012494657 -0.028291507 0.0013089125 0.0026280275 0.016796717 0.06839644 0.07845123
0.081602834 -0.028380578 -0.013068899 0.0030773184 -0.027860122 0.0063001146 0.07277476 0.034663696
0.028637955 0.0025495137 0.027424445 -0.00045851254 -0.10766099 0.048380945 -0.09291721 -0.0600395
-0.03690984 -0.025549198 -0.18684311 -0.057169694 -0.016228316 0.0025346458 0.048560314 0.11878258
0.012645012 0.092538595 0.02005182 -0.072449036 0.0038284191 0.023468561 -0.0075373845 0.06319372
0.010159191 0.08013938 -0.05607356 0.019608654 0.005232224 0.09500295 -0.030236907 -0.043690637
00000000: afa6 0b3d 31b6 e63b ee9e 953d eabe babd
00000010: 6681 5abd bfc4 8c3d f204 11bd 7f97 9fbd
00000020: 349c babc ca45 b8bd ce9a a3bd b77a ce3b
00000030: 1048 a2bd 04af 9a3d 720d 823d 7327 c13c
00000040: a712 1ebd d0fe ee3c c6e5 09bc 8a3f dabd
00000050: de52 8fbe 06b5 073e f134 c6bc fdf3 8abe
00000060: bfd3 793d 7946 943d 46f4 d4bd 7fad 4bbc
00000070: 67a4 503c ad31 14be 4d7f e23d c812 a63d
00000080: fe82 f13c 4057 d6bd 9d29 d73c d5d1 5cbd
00000090: 0457 b43d a733 8fbb a21c b13c 5b3d 48bd
000000a0: d2f4 1bbd ec89 343d 1243 eabc 20a9 783d
000000b0: 84c5 ca3d eb20 dfbb 859c b73c 1dc8 dd3d
000000c0: 9ba6 9c3c 6655 763d ce1e 61bd a730 2b3d
000000d0: d47d 36bd e77b e03d 3a6d 16bc 0288 163d
000000e0: cd03 073e 1d9f 09be 6023 02be 6d08 d23d
000000f0: c384 71bc b188 7f3d 22d7 163e 3364 83bc
00000100: b982 3c3d 3a1f efbb ca4e 1abd 829b 8d3b
00000110: 631a 29bd 6fd3 073e d557 163e b4b4 5ebd
00000120: cc5e 6f3d b62d 213d 9c49 f7bd 0194 ecba
00000130: 9cae ae3d 00b1 9ebc 5b0b a5bd ec01 48bc
00000140: 15e3 7e3d 6456 a6bd 346c a6bd 9066 493d
00000150: 8699 9fbd 8864 f03b 69bb 92bd 1f0a 4bbd
00000160: 3d7c 9dbd 0913 b3bd 0943 b33d 4de5 ca3d
00000170: 6cd8 bfbc 3efd 81bd 1c70 bbbd 1d3c 633c
00000180: 7cf6 803d c4b5 f0bc f2a4 8c3d 9a7a da3d
00000190: d7e1 3a3c 1973 58bd 84d7 0a3e e0c5 efbc
000001a0: 1215 80bd b8f3 723c 427c 21bd ce9f 163d
000001b0: e945 a23d db12 11bd 6a9d ba3c e535 5bbd
000001c0: c691 373c 69b0 b9bd da95 86bc a511 8ebd
000001d0: 7ba2 9ebb db22 a53c acf7 03bd 5fc2 113d
000001e0: 9b56 8e3c abd1 1bbd 46e2 c03c 0ad3 d9bc
000001f0: 4890 433d 4d26 2f3d 58a2 cebd dc9b a2bc
00000200: f7af 34be e199 9f3d 35d2 e93d 95ef 92bc
00000210: 0fbf a73d 95ea c83c 851d 9fbd 6f03 92bd
00000220: a751 af3d c52b dcbc c865 82bd ad77 ba3d
00000230: e994 c83d 1be6 a83c 5608 3bbd d0e9 a43c
00000240: a72d aa3d 8f98 2a3d 8cb0 15bd d2a0 8a3a
00000250: 0771 47bd 99bd 043b f46d e2bc 39bb 85bc
00000260: 511a b8bd f7c9 3c3d c2f2 8c3d dece dc3c
00000270: ce44 8c3d 4e7c 5cbd f6fc 13bd 6a10 02be
00000280: 6ce3 d53c a0d1 c2bc 7b9c dbbc f90e 20bd
00000290: 6019 0c3e 15d6 b2b9 4e21 d8bd db07 903d
000002a0: 8ffe a63d cfaa c43c c46f 533d 0e2e 923d
000002b0: 69bc f13c b98e 85bd 42d9 173c b254 383c
000002c0: 1e53 9abd 58bd 813c d3cf 8dbc b5bc 4abc
000002d0: 3710 423d 6d83 673d 9397 f4bc 1b8a c33d
000002e0: 2db7 963a 8bdf 373d 4205 7d3d 5135 813d
000002f0: c354 d33c 9d5d 74bd 8e9c ec3a 8f3d 8ebd
00000300: 75d0 38bd 0358 243d 3860 913d fe98 37bd
00000310: f969 cabd ba1e 963d 7b64 233d ae93 92bd
00000320: 5a31 22bd 887c afbc 5763 1abd 6bcc 88bc
00000330: 416f 9cbd eda8 6abb 6286 99bd 567c bfbd
00000340: 53e0 10bd 64b6 4cbc 97c3 e7bc d18f ab3a
00000350: fc3a 2c3b 4599 893c 6f13 8c3d 0aab a03d
00000360: 631f a73d 637e e8bc ef1e 56bc d6ac 493b
00000370: e93a e4bc 3171 ce3b ef0a 953d 85fb 0d3d
00000380: 259a ea3c be15 273b 3ba9 e03c 8364 f0b9
00000390: 5d7d dcbd 192b 463d 614b bebd fbeb 75bd
000003a0: c62e 17bd 8d4c d1bc cd53 3fbe c52a 6abd
000003b0: 3ff1 84bc 4d1c 263b 2ee7 463d 4844 f33d
000003c0: 062d 4f3c e084 bd3d b743 a43c 2960 94bd
000003d0: 37e6 7a3b 2441 c03c 2afc f6bb b66b 813d
000003e0: bc72 263c 1e20 a43d 64ad 65bd 54a2 a03c
000003f0: 1373 ab3b e890 c23d 64b3 f7bc f4f4 32bd

mid_part.2.bias f4 [12]
0.088003345 0.11966007 0.015465387 -0.12163415 -0.099493794 -0.09037267 -0.0612343 -0.0029946538
0.06385502 0.0027202636 0.06809406 -0.092742644
00000000: 193b b43d 5710 f53d 8962 7d3c 531b f9bd
00000010: 67c3 cbbd 4e15 b9bd d1d0 7abd f441 44bb
00000020: 6cc6 823d 7346 323b e674 8b3d dbef bdbd

mid_part.3.weight f4 [12, 12, 3, 3]
0.090132006 0.086839475 0.0065118438 0.032543633 0.0874376 -0.026957763 0.10106279 -0.047054674
-0.039056323 0.021411624 -2.2301174e-05 -0.0018230471 0.025600065 0.06235623 0.045059443 0.059674747
0.0258106 0.062072966 -0.024961198 -0.0048252 -0.04990255 0.00736214 -0.049684126 -0.0022398955
0.10898761 0.021658024 0.039142538 -0.060974654 -0.060742345 0.071523264 -0.009955044 -0.07369243
-0.07304798 0.05018424 -0.109039865 0.06922201 -0.045869045 -0.06643439 0.04883337 -0.1256939
-0.017453127 -0.01673982 -0.079341106 0.039323773 -0.030621435 0.035318654 -0.020555122 0.030393854
0.035169587 0.015048684 0.006761917 0.063424334 -0.05928346 -0.089384906 -0.0797296 -0.008316563
0.050997388 0.034316212 -0.013108022 0.027815176 0.03970334 -0.05045922 -0.021917503 -0.10243604
-0.0590089 -0.04574831 -0.042194244 0.08046815 0.10447686 0.011689955 0.034219466 0.0044838786
0.06475816 0.020759543 -0.023741253 0.07251078 0.025381805 -0.03150235 -0.062891506 -0.02356282
-0.069589086 -0.08229443 -0.07518966 -0.079708755 0.05042846 -0.026171094 0.019655347 0.0630727
-0.07627896 -0.05549948 0.063750364 0.0865377 0.008197474 0.038122863 0.026276449 -0.0024451201
-0.028373158 0.09637668 0.027846515 -0.029124577 -0.06612032 0.0760189 -0.08936914 0.015351855
0.093218885 -0.08708562 0.060545404 0.03837861 -0.05255817 -0.0036769889 -0.0014219148 -0.05575025
-0.04465377 0.08915571 -0.007655184 -0.061613616 -0.006122942 0.010058422 0.11077764 0.083602235
0.058161132 -0.063061096 0.049770344 -0.062359143 0.0012821032 0.054831136 -0.013176945 0.060752835
0.0032078798 -0.05272049 -0.07073431 -0.07193548 0.036206104 -0.0019528954 -0.05097161 0.045503553
-0.008908568 -0.04043531 -0.100262664 -0.04800559 0.079952665 -0.09405735 -0.10920289 0.053407487
-0.15462081 -0.027421873 -0.067939125 -0.041348238 -0.018151008 0.070708446 -0.04460915 0.036939837
-0.073237255 0.11421157 0.042965274 -0.046816286 0.0749184 0.0728841 -0.03915192 0.048675932
-0.06858091 0.048923384 0.056207146 0.074223205 0.04858023 0.097329386 0.10152139 0.0902469
0.009825719 -0.051503237 -0.07359104 -0.045272134 0.079641975 0.07747038 -0.00852385 0.0011561521
-0.06583032 0.0067561152 0.049506724 -0.023190461 0.0062698745 0.019425226 -0.08347471 0.006739208
-0.13906705 -0.050821178 -0.06558591 -0.12853801 -0.08548973 -0.047430526 0.121352024 0.0012740368
0.025031807 0.11079538 0.08248133 -0.07536661 0.098138064 -0.05773701 0.062521935 -0.069045655
-0.10973523 0.09861547 0.0862111 -0.024937604 0.075210966 -0.034504518 0.0010782831 -0.02411539
-0.002036142 0.04983247 -0.027170258 -0.109239474 -0.06041669 0.015999125 -0.051022638 0.054582536
-0.004519729 -0.073703595 0.15903933 -0.035847466 0.01608779 0.07247313 0.01162799 -0.025852026
0.067445576 -0.017093254 -0.03593735 0.01046351 -0.063678026 0.056807682 0.067580886 -0.0011948419
0.066221155 0.048985742 -0.079494126 -0.048683606 -0.0822242 -0.037352927 -0.106128186 0.012738019
0.0067841453 -0.05076866 -0.08163359 -0.009978995 0.06159332 0.11709595 -0.065575525 -0.000116433
-0.0802303 0.06723008 0.06388258 0.023035415 -0.045955196 0.05333428 -0.05361031 0.03232443
00000000: 2197 b83d e5d8 b13d 4e61 d53b 794c 053d
00000010: 7c12 b33d 87d6 dcbc 02fa ce3d 67bc 40bd
00000020: 86f9 1fbd 6e67 af3c 6813 bbb7 4ff3 eeba
00000030: 3ab7 d13c 3f69 7f3d 4090 383d 826d 743d
00000040: c070 d33c 3940 7e3d 6d7b ccbc b61c 9ebb
00000050: 9e66 4cbd 1b3e f13b 9581 4bbd 36cb 12bb
00000060: e534 df3d 2b6c b13c ed53 203d 8fc0 79bd
00000070: f7cc 78bd ca7a 923d 7b1a 23bc 0fec 96bd
00000080: 2e9a 95bd fd8d 4d3d 4b50 dfbd 45c4 8d3d
00000090: 2ee1 3bbd c10e 88bd 8005 483d e7b5 00be
000000a0: dcf9 8ebc f221 89bc 977d a2bd f711 213d
000000b0: ced9 fabc 4baa 103d 3763 a8bc 88fc f83c
000000c0: fc0d 103d c18e 763c 1293 dd3b 9ee4 813d
000000d0: 37d3 72bd 6f0f b7bd 4649 a3bd 3242 08bc
000000e0: a3e2 503d 288f 0c3d 07c3 56bc a7dc e33c
000000f0: f89f 223d 54ae 4ebd 568c b3bc fdc9 d1bd
00000100: 51b3 71bd 9462 3bbd dfd3 2cbd 7ccc a43d
00000110: f7f7 d53d 3a87 3f3c b629 0c3d 80ed 923b
00000120: ed9f 843d eb0f aa3c 047d c2bc 8880 943d
00000130: 81ed cf3c 9c08 01bd 43cd 80bd d106 c1bc
00000140: b984 8ebd fb89 a8bd 09fd 99bd 583e a3bd
00000150: 138e 4e3d c364 d6bc 4004 a13c 422c 813d
00000160: 2538 9cbd 6c53 63bd 8d8f 823d ad3a b13d
00000170: b34e 063c b826 1c3d b541 d73c 4f3e 20bb
00000180: d36e e8bc 2361 c53d 601e e43c aa96 eebc
00000190: 176a 87bd ccaf 9b3d 2b07 b7bd 5986 7b3c
000001a0: 8be9 be3d f259 b2bd 75fe 773d e432 1d3d
000001b0: 3c47 57bd a3f9 70bb 8b5f baba 605a 64bd
000001c0: dfe6 36bd 4597 b63d 56d8 fabb 8f5e 7cbd
000001d0: f6a2 c8bb 14cc 243c 63df e23d a637 ab3d
000001e0: 5e3a 6e3d 2d26 81bd fddb 4b3d 4d6c 7fbd
000001f0: 3f0c a83a 9d96 603d 1de4 57bc f7d7 783d
00000200: 4b3b 523b 71f1 57bd 26dd 90bd e952 93bd
00000210: da4c 143d 4cf8 ffba 9bc7 50bd ef61 3a3d
00000220: 3ef5 11bc 7f9f 25bd 8356 cdbd 82a1 44bd
00000230: 39be a33d 24a1 c0bd c4a5 dfbd cfc1 5a3d
00000240: eb54 1ebe d6a3 e0bc ab23 8bbd c55c 29bd
00000250: 6cb1 94bc 97cf 903d 16b8 36bd 3a4e 173d
00000260: 6afd 95bd c1e7 e93d 5bfc 2f3d 6fc2 3fbd
00000270: d16e 993d 4244 953d c35d 20bd 6a60 473d
00000280: 2674 8cbd e363 483d 7739 663d 5602 983d
00000290: 10fc 463d a154 c73d 72ea cf3d 5ed3 b83d
000002a0: 0dfc 203c 0ff5 52bd e6b6 96bd 466f 39bd
000002b0: 551b a33d caa8 9e3d 9ea7 0bbc 078a 973a
000002c0: 0cd2 86bd 6762 dd3b 90c7 4a3d ecf9 bdbc
000002d0: 8573 cd3b a721 9f3c caf4 aabd 93d4 dc3b
000002e0: 9867 0ebe de29 50bd e851 86bd 789f 03be
000002f0: 3d15 afbd 8346 42bd 6987 f83d 95fd a63a
00000300: 810f cd3c b0e8 e23d f9eb a83d cf59 9abd
00000310: 9cfc c83d a57d 6cbd 800b 803d cf67 8dbd
00000320: ddbc e0bd e8f6 c93d 728f b03d f249 ccbc
00000330: 3508 9a3d 9c54 0dbd 2d55 8d3a a38d c5bc
00000340: cb70 05bb 221d 4c3d 2994 debc f2b8 dfbd
00000350: 7e77 77bd 9910 833c 1dfd 50bd f091 5f3d
00000360: 3c1a 94bb e9f1 96bd 35db 223e cbd4 12bd
00000370: 8aca 833c cb6c 943d 5383 3e3c a1c7 d3bc
00000380: e820 8a3d 2707 8cbc 0b33 13bd 246f 2b3c
00000390: a069 82bd 2caf 683d d967 8a3d 3e9c 9cba
000003a0: f59e 873d 46a5 483d d1cd a2bd 7668 47bd
000003b0: 2965 a8bd 62ff 18bd bc59 d9bd 20b3 503c
000003c0: 894d de3b ccf2 4fbd 832f a7bd f07e 23bc
000003d0: 4749 7c3d 00d0 ef3d 764c 86bd 7e2d f4b8
000003e0: c94f a4bd edaf 893d dfd4 823d c4b4 bc3c
000003f0: 843b 3cbd 0c75 5a3d 7c96 5bbd 9f66 043d

mid_part.3.bias f4 [12]
0.07243247 0.061774526 -0.059455268 -0.0997381 0.052654266 0.039895695 -0.015661621 -0.022791475
0.07233608 0.029531915 -0.03489189 -0.04723043
00000000: 7a57 943d 4907 7d3d 5e87 73bd 7d43 ccbd
00000010: 00ac 573d ab69 233d cd4c 80bc 30b5 babc
00000020: f024 943d eaec f13c ccea 0ebd b274 41bd

mid_part.4.weight f4 [12, 12, 3, 3]
-0.06273999 -0.062836684 -0.006573145 -0.03711096 -0.003918109 0.02058189 -0.08677225 0.053998522
-0.064220876 0.03743538 -0.082847 -0.09190726 -0.122442745 -0.13160203 -0.07895421 -0.06022394
-0.093434095 -0.07526 -0.03034558 0.051855855 0.10452122 0.045308 -0.09991789 0.068942904
-0.043650102 0.010711972 0.06457789 0.12312952 0.02216267 0.10073184 0.052544333 -0.03391711
0.052940995 -0.05583762 -0.0131279165 0.031852406 0.1149871 0.039848007 -0.05830364 0.0004387721
-0.014830903 0.07340971 -0.14709136 -0.045519717 -0.021687705 -0.01429271 -0.046142247 -0.10130385
-0.058597058 -0.0030619649 -0.106215395 -0.107538834 -0.104624644 -0.10358889 -0.07150969 0.070502095
0.0839417 0.11438298 0.13152781 0.03156581 -0.03682436 0.10429782 0.0055670133 -0.01981703
-0.1857209 -0.04014418 -0.04317646 -0.060484447 -0.07957144 0.0019670608 0.061149113 -0.15031168
0.058855217 0.03206236 -0.10808811 -0.025625775 -0.021752149 0.061433047 0.0599918 -0.08756107
-0.07363371 0.0356522 -0.052388206 0.06572722 -0.040600672 -0.05997291 -0.01318472 -0.08883782
0.06315856 0.07022716 0.016815769 0.018984543 -0.13643183 0.086250946 0.078038715 0.05236542
0.033908337 0.08817113 -0.031319104 0.038463987 0.053514946 -0.06422222 0.006023963 -0.023421768
-0.013917163 0.09456896 0.0711341 -0.013487152 0.10998911 -0.010202691 0.026753848 -0.07925658
-0.020940473 0.08950697 0.051646184 0.06244943 -0.043224815 -0.00892621 0.06802726 -0.018929975
-0.002511862 -0.02278262 0.06354939 0.08858862 -0.0029696147 0.060624596 -0.027269663 -0.07858226
0.06282814 -0.040304594 0.061177142 0.020704256 -0.0693143 -0.01840241 -0.04755338 -0.061443128
-0.026004588 0.008553824 -0.030557916 0.08091069 0.005118119 0.08049305 0.06766032 -0.10477973
0.026291622 0.010908407 0.0931202 -0.103229135 0.008803821 0.131204 -0.057264946 -0.12753983
0.012314278 0.09508604 0.07956937 -0.053314604 0.09322486 -0.023909876 0.07465136 -0.06477524
-0.07951871 -0.0055194935 -0.08662703 -0.0025496501 0.0064796293 0.029356277 0.035698257 0.021167178
0.010450225 0.06407918 0.022549711 0.16263047 -0.12616679 0.017289838 0.08317256 -0.123847626
-0.004804562 0.029432548 -0.07907357 -0.010145196 0.07075971 0.09387448 -0.03835795 -0.062458884
0.013101572 -0.07169371 0.096602194 -0.03699904 -0.03485499 -0.012809444 0.032725256 -0.0704215
-0.049805753 0.039634775 0.09062515 0.037099723 -0.013377195 0.07432336 -0.09323168 -0.053999327
0.036431197 0.056050994 0.104131676 -0.0066562304 0.07496898 0.032463994 -0.05388889 -0.036326114
0.078488536 -0.032142747 0.053590037 0.084776774 0.08251758 -0.10572492 0.035915982 0.0938128
-0.044573877 -0.014902395 0.08553096 -0.037432887 0.08993046 0.011595722 -0.09091183 0.10061814
-0.022587718 0.037496183 -0.026854817 0.02098491 0.03895623 0.018083304 -0.072239146 0.08639604
-0.026774164 -0.016401859 -0.027895112 0.052481998 0.01686918 -0.0195532 0.020696266 -0.015608035
-0.044326484 0.09984199 0.021336362 -0.04209615 0.034091752 -0.064540915 -0.10061931 0.059515726
-0.0654508 0.0012102178 0.028538655 0.081541285 0.0729226 -0.04315827 -0.052951273 -0.06707329
00000000: d37d 80bd 85b0 80bd 8963 d7bb a901 18bd
00000010: 7b63 80bb 5a9b a83c a6b5 b1bd 8e2d 5d3d
00000020: 3c86 83bd d755 193d b0ab a9bd e039 bcbd
00000030: 43c3 fabd afc2 06be bfb2 a1bd 61ad 76bd
00000040: 605a bfbd ea21 9abd 4b97 f8bc ce66 543d
00000050: 390f d63d e294 393d c0a1 ccbd f031 8d3d
00000060: 73ca 32bd 4481 2f3c 6a41 843d 542b fc3d
00000070: 7d8e b53c 7f4c ce3d ba38 573d abec 0abd
00000080: a8d8 583d fdb5 64bd 7916 57bc ab77 023d
00000090: 5b7e eb3d aa37 233d cccf 6ebd ff0a e639
000000a0: 51fd 72bc d457 963d 1e9f 16be e272 3abd
000000b0: 6aaa b1bc f92b 6abc a7ff 3cbd 6578 cfbd
000000c0: 7803 70bd 3fab 48bb 7587 d9bd 523d dcbd
000000d0: 7245 d6bd 6926 d4bd ac73 92bd 6763 903d
000000e0: a0e9 ab3d a041 ea3d 3aaf 063e 274b 013d
000000f0: 24d5 16bd 189a d53d 7e6b b63b 5357 a2bc
00000100: 9f2d 3ebe 396e 24bd cdd9 30bd 8abe 77bd
00000110: 5af6 a2bd cee9 003b 7e77 7a3d 4eeb 19be
00000120: 2b12 713d d253 033d 4d5d ddbd 25ed d1bc
00000130: 9031 b2bc 38a1 7b3d f6b9 753d 3853 b3bd
00000140: 45cd 96bd 0b08 123d 0495 56bd fe9b 863d
00000150: e44c 26bd 27a6 75bd b904 58bc 9af0 b5bd
00000160: 4659 813d 42d3 8f3d 39c1 893c 7985 9b3c
00000170: c9b4 0bbe 56a4 b03d c3d2 9f3d 1f7d 563d
00000180: 78e3 0a3d 1193 b43d 7648 00bd 6a8c 1d3d
00000190: 7d32 5b3d f086 83bd aa64 c53b 02df bfbc
000001a0: d004 64bc 5fad c13d c1ae 913d 37f9 5cbc
000001b0: f841 e13d 3029 27bc e32a db3c 4651 a2bd
000001c0: 5b8b abbc 6e4f b73d f38a 533d f9ca 7f3d
000001d0: 810c 31bd 3d3f 12bc e051 8b3d 0913 9bbc
000001e0: 0d9e 24bb 9ea2 babc 2f26 823d f36d b53d
000001f0: de9d 42bb 7f51 783d a164 dfbc bcef a0bd
00000200: 0aac 803d 6e16 25bd e294 7a3d f99b a93c
00000210: a8f4 8dbd a7c0 96bc 55c7 42bd caab 7bbd
00000220: 9307 d5bc 5725 0c3c 9854 fabc 81b4 a53d
00000230: e5b5 a73b 8ad9 a43d 7e91 8a3d c196 d6bd
00000240: 8761 d73c 2db9 323c ceb5 be3d cc69 d3bd
00000250: e73d 103c 575a 063e a68e 6abd cd99 02be
00000260: d3c1 493c 78bc c23d 44f5 a23d 6a60 5abd
00000270: adec be3d a5de c3bc d0e2 983d e2a8 84bd
00000280: b5da a2bd dedc b4bb 8369 b1bd 0818 27bb
00000290: 1253 d43b 937c f03c 5638 123d ca66 ad3c
000002a0: 6c37 2b3c f23b 833d 2cba b83c 9a88 263e
000002b0: de31 01be 6ba3 8d3c 6056 aa3d d3a3 fdbd
000002c0: 966f 9dbb 871c f13c 53f1 a1bd 0938 26bc
000002d0: 78ea 903d 4341 c03d 3a1d 1dbd e3d4 7fbd
000002e0: faa7 563c 27d4 92bd 5fd7 c53d 4e8c 17bd
000002f0: 1bc4 0ebd b4de 51bc eb0a 063d 2639 90bd
00000300: 1e01 4cbd 1358 223d ae99 b93d e1f5 173d
00000310: 062c 5bbc d936 983d 40f0 bebd 662e 5dbd
00000320: e138 153d ba95 653d fd42 d53d 821c dabb
00000330: 5689 993d f7f8 043d 99ba 5cbd b1ca 14bd
00000340: 99be a03d 1da8 03bd 3a81 5b3d 729f ad3d
00000350: fafe a83d 4f86 d8bd a31c 133d ed20 c03d
00000360: 1993 36bd 2d29 74bc db2a af3d 3a53 19bd
00000370: 762d b83d fcfb 3d3c fb2f babd e210 ce3d
00000380: e109 b9bc 9995 193d a2fe dbbc 8ce8 ab3c
00000390: 9190 1f3d 7023 943c 1ef2 93bd 68f0 b03d
000003a0: 7e55 dbbc 315d 86bc 4a84 e4bc 5df7 563d
000003b0: 3c31 8a3c 082e a0bc 378b a93c d8b8 7fbc
000003c0: b08f 35bd f579 cc3d 98c9 ae3c 036d 2cbd
000003d0: cba3 0b3d 072e 84bd 7f11 cebd c3c6 733d
000003e0: 120b 86bd 2ca0 9e3a e6c9 e93c 1eff a63d
000003f0: 7258 953d bac6 30bd 6fe3 58bd b95d 89bd

mid_part.4.bias f4 [12]
0.018584285 0.036899775 -0.052098315 0.05404191 -0.07648473 -0.15801124 -0.038592923 -0.114117116
0.03252351 0.009031058 -0.021282343 0.058254328
00000000: 123e 983c 3824 173d 0b65 55bd 0d5b 5d3d
00000010: 07a4 9cbd b3cd 21be 9d13 1ebd 3cb6 e9bd
00000020: 5f37 053d 01f7 133c 4f58 aebc 179c 6e3d

mid_part.6.0.weight f4 [56, 12, 1, 1]
-0.27113828 -0.018939013 -0.29285705 -0.1746788 0.030679697 -0.2764623 -0.12844215 0.16096699
-0.021845914 -0.06698294 0.022905923 -0.18385348 -0.17930885 -0.03757252 0.17581728 0.17534372
-0.13694176 -0.27810004 0.06554876 0.17719555 -0.1709464 0.0778084 -0.016421001 0.013930606
-0.119080916 0.083642334 0.06619973 0.24544592 0.015647752 0.05330019 0.020943537 0.0741488
-0.2101438 -0.26889366 -0.052229334 -0.3157531 0.04597785 -0.1093477 -0.16462122 -0.22342722
-0.19414 -0.02636226 0.17954719 0.19806014 0.024131209 -0.12019094 -0.04265469 -0.078375824
0.27217403 0.11375168 -0.19242673 0.028682234 -0.018717747 0.17264397 0.13019322 0.07435859
-0.17860329 0.1519116 0.023249352 -0.07762916 -0.22492862 -0.20259212 0.070135996 0.17103346
0.017722046 -0.13623889 -0.2844124 0.1571741 0.28763056 -0.31737572 0.017500425 0.15703927
-0.063200645 -0.21618167 -0.080420576 -0.2424147 0.12128281 0.015988847 0.020083997 -0.20846337
-0.0564834 -0.14842446 0.031563066 0.18986586 0.025514822 -0.117647536 -0.019717408 0.15542917
-0.076233834 0.11712873 -0.15511931 0.15808536 -0.13386293 -0.26678073 -0.22064166 -0.14020348
0.027970783 -0.08508803 -0.025262248 -0.1955483 0.12293673 0.17927542 0.06970708 0.12437807
0.23887803 0.12325168 0.22231151 0.28703848 0.3075405 0.28079253 0.1895022 -0.14920717
-0.06569647 0.020979727 0.2621947 -0.14906622 -0.051997054 0.12215159 -0.21787487 0.1848722
0.23740001 -0.1840338 -0.1741461 0.030590665 -0.16228189 -0.014435721 -0.076987565 0.027578482
-0.21800521 -0.16291046 -0.036711395 -0.16189994 0.03189403 -0.17828833 -0.1460895 -0.036482893
0.08808796 0.02222068 -0.036993295 -0.14107022 0.014712022 -0.2887387 0.07287672 -0.082953684
-0.17850572 -0.053893458 0.14072347 -0.09113057 -0.07187273 0.008198266 -0.18390566 -0.12716748
0.13316013 0.10742248 0.06823273 0.19201472 -0.19145307 -0.11631995 -0.0011397301 -0.2046659
0.0020497828 0.17334786 -0.09473688 0.24140625 -0.2259332 -0.1522957 -0.20563449 0.18531512
0.20216478 -0.0037000314 0.14665008 -0.23924507 0.07153743 0.24051425 0.00057232607 0.23611328
0.104131535 -0.26992926 -0.003375151 0.19846526 -0.3153974 -0.022021504 -0.16284448 -0.20252453
-0.3166802 -0.15194803 0.070782125 0.052158434 -0.115760036 0.04951004 -0.0061224536 0.28171545
0.20442668 -0.10716636 -0.07473421 0.24403995 0.25661358 -0.1811601 0.13797295 -0.0249696
-0.22990735 -0.10277257 -0.08749062 0.11508416 0.27668357 0.12409994 -0.13311252 -0.19699137
0.27560937 0.267105 0.18996605 -0.13244444 -0.1171931 -0.14799282 -0.12467962 -0.09321285
-0.06426477 -0.07750374 0.30759028 0.23652934 0.22099277 -0.095141254 -0.1460682 -0.12594604
0.0062529654 0.05667733 0.11572595 0.019515838 -0.11083178 -0.10783028 -0.15839699 -0.022014529
0.17483816 0.24803054 -0.04227966 -0.06548867 0.15289995 -0.120588325 0.13912214 -0.12720506
0.15932494 -0.08806511 0.21905993 -0.35262343 0.12572335 -0.16252796 0.1240272 0.08866281
0.23451024 -0.123856 -0.20906955 -0.028012302 7.1381655e-06 0.23367082 0.121757515 -0.06916054
00000000: a3d2 8abe fd25 9bbc 5cf1 95be 00df 32be
00000010: fd53 fb3c 778c 8dbe 5786 03be 88d4 243e
00000020: 34f6 b2bc 5a2e 89bd 34a5 bb3c 1644 3cbe
00000030: bd9c 37be a5e5 19bd 7209 343e 4e8d 333e
00000040: 763a 0cbe 2163 8ebe 6e3e 863d c072 353e
00000050: 930c 2fbe 035a 9f3d 5685 86bc 323d 643c
00000060: b2e0 f3bd ac4c ab3d b993 873d 2d56 7b3e
00000070: b72f 803c 4d51 5a3d c891 ab3c 53db 973d
00000080: f02f 57be 6eac 89be 6dee 55bd 64aa a1be
00000090: 4553 3c3d b0f1 dfbd 7792 28be 1bca 64be
000000a0: a3cc 46be abf5 d7bc 38db 373e 47d0 4a3e
000000b0: d0ae c53c ab26 f6bd afb6 2ebd 8183 a0bd
000000c0: 655a 8b3e a4f6 e83d 830b 45be 01f7 ea3c
000000d0: f655 99bc 95c9 303e 5f51 053e 5149 983d
000000e0: c8e3 36be b78e 1b3e 6d75 be3c 09fc 9ebd
000000f0: b053 66be 4f74 4fbe 76a3 8f3d 6523 2f3e
00000100: d32d 913c 3582 0bbe 819e 91be 3ff2 203e
00000110: 5044 933e 127f a2be 0d5d 8f3c e7ce 203e
00000120: 576f 81bd ba5e 5dbe 8bb3 a4bd 8f3b 78be
00000130: 1f63 f83d 0bfb 823c 3287 a43c 6c77 55be
00000140: 235b 67bd 95fc 17be 4648 013d 326c 423e
00000150: 7604 d13c 31f1 f0bd 6786 a1bc d328 1f3e
00000160: 7c20 9cbd 30e1 ef3d 99d7 1ebe 21e1 213e
00000170: 5d13 09be 7c97 88be e3ef 61be 8091 0fbe
00000180: fc22 e53c a242 aebd c6f2 cebc d03d 48be
00000190: 41c6 fb3d fa93 373e 96c2 8e3d eeb9 fe3d
000001a0: 719c 743e 606b fc3d a1a5 633e b5f6 923e
000001b0: f375 9d3e 0ac4 8f3e dd0c 423e c4c9 18be
000001c0: df8b 86bd addd ab3c 623e 863e d1a4 18be
000001d0: ddfa 54bd 9d2a fa3d 971a 5fbe 234f 3d3e
000001e0: fd18 733e 5b73 3cbe 5b53 32be 4699 fa3c
000001f0: 392d 26be cd83 6cbc a8ab 9dbd 45ec e13c
00000200: c23c 5fbe 00d2 26be b05e 16bd 19c9 25be
00000210: 50a3 023d 3791 36be 7c98 15be 166f 15bd
00000220: 7667 b43d 2508 b63c 4886 17bd b674 10be
00000230: b10a 713c 8fd5 93be 6440 953d 9fe3 a9bd
00000240: 34ca 36be 63bf 5cbd d019 103e aaa2 babd
00000250: 0332 93bd 0552 063c c451 3cbe 3138 02be
00000260: 215b 083e 5100 dc3d 9abd 8b3d 829f 443e
00000270: 460c 44be 2739 eebd ff62 95ba f093 51be
00000280: a655 063b 1a82 313e 6905 c2bd 3333 773e
00000290: 085b 67be 67f3 1bbe d991 52be 3fc3 3d3e
000002a0: 4904 4f3e 3a7c 72bb 702b 163e a9fc 74be
000002b0: 3782 923d 5e49 763e 2708 163a aec7 713e
000002c0: ea42 d53d 2b34 8abe a331 5dbb 7a3a 4b3e
000002d0: c57b a1be 7166 b4bc b4c0 26be 9762 4fbe
000002e0: e823 a2be 4498 1bbe 38f6 903d 15a4 553d
000002f0: 9913 edbd 0acb 4a3d dd9e c8bb 023d 903e
00000300: 3a55 513e 097a dbbd 400e 99bd 9ce5 793e
00000310: db62 833e 0982 39be c848 0d3e 0c8d ccbc
00000320: d56c 6bbe 6d7a d2bd 482e b3bd 3eb1 eb3d
00000330: 78a9 8d3e 1c28 fe3d a64e 08be 1bb8 49be
00000340: ac1c 8d3e fdc1 883e 7686 423e 849f 07be
00000350: f002 f0bd 6e8b 17be 0758 ffbd 61e6 bebd
00000360: 3f9d 83bd 48ba 9ebd 797c 9d3e bf34 723e
00000370: ee4b 623e 6bd9 c2bd e792 15be 00f8 00be
00000380: ade5 cc3b 7d26 683d ba01 ed3d aedf 9f3c
00000390: c6fb e2bd 1fd6 dcbd d232 22be d057 b4bc
000003a0: c608 333e b8fb 7d3e 702d 2dbd ec1e 86bd
000003b0: ce91 1c3e 03f7 f6bd 0976 0e3e 0b42 02be
000003c0: 1426 233e 7b5b b4bd 3f51 603e 0f8b b4be
000003d0: 9fbd 003e bb6d 26be f901 fe3d d994 b53d
000003e0: 7423 703e 37a8 fdbd 5416 56be 0e7a e5bc
000003f0: 6084 ef36 6747 6f3e 015c f93d 0ba4 8dbd

mid_part.6.0.bias f4 [56]
-0.2227507 -0.011018705 -0.17870025 -0.02576574 -0.10978425 -0.09399322 -0.20978689 0.19666587
-0.06210086 0.060486205 -0.18538797 -0.21117754 -0.19874221 0.22708839 0.01732147 0.105338745
0.07441607 0.19700244 -0.1464543 0.16397657 -0.03671995 0.21920341 0.22280498 0.14813994
-0.20346242 -0.13197118 0.010223559 -0.2213893 -0.063860275 -0.04902513 0.065162726 0.019711811
0.103248015 -0.077480085 -0.07214188 -0.089061 0.1803384 -0.24022244 -0.027162585 -0.22376023
-0.009086998 -0.18299288 0.05741045 0.11727075 0.19320273 -0.14261365 -0.021292545 0.017582295
0.09436154 -0.013513193 0.00032476132 0.10121624 -0.10731253 -0.27639234 -0.17712946 0.13079683
00000000: c218 64be cc87 34bc 33fd 36be ac12 d3bc
00000010: 91d6 e0bd 847f c0bd 60d2 56be c762 493e
00000020: 795d 7ebd 62c0 773d 58d6 3dbe ed3e 58be
00000030: 1483 4bbe dc89 683e c1e5 8d3c d7bb d73d
00000040: 7467 983d 02bb 493e 1ef8 15be 79e9 273e
00000050: a967 16bd dc76 603e fd26 643e ffb1 173e
00000060: 7458 50be 7423 07be b780 273c e0b3 62be
00000070: 2dc9 82bd 93ce 48bd 0974 853d aa7a a13c
00000080: b273 d33d e1ad 9ebd 1fbf 93bd 9d65 b6bd
00000090: a1aa 383e dffc 75be 1284 debc 6721 65be
000000a0: a2e1 14bc 7c62 3bbe 3827 6b3d a62b f03d
000000b0: f0d6 453e 5009 12be b46d aebc bf08 903c
000000c0: a040 c13d 7066 5dbc ba44 aa39 764a cf3d
000000d0: acc6 dbbd 4c83 8dbe 6d61 35be 9bef 053e
