checkpoints/model_up_4_epoch_50.pth (torch_old, 50087 bytes, 15 tensors)

first_part.0.weight f4 [56, 1, 5, 5]
0	0xbd011902	-0.03151799
1	0x3d57c67a	0.052679516
2	0xbd7acc48	-0.061229974
3	0x3e025fb0	0.12731814
4	0xbddf7f6d	-0.109129764
5	0x3e3f83c3	0.18702607
6	0xbdfc5e03	-0.12322619
7	0xbe22ead2	-0.1590989
8	0xbde196fc	-0.11015126
9	0x3e0d9df8	0.13829792
10	0xbd764cc9	-0.06013182
11	0x3d494c3e	0.049144976
12	0xbe677d68	-0.22606432
13	0xbe15c21e	-0.14624831
14	0xbd45db90	-0.048305094
15	0xbc957da6	-0.01824839
16	0xbe2823fe	-0.1641998
17	0x3dd0bb40	0.10191965
18	0xbd1f4620	-0.038885236
19	0x3dd759b3	0.10515156
20	0x3e3138e3	0.17306857
21	0x3d6419c1	0.055688623
22	0x3d86c3a1	0.06580282
23	0x3e67e536	0.22646031
24	0xbd3a42d1	-0.045473877
25	0x3cd13a6e	0.025540557
26	0xbdfaa867	-0.122391514
27	0x3de9fb1b	0.11424848
28	0x3e19a83d	0.15005584
29	0xbe4cae79	-0.19988431
30	0x3e2e9253	0.17048006
31	0x3de8d85f	0.113693945
32	0x3e062804	0.13101202
33	0x3df98a92	0.12184633
34	0x3e29d675	0.16585715
35	0xbbaa7394	-0.0052017663
36	0xbe35d8fb	-0.17758553
37	0xbd603728	-0.0547401
38	0xbdbd626e	-0.092472896
39	0x3c811025	0.015754769
40	0xbc9adcf1	-0.018904181
41	0xbe065fc7	-0.13122474
42	0xbd6f7a63	-0.058466326
43	0x3e6abb8f	0.2292311
44	0xbc27b698	-0.010236405
45	0x3ca5d85c	0.02024477
46	0x38d41961	0.00010113675
47	0x3d4882ee	0.04895299
48	0x3e4e1dfb	0.20128624
49	0x3dcab52c	0.09897837
50	0x3dbcd229	0.09219772
51	0x3d5e8798	0.05432853
52	0x3d8270d1	0.06369174
53	0x3dd010c1	0.101594456
54	0xbb6c2161	-0.0036030638
55	0xbe34f5e3	-0.17671923
56	0xbe0b1e07	-0.13585673
57	0x3e2360d6	0.15954909
58	0x3d145273	0.036211442
59	0xbe0411a3	-0.12897353
60	0x3c41322f	0.01179175
61	0x3ddfc6d1	0.10926593
62	0xbe8a6059	-0.27026632
63	0xbe2d2230	-0.16907573
64	0xbd869a0f	-0.06572353
65	0xbc41e6c0	-0.0118348
66	0xbdae31f1	-0.08505619
67	0xbd92997e	-0.071581826
68	0xbe5d67b1	-0.21621586
69	0x3de1ebf4	0.110313326
70	0x3e27ed25	0.16399057
71	0x3dc41b46	0.095755145
72	0xbe1efe1a	-0.1552662
73	0xbe1e22d4	-0.15442973
74	0x3dd3f92c	0.1035026
75	0x3cf98295	0.030457774
76	0x3e0c6315	0.13709672
77	0xbe24c12b	-0.16089313
78	0xbc9e2148	-0.01930298
79	0x3e365a9b	0.17808
80	0x3dadc338	0.08484501
81	0xbd07e6f7	-0.03317925
82	0xbd425e2f	-0.0474531
83	0xbdb84a89	-0.089985915
84	0xbe1ed71a	-0.15511742
85	0xbdfb7da9	-0.12279827
86	0xbe1a09aa	-0.15042749
87	0x3e0ed243	0.13947396
88	0x3e024106	0.12720117
89	0x3d0ffa02	0.035150535
90	0xbe6a43ca	-0.22877422
91	0x3e1fe255	0.15613683
92	0x3d8b6d41	0.06807948
93	0x3dd64cb1	0.104638465
94	0xbe167d97	-0.14696346
95	0xbcc6f7b5	-0.024288038
96	0x3e38bcab	0.18040721
97	0x3df59c35	0.11992685
98	0x3df1dca2	0.118096605
99	0xbd58aaca	-0.052897252
100	0x3e13c23f	0.14429568
101	0xbe1d162c	-0.15340489
102	0x3cd133e3	0.025537437
103	0xbde69140	-0.11258173
104	0xbd65703b	-0.056015234
105	0xbd4892ea	-0.048968233
106	0x3cfafbfa	0.03063773
107	0x3e5ab44f	0.21357845
108	0x3dfe757a	0.124247506
109	0xbb147ad7	-0.0022656226
110	0x3e2096e5	0.15682562
111	0xbd90e3a6	-0.070746705
112	0x3e1ac170	0.15112853
113	0x3cb42a17	0.021992726
114	0xbce1b8c1	-0.027553918
115	0x3cf1d9e9	0.029522853
116	0xbe046075	-0.1292742
117	0x3d5e576d	0.054282594
118	0x3db555c1	0.08854247
119	0x3e2d2bef	0.1691129
120	0xbd942c08	-0.07234961
121	0x3da2f102	0.07956125
122	0x3e597ec4	0.21239763
123	0xbdace35f	-0.08441805
124	0x3e32c811	0.17459132
125	0xba254a9b	-0.00063053676
126	0x3e4c6445	0.19960125
127	0x3e0b2628	0.13588774
128	0x3dce20e1	0.10064865
129	0x3e98f979	0.29877833
130	0xbc9d8f12	-0.01923326
131	0x3d9bd39b	0.0760872
132	0xbc0d649f	-0.008629947
133	0xbe264a8d	-0.16239376
134	0xbd83b764	-0.06431463
135	0xbddba0ba	-0.107240155
136	0x3dde510c	0.10855302
137	0x3db9a2ae	0.09064232
138	0x3e26f0b3	0.16302757
139	0xbdb497f7	-0.088180475
140	0xbc8349fa	-0.016026486
141	0xbd82a7de	-0.063796744
142	0x3cc4d8cc	0.024029158
143	0x3e492d1b	0.19646113
144	0xbd31151e	-0.04323303
145	0xbd56ea83	-0.05246974
146	0xbc6265f5	-0.013818254
147	0x3d4bae48	0.049726754
148	0xbe16d011	-0.14727809
149	0xbddc7c70	-0.10765922
150	0xbe12a0c6	-0.14319143
151	0xbd75e83c	-0.06003593
152	0x3ce30ce0	0.0277161
153	0x3e02e5e0	0.12783003
154	0x3d75bd3f	0.059994932
155	0x3e1d28a0	0.15347528
156	0xbdeba677	-0.1150636
157	0x3d0ec597	0.034856405
158	0xbe23bedd	-0.15990777
159	0x3dbeb499	0.0931179
160	0x3d644311	0.055728022
161	0x3e6ae298	0.22938001
162	0xbdc1604c	-0.09442195
163	0x3e61bc27	0.2204443
164	0x3e2eb759	0.17062129
165	0x3e26430c	0.16236514
166	0x3d84870b	0.0647107
167	0x3e6087ca	0.219268
168	0x3e1c655b	0.15273039
169	0x3e08fcc1	0.13377668
170	0xbce694b4	-0.028147079
171	0xbe10227b	-0.14075653
172	0x3c7f5e47	0.015586442
173	0x3cf84656	0.030306976
174	0xbe1e91cb	-0.15485303
175	0xbddcbd62	-0.107783094
176	0xbe3cdf3b	-0.1844453
177	0xbd874887	-0.0660563
178	0x3e33458d	0.17507
179	0x3d14e56e	0.036351614
180	0xbc4bb004	-0.012432102
181	0x3cad21cd	0.021134282
182	0x3e0a4010	0.13501
183	0xbe47483e	-0.19461152
184	0xbe2b2b57	-0.16715752
185	0xbd3ddbf5	-0.046352345
186	0xbd94e773	-0.07270708
187	0x3e1b50f9	0.15167607
188	0x3e172946	0.14761838
189	0xbe48bf48	-0.19604218
190	0xbe0a16bc	-0.13485235
191	0xbe138be0	-0.14408827
192	0x3e0876a2	0.13326505
193	0x3e4587ff	0.1929016
194	0xbe0d3ca5	-0.13792665
195	0xbd672d03	-0.05643941
196	0x3de12eff	0.10995292
197	0xbdb6ec4a	-0.08931787
198	0x3e48a2f5	0.19593413
199	0x3d8617db	0.06547519
200	0xbcea8e24	-0.028632231
201	0x3cc4d55e	0.024027523
202	0x3d7d0725	0.06177439
203	0xbd8c63b7	-0.068549566
204	0xbe12588c	-0.1429159
205	0x3d2c5b9c	0.042079553
206	0x3cbc6886	0.02299906
207	0x3b851252	0.004061022
208	0xbbf6a23e	-0.007526665
209	0x3e228479	0.15870847
210	0xbcbacab1	-0.022801729
211	0xbcbf7bd4	-0.023374476
212	0x3d2d4084	0.042297855
213	0xbe00e329	-0.12586655
214	0x3db2cbd5	0.08730284
215	0xbc83732a	-0.016046125
216	0x3db8bbfe	0.09020232
217	0xbe12365a	-0.14278546
218	0x39b40137	0.0003433318
219	0x3d45201c	0.048126325
220	0xbde6a7ab	-0.11262449
221	0xbe0057a5	-0.12533434
222	0x3db3c9b0	0.08778703
223	0xbd077c7c	-0.033077702
224	0x3e266e99	0.16253127
225	0xbe34abf9	-0.17643727
226	0xbdbc0281	-0.09180165
227	0xbe2d4fe1	-0.16925003
228	0x3db6b0ad	0.08920417
229	0x3c442127	0.011970795
230	0xbd006ecc	-0.031355664
231	0xbd3cb0ab	-0.04606692
232	0xbe367536	-0.1781815
233	0x3d3c42ae	0.04596203
234	0x3c3d1c94	0.011542458
235	0xbe103632	-0.14083174
236	0x3d46ab8e	0.04850345
237	0xbd14a476	-0.036289655
238	0xbe5c85a0	-0.21535349
239	0x3dd10b1d	0.10207198
240	0x3deb3598	0.114848316
241	0xbd765a0a	-0.06014446
242	0xbe2e7d9b	-0.17040102
243	0xbb891afb	-0.0041841245
244	0x3e1c5888	0.15268147
245	0x3e57ae2e	0.21062538
246	0xbe127721	-0.14303257
247	0xbdc6f228	-0.097141564
248	0x3e2c1ab8	0.16807067
249	0x3df35b63	0.11882665
250	0x3ded5918	0.11589259
251	0xbdc110b6	-0.094270155
252	0x3e43f9a7	0.19138204
253	0xbe21da1c	-0.15805858
254	0xbca78d2a	-0.020453054
255	0x3b9906a8	0.004669983

first_part.0.bias f4 [56]
0	0x3e5e5851	0.21713378
1	0x3d04b0c1	0.03239513
2	0xbdb5f02b	-0.08883699
3	0x3d97fecf	0.07421648
4	0xbe20cd42	-0.157033
5	0xbca152b5	-0.019692758
6	0x3e042f11	0.1290858
7	0x3e27a5d6	0.16371855
8	0xbe0ff08d	-0.14056607
9	0xbd9d3f39	-0.076780744
10	0xbd542631	-0.051794235
11	0xbe1be37e	-0.152235
12	0x3daefd7f	0.08544444
13	0x3d22e699	0.039770696
14	0x3d246490	0.040134966
15	0x3e1423dc	0.14466804
16	0xbda55ba9	-0.080741234
17	0x3dbcb8be	0.09214924
18	0x3d61beaa	0.055113472
19	0xbe0a7622	-0.13521627
20	0xbdc992e6	-0.09842472
21	0xbdfaa25e	-0.12238
22	0x3ddc61f1	0.10760868
23	0xbe168aa1	-0.1470132
24	0xbe378338	-0.1792115
25	0xbd6985a1	-0.057012204
26	0xbdb3b58d	-0.087748624
27	0xbd8cced0	-0.06875384
28	0xbe0fa56a	-0.14027944
29	0x3e51650a	0.204487
30	0x3e44959e	0.191977
31	0xbe3a2edf	-0.18181942
32	0xbdd616e4	-0.10453585
33	0x3d3193d6	0.043353878
34	0xbe2ab023	-0.16668753
35	0xbda3d3bb	-0.07999369
36	0xbdc85a97	-0.09782904
37	0xbd2a7535	-0.041615684
38	0x3e51a56d	0.20473261
39	0x3e28a507	0.16469203
40	0xbe32a454	-0.17445499
41	0xbe3f2eed	-0.18670245
42	0xbd063bea	-0.032771982
43	0x3dac217c	0.08404824
44	0xbe12dae3	-0.14341311
45	0x3e16a575	0.14711554
46	0x3b2410af	0.0025034358
47	0x3dc0e443	0.094185375
48	0x3df5f5cd	0.120097734
49	0x3e03c0e5	0.12866552
50	0x3e00c46e	0.12574932
51	0x3e36ae4d	0.17839928
52	0xbc78aa57	-0.015177331
53	0xbdb32acc	-0.08748397
54	0x3db4a402	0.088203445
55	0x3e190cae	0.14946243

mid_part.0.0.weight f4 [12, 56, 1, 1]
0	0xbd689767	-0.056785014
1	0x3dd71d5d	0.105036475
2	0x3dc8b5e6	0.098003194
3	0x3d3f31da	0.0466784
4	0x3dd2f899	0.103013225
5	0x3c905972	0.017620776
6	0x3d719399	0.05897865
7	0xbdbdc5d9	-0.09266252
8	0x3d67219c	0.056428537
9	0x3ca00c75	0.01953719
10	0x3d3a7c4c	0.045528695
11	0x3d5ef69a	0.054434396
12	0xbd867f59	-0.065672584
13	0x3dfc912c	0.12332377
14	0x3dfd3264	0.12363127
15	0xbda42439	-0.080147214
16	0xbd5c2011	-0.05374152
17	0x3d872a3f	0.06599855
18	0x3d811161	0.06302143
19	0xbd5a3a46	-0.05327823
20	0x3c403858	0.011732183
21	0xbe0b4747	-0.13601409
22	0xbdc32547	-0.095285945
23	0x3d148839	0.036262725
24	0x3defbe34	0.117062
25	0x3a89168f	0.0010458993
26	0x3d0c106b	0.034195345
27	0x3d90c639	0.07069058
28	0xbda06dcb	-0.07833441
29	0x3ca43310	0.02004388
30	0x3dcaea90	0.099080205
31	0x3d65b744	0.05608298
32	0x3d00909e	0.031387918
33	0xbd804cc8	-0.06264645
34	0xbbdb0df2	-0.006685012
35	0x3da01e53	0.07818284
36	0x3db8c08a	0.09021099
37	0xbdf74fa5	-0.12075738
38	0xbc8c4b4e	-0.017125752
39	0xbde5b8e1	-0.112169035
40	0xbd7dfe6f	-0.062010225
41	0x3d102f78	0.03520152
42	0xbc808eda	-0.015693117
43	0xbd46b525	-0.048512597
44	0xbe004561	-0.12526466
45	0x3d8a9eff	0.06768607
46	0x3d6b4194	0.057435587
47	0x3c61f685	0.013791685
48	0x3cf9cb4a	0.030492444
49	0x3d91c7be	0.07118176
50	0xbcde15fc	-0.027110092
51	0x3d8cd0be	0.06875752
52	0xbe776ad7	-0.2416185
53	0xbe00c455	-0.12574895
54	0xbdfcb2e4	-0.12338808
55	0x3adb22ac	0.0016718707
56	0xbe353b15	-0.1769832
57	0x3bff73ad	0.007795772
58	0xbca6372d	-0.020289982
59	0xbdd8fcc5	-0.10595087
60	0x3e1cb382	0.15302852
61	0xbc83f653	-0.016108667
62	0x3de0f677	0.109845094
63	0x3df56c7c	0.119835824
64	0xbd54d563	-0.051961314
65	0xbd8868b5	-0.06660596
66	0x3e163568	0.1466881
67	0x3cd91943	0.026501304
68	0x3dde5b1a	0.1085722
69	0xbbf2568c	-0.007395571
70	0x3db8e853	0.09028687
71	0xbe107f5c	-0.14111084
72	0x3992e704	0.0002801941
73	0x3da27e85	0.07934288
74	0xbcbfa4c7	-0.023394002
75	0xbdf6e332	-0.12055053
76	0x3c560d01	0.013064624
77	0x3d13947b	0.036030274
78	0x3c23be3b	0.009994085
79	0x3d29902c	0.04139726
80	0x3d6eb52e	0.058278255
81	0xbd9ec827	-0.0775302
82	0x3c59d903	0.0132963685
83	0xbde7df6e	-0.11321913
84	0x3d5e6ec7	0.054304864
85	0xbdf34bdb	-0.11879703
86	0xbd9e53c6	-0.07730822
87	0x3cd1b62e	0.025599565
88	0x3db227be	0.086989865
89	0x3de02b86	0.109458014
90	0xbdb29b91	-0.08721078
91	0xbe07c74c	-0.1325962
92	0x3dafa42b	0.085762344
93	0xbda6031d	-0.081060626
94	0xbe085dee	-0.13317081
95	0x3c96125b	0.0183193
96	0x3df84ced	0.121240474
97	0x3ce96a22	0.02849299
98	0xbc006a09	-0.007837781
99	0xbe076936	-0.13223729
100	0x3e0d31fb	0.13788597
101	0x3dbe2c69	0.09285814
102	0x3dfc12bf	0.12308263
103	0x3db800a0	0.08984494
104	0xbe0540f1	-0.13013054
105	0xbe025951	-0.12729384
106	0xbcf3f49c	-0.029779725
107	0x3d3e0c9d	0.046398748
108	0xbdd6c943	-0.104876064
109	0x3dd5a003	0.104309104
110	0xbd4d48d7	-0.050118294
111	0x3a3b2e2d	0.00071403646
112	0xbcfb27db	-0.030658653
113	0x3dc8a53a	0.097971395
114	0xb9b78a87	-0.0003500769
115	0x3d00d345	0.031451482
116	0x3d391259	0.045183513
117	0x3cfd6bc1	0.03093517
118	0xbcf1da99	-0.02952318
119	0x3cd0864e	0.025454666
120	0x3d029a91	0.031885687
121	0xbdfe3ec3	-0.124143146
122	0x3c9296dd	0.017894203
123	0xbdec3be5	-0.115348615
124	0xbdfdd608	-0.12394339
125	0xbbb6a08e	-0.005573339
126	0x3cfed709	0.031108396
127	0xbbe85fef	-0.0070915143
128	0xbc947d04	-0.018126018
129	0xbd5fca6b	-0.0546364
130	0xbd1985b9	-0.037481043
131	0x3a9fcdb9	0.0012192047
132	0xbdb526b5	-0.088452734
133	0x3d32acd7	0.043621864
134	0x3d61a66b	0.05509035
135	0xbcd019fa	-0.025403012
136	0xba685dc2	-0.00088640687
137	0x3d11b374	0.03557153
138	0x3e1ec532	0.15504912
139	0xbd00d5ab	-0.03145377
140	0xbde9653a	-0.113962606
141	0xbe0580f0	-0.13037467
142	0xbd0d1efa	-0.03445337
143	0xbe0041d2	-0.12525108
144	0xbdd71ebb	-0.10503908
145	0xbd947986	-0.07249741
146	0xbd16538d	-0.036700774
147	0xbc84c64e	-0.01620784
148	0x3c56cbc6	0.013110107
149	0x3dabeb73	0.08394518
150	0x3e0c85f1	0.1372297
151	0xbd2dbf0c	-0.042418525
152	0xbdd82074	-0.10553065
153	0x3e003ca0	0.12523127
154	0x3dfc8fe5	0.12332133
155	0x3e024222	0.1272054
156	0x3d69b0d4	0.057053402
157	0x3db2cffb	0.087310754
158	0x3cef1c1c	0.029188208
159	0xbdb30e6d	-0.08742986
160	0xbe45a37f	-0.1930065
161	0xbdbb2373	-0.09137621
162	0xbb8a69e7	-0.0042240503
163	0xbd8772b6	-0.06613676
164	0xbd3c6e5f	-0.046003696
165	0x3da29640	0.07938814
166	0xbdfa63ba	-0.122260526
167	0x3cb5d79f	0.022197543
168	0x3e2c3516	0.16817126
169	0x3e0829c8	0.13297188
170	0xbb8eec84	-0.004361691
171	0xbd1f778c	-0.03893237
172	0xbd54cc10	-0.05195242
173	0x3d3b533c	0.045733675
174	0xbd8aa54d	-0.0676981
175	0x3e278032	0.16357496
176	0xbc479d78	-0.01218354
177	0xbd4dccb6	-0.050244056
178	0xbdac7a44	-0.08421758
179	0xbd8885a4	-0.06666115
180	0xbdb70dcd	-0.08938179
181	0xbdbd0ff8	-0.092315614
182	0xbe0b979d	-0.13632055
183	0x3da30031	0.07959021
184	0xbd5b8f4c	-0.053603455
185	0x3d08b415	0.033374865
186	0xbcc8e0fe	-0.024521347
187	0xbda9b187	-0.08285814
188	0xbdb0684b	-0.08613642
189	0xbc150ba0	-0.00909701
190	0xbdca60a7	-0.09881716
191	0xbdaaf9d1	-0.0834843
192	0x3c4635b3	0.012097764
193	0xbd27932f	-0.04091185
194	0x3d95f992	0.073229924
195	0x3de93a9e	0.113881335
196	0x3db4888e	0.08815108
197	0x3e00dd01	0.12584306
198	0xbd2ac0fa	-0.041687943
199	0x3d479e24	0.0487348
200	0x396240ee	0.00021577228
201	0x3e3a4070	0.18188643
202	0xbe21094b	-0.15726201
203	0xbd581ffd	-0.05276488
204	0x3d84f049	0.06491143
205	0x3d52f10f	0.051499423
206	0xbdf316e2	-0.11869599
207	0x3e16274d	0.1466343
208	0x3dd33772	0.1031331
209	0x3de8d5c7	0.113689
210	0xbdd693c8	-0.10477406
211	0xbcb108d1	-0.02161065
212	0x3c9f2c8f	0.019430427
213	0x3dfcedca	0.12350042
214	0x3da79d1f	0.08184265
215	0xbde177cf	-0.1100918
216	0x3e01fcad	0.12694044
217	0xbb983a0d	-0.004645592
218	0xbd317387	-0.043323066
219	0x3de56ad9	0.1120202
220	0x3e20bcf4	0.1569708
221	0xbbbadc67	-0.0057025435
222	0xbd10201b	-0.03518687
223	0x3e02ef00	0.12786484
224	0xbd9804be	-0.074227795
225	0xbc939c1a	-0.018018771
226	0xbd8055b1	-0.06266344
227	0xbdc774c3	-0.097390674
228	0xbb73395c	-0.0037113046
229	0x3ca291c6	0.0198449
230	0x3d08a045	0.03335597
231	0xbd7a3421	-0.06108487
232	0x3dcd80a9	0.100343056
233	0xbd14f2e9	-0.03636447
234	0xbdbf48b8	-0.09340042
235	0xbd1cd380	-0.03828764
236	0xbd47e516	-0.048802458
237	0x3d3801b2	0.04492349
238	0x3e025bb9	0.12730302
239	0xbc5355cc	-0.012898874
240	0x3e132cf2	0.14372614
241	0x3e253dca	0.16136852
242	0x3bf3bd26	0.0074383197
243	0x3d97be00	0.074092865
244	0x3d3fd949	0.04683808
245	0x3d56fae3	0.052485358
246	0x3e17b385	0.14814575
247	0xbd56b7d7	-0.052421417
248	0xbe05ab20	-0.1305356
249	0xbdc121ab	-0.0943025
250	0x3e04a320	0.12952852
251	0xbe07b61d	-0.13253064
252	0x3d9ec011	0.077514775
253	0xbd35e86a	-0.0444111
254	0xbdfdb8f9	-0.12388796
255	0xbd54f137	-0.051987853

mid_part.0.0.bias f4 [12]
0	0xbe0b577a	-0.13607588
1	0x3d39ce7c	0.045362934
2	0xbcdafc5c	-0.026731662
3	0x3d2e3c73	0.042538118
4	0x3ddfb6c7	0.10923534
5	0xbc958803	-0.018253332
6	0x3c345426	0.011006391
7	0xbdb4d585	-0.08829788
8	0x3d2cfd9a	0.04223404
9	0xbcadc374	-0.021211363
10	0xbcd6927f	-0.026192902
11	0xbb9aac29	-0.00472023

mid_part.1.weight f4 [12, 12, 3, 3]
0	0xbd4b0de1	-0.049573783
1	0xbb9ddcf8	-0.0048176013
2	0x3d3b80e9	0.045777235
3	0x3d7d8ac0	0.0618999
4	0x3da662fe	0.0812435
5	0xbde72d93	-0.112879895
6	0xbe00b347	-0.12568389
7	0x3d57ea37	0.0527136
8	0x3daba85f	0.083817236
9	0x3db63e45	0.08898596
10	0xbd304357	-0.04303297
11	0xbba225a8	-0.0049483366
12	0x3d67c370	0.056582868
13	0xbda6876b	-0.08131298
14	0xbdab9cd5	-0.08379523
15	0xbbe99f13	-0.007129559
16	0x3d33edc0	0.043927908
17	0xbd231061	-0.039810542
18	0x3c9af04f	0.018913416
19	0x3bbef7d6	0.005827884
20	0xbd009449	-0.031391416
21	0x3bb1a823	0.005421655
22	0x3ca36736	0.019946676
23	0x3db4ba8a	0.08824642
24	0xbe1e95b7	-0.15486799
25	0xbdcfe38b	-0.10150822
26	0xbdfdf7af	-0.124007575
27	0xbdb51efe	-0.08843802
28	0xbc155eaf	-0.009116813
29	0x3d936220	0.0719645
30	0xbdac31e5	-0.08407954
31	0xbc907299	-0.01763277
32	0x3e4cc2ca	0.19996181
33	0x3e50fc90	0.20408845
34	0x3ddef14b	0.10885867
35	0xbe05859a	-0.13039246
36	0x3dc8abbd	0.097983815
37	0xbd6d248b	-0.05789618
38	0x3e045092	0.1292136
39	0x3d1a684a	0.037697114
40	0xbe0f62ca	-0.14002529
41	0xbd1263c3	-0.03573967
42	0x3d13a1cc	0.036042973
43	0x3b50d3d4	0.003186454
44	0xbdc48114	-0.09594932
45	0x3e3de9b0	0.18546176
46	0x3c96407b	0.018341294
47	0x3dd3f56f	0.10349547
48	0xbc7566b3	-0.014978099
49	0xbe58b878	-0.21164119
50	0xbe03c8ea	-0.12869611
51	0x3c984b96	0.01859073
52	0x3dbfd000	0.09365845
53	0xbd48c43c	-0.04901527
54	0xbdb13125	-0.08651952
55	0xbda96f60	-0.08273196
56	0xbd28ec29	-0.041240845
57	0x3dc855e4	0.09782007
58	0xbd80c207	-0.06287008
59	0xbdd2de96	-0.10296361
60	0xbd95a825	-0.07307462
61	0x3dca0601	0.098644264
62	0x3d00f95f	0.03148782
63	0x3c00f86d	0.007871729
64	0x3b85414c	0.004066622
65	0x3dfaade6	0.122402
66	0x3d78722c	0.060655758
67	0xbe463699	-0.19356765
68	0xbc902b62	-0.017598812
69	0x3d09e7a7	0.033668187
70	0x3d0f3f6a	0.034972586
71	0x3ce3b4a7	0.027796103
72	0xbd7dadf2	-0.061933465
73	0xbdcf655d	-0.101267554
74	0xbd63e572	-0.055638738
75	0x3da3359a	0.07969208
76	0x3da9776b	0.0827473
77	0x3cc4bcd8	0.024015829
78	0x3c57aaa7	0.013163245
79	0xbbc33f52	-0.005958476
80	0x3dbffb81	0.093741424
81	0xbda862ed	-0.082219936
82	0xbdd23acf	-0.10265123
83	0x3d25a14f	0.04043704
84	0xbdcde476	-0.10053341
85	0xbd51c0bc	-0.051209196
86	0x3d3d7933	0.046258163
87	0x3c01c743	0.007921043
88	0x3baa2bfe	0.0051932326
89	0x3d8da1e5	0.069156446
90	0x3e6ad48c	0.22932643
91	0x3db29e3e	0.087215886
92	0xbe78b308	-0.24287045
93	0xbdab188d	-0.08354292
94	0x3dda382c	0.10655245
95	0xbe46fd13	-0.19432478
96	0xbe8f1af7	-0.2795026
97	0x3e024199	0.12720336
98	0x3d09829d	0.03357183
99	0xbd72309d	-0.059128392
100	0xbe7fd01e	-0.24981734
101	0x3e1d6c5d	0.15373369
102	0x3dbfe259	0.09369344
103	0x3d2a0133	0.04150505
104	0xbd35fc5e	-0.04443013
105	0x3e8f19fd	0.27949515
106	0x3e80c16c	0.2514757
107	0x3e7a9d49	0.24474062
108	0xbc41ca78	-0.0118280575
109	0x3df81860	0.12114024
110	0x3de46e52	0.111538544
111	0x3d8bb7e3	0.06822183
112	0xbce17a3f	-0.027524112
113	0x3daa508d	0.08316145
114	0xbd93f12f	-0.072237365
115	0x3d9a0280	0.07520008
116	0x3d5c0989	0.05372003
117	0x3d3ba3bc	0.045810446
118	0x3d4f6443	0.050632726
119	0x3dd13291	0.10214723
120	0xbd42ba32	-0.04754085
121	0x3dd65eb1	0.1046728
122	0x3d8d537f	0.06900691
123	0xbb053c85	-0.0020330262
124	0x3d73d859	0.059532497
125	0x3c1dec8a	0.009638915
126	0x3d9cfdc3	0.07665589
127	0x3ce31dcc	0.02772417
128	0x3d3fd9e1	0.046838645
129	0x3df1b24c	0.118015856
130	0x3db85a2e	0.090015754
131	0x3cd3cf6e	0.025855746
132	0x3bb3b9e9	0.0054848087
133	0xbd13dd54	-0.036099747
134	0xbd6476fb	-0.05577753
135	0x3d776bde	0.060405605
136	0xbc802930	-0.01564464
137	0xbc38c553	-0.0112775145
138	0xbe09a6b4	-0.13442498
139	0xbc916d16	-0.017752212
140	0xbc4e87f9	-0.012605661
141	0x3c2252da	0.009907449
142	0xbda4a7c5	-0.08039812
143	0x3d9cfec5	0.07665781
144	0x3cc74ff8	0.024330124
145	0xbd9cf381	-0.07663632
146	0x3d28d122	0.04121507
147	0xbd595678	-0.05306098
148	0x3da5bd07	0.08092695
149	0x3cc8ed36	0.024527173
150	0xbd961439	-0.07328076
151	0xbd511549	-0.05104569
152	0x3cea9c59	0.028639005
153	0x3cbdaf5d	0.023154909
154	0x3d83d30f	0.064367406
155	0x3e2988ca	0.16556087
156	0x3d14460f	0.036199626
157	0x3d1013cc	0.03517513
158	0x3dcf7c7a	0.10131164
159	0xbdb502ab	-0.088383995
160	0x3cad707c	0.0211718
161	0x3dda5e67	0.10662537
162	0x3b3af56b	0.0028527628
163	0xbcc94bb2	-0.024572227
164	0xbde26035	-0.11053506
165	0x3d56d7c6	0.05245187
166	0x3cf05ec1	0.029342057
167	0x3d4a4d18	0.04938993
168	0x3d5a6c25	0.05332579
169	0xbd852844	-0.06501821
170	0xbbfc39ee	-0.0076973354
171	0x3cbc9160	0.023018539
172	0xbd71fa99	-0.05907688
173	0x3deb01ce	0.114749536
174	0x3c4ec82b	0.012620966
175	0xbe040e91	-0.12896182
176	0x3c5dd743	0.013540092
177	0x3d401a31	0.046899978
178	0xbd6cc1a4	-0.057801858
179	0x3de88a57	0.11354511
180	0x3d53d793	0.05171926
181	0xbdf75ff9	-0.12078852
182	0xbd7bb5f4	-0.06145282
183	0x3c0afc00	0.008482933
184	0xbd8e333b	-0.06943365
185	0x3d0218d8	0.031761974
186	0x3cd33016	0.025779765
187	0xbdbeaa14	-0.093097836
188	0x3b86ee93	0.0041177957
189	0xbd28c06f	-0.041199144
190	0xbdb19959	-0.08671827
191	0xbd96bb4b	-0.07359942
192	0xbc1def71	-0.009639607
193	0xb9b4cecb	-0.00034486348
194	0xbc8ff958	-0.017574951
195	0xbc55c0d7	-0.013046465
196	0x3d9d4714	0.07679573
197	0x3de038c4	0.10948327
198	0x3c99bf51	0.018767985
199	0xbcefb03e	-0.029258844
200	0x3d83ffe5	0.064452924
201	0x3d9e7083	0.07736304
202	0x3d2c3d4f	0.042050656
203	0xbd4f8d6a	-0.050671972
204	0x3d951c58	0.07280797
205	0xbd7c4552	-0.061589547
206	0xbd16bd41	-0.03680158
207	0x3d764f6b	0.060134333
208	0x3dbb1466	0.0913475
209	0x3dbfabd0	0.093589425
210	0x3d4ee13f	0.05050778
211	0xbdff9d69	-0.124811955
212	0x3dc8af1a	0.09799023
213	0x3dab2bc6	0.083579585
214	0xbd0ba8dc	-0.034096584
215	0x3dde285f	0.10847544
216	0x3c97dcf5	0.018537978
217	0xbd567bfe	-0.052364342
218	0xbda61c57	-0.08110874
219	0x3c11c12b	0.0088961525
220	0x3bdab1c0	0.0066740215
221	0xbd3c0cbf	-0.045910593
222	0xbd9e7112	-0.0773641
223	0xbcf35cb0	-0.029707283
224	0x3cd7374f	0.02627149
225	0x3d811345	0.063025035
226	0x3d1e9486	0.03871586
227	0xbd70e28b	-0.0588098
228	0x3da0eb0a	0.0785733
229	0xbdb1d8d5	-0.086839356
230	0xbdde1c05	-0.10845188
231	0xbda656c8	-0.08122021
232	0x3c8c82f0	0.01715228
233	0xbd5adb4b	-0.05343179
234	0x3ccf3acb	0.02529659
235	0xbdca8eec	-0.098905414
236	0xbbfeff78	-0.007781919
237	0xbe070f82	-0.1318951
238	0xbaec49ae	-0.0018027329
239	0xbccaf335	-0.024774173
240	0x3d133c5b	0.03594623
241	0xbdd74331	-0.105108626
242	0x3c3d205e	0.0115433615
243	0x3db1a348	0.086737216
244	0x3d301714	0.04299076
245	0xbd5682d9	-0.05237088
246	0xbcf45e61	-0.02983016
247	0xbd87e69a	-0.06635781
248	0xbae5085e	-0.0017473807
249	0x3db6a48b	0.08918103
250	0x3ce3262a	0.027728159
251	0x3ca7ff22	0.020507399
252	0xbd681920	-0.056664586
253	0xbca4a6a2	-0.020098988
254	0xbda69e7b	-0.081356965
255	0xbda59e9b	-0.08086892

mid_part.1.bias f4 [12]
0	0x3b93eed1	0.004514553
1	0x3d1b8b93	0.037974905
2	0x3d5f02ba	0.05444596
3	0x3bcfefac	0.00634571
4	0x3d251f44	0.04031302
5	0xbd58ee41	-0.05296159
6	0xbd173356	-0.036914192
7	0xbbae06e0	-0.005310878
8	0x3b4b51d7	0.0031024122
9	0xbbc3d25c	-0.0059760045
10	0xbd430420	-0.047611356
11	0xbd906155	-0.070498146

mid_part.2.weight f4 [12, 12, 3, 3]
0	0x3df83999	0.12120361
1	0x3db7acf1	0.08968533
2	0x3d4fe7d3	0.050758194
3	0xbd4d5ffb	-0.050140362
4	0xbcb95335	-0.022622684
5	0x3dabbfb5	0.083861746
6	0xbd28be7f	-0.041197296
7	0xbe08961d	-0.13338514
8	0xbd57fcad	-0.052731205
9	0xbdbed82e	-0.09318577
10	0xbdcf2b47	-0.101156764
11	0x3d6c1d4f	0.05764514
12	0xbdf93b2c	-0.12169489
13	0x3c1d210c	0.0095903985
14	0x3d8c46ef	0.06849467
15	0x3c66f50e	0.0140965115
16	0xbd8b7b46	-0.06810622
17	0x3d214115	0.039368708
18	0xbc97b3a0	-0.018518269
19	0x3d9aa8f6	0.07551758
20	0xbdd76865	-0.105179586
21	0xbb8c44a9	-0.004280646
22	0x3ca5fac1	0.02026117
23	0xbdc0efb6	-0.09420721
24	0x3d6a6f70	0.05723518
25	0x3db9b9d3	0.09068646
26	0xbd609459	-0.054828975
27	0xbc39fd75	-0.011351933
28	0x3d01c2e5	0.031680007
29	0xbdcd05d9	-0.10010881
30	0x3deb11d2	0.11478008
31	0x3daebc0b	0.0853196
32	0x3d4bba12	0.049737997
33	0xbdac672a	-0.084181145
34	0x3d3d30e0	0.04618919
35	0xbd167ba0	-0.03673899
36	0x3e1504a0	0.14552546
37	0x3d771f11	0.06033236
38	0xbd0a9922	-0.033837445
39	0x3cccf2f5	0.025018195
40	0x3d5b096d	0.053475786
41	0x3cab233e	0.020890828
42	0xbd47e33c	-0.048800692
43	0x3cd71f41	0.02626002
44	0x3cc072b2	0.023492191
45	0xbd9c361a	-0.076275066
46	0x3cab4134	0.020905115
47	0x3d382b1e	0.044962995
48	0x3dc1cb51	0.09462608
49	0x3e4ef3a2	0.20210126
50	0xbce901a1	-0.02844316
51	0xbc88e23d	-0.016709441
52	0xbdf56f47	-0.11984115
53	0x3d8e7cb0	0.06957376
54	0x3c49a6d7	0.012307844
55	0x3b1de398	0.0024091955
56	0x3d30385f	0.04302251
57	0xbe045f40	-0.1292696
58	0xbe0ec07e	-0.13940617
59	0xba1c32b3	-0.00059584825
60	0xbc90bcdc	-0.01766818
61	0x3d9ab531	0.07554091
62	0x3de1b5ef	0.11021029
63	0xbcd48c1e	-0.02594572
64	0x3bebd20c	0.0071966704
65	0x3b4e3fc8	0.0031471122
66	0xbda096e8	-0.07841283
67	0xbd7e25bd	-0.06204771
68	0x3c42e16d	0.011894566
69	0x3daea00a	0.08526619
70	0x3d168ca2	0.03675521
71	0xbd5b3c25	-0.053524155
72	0x3d4f18b6	0.050560676
73	0x3d01a27d	0.0316491
74	0xbd9e09d3	-0.077167176
75	0xbd3cc2d0	-0.046084225
76	0x3cf7b993	0.030239856
77	0xbc967899	-0.018368052
78	0xbda4c6df	-0.08045744
79	0xbca85251	-0.020547064
80	0x3dab1f86	0.08355622
81	0xbd941378	-0.07230276
82	0xbddcdd0f	-0.10784351
83	0x3ce0216c	0.027359687
84	0xbdacace5	-0.084314145
85	0xbd0762d6	-0.03305324
86	0xbdcfc23c	-0.10144469
87	0xbd53c151	-0.051698033
88	0xbdaa8a5b	-0.083271705
89	0xbdb7b329	-0.08969719
90	0x3db25906	0.08708386
91	0x3dc6b97b	0.09703346
92	0xbd4ef73e	-0.050528757
93	0xbce6c949	-0.028172152
94	0xbd3eeb8a	-0.046611346
95	0x3d5e0ea3	0.054213177
96	0x3d68f178	0.056870908
97	0xbd09315f	-0.03349435
98	0x3da8009f	0.082032435
99	0x3d947eea	0.072507694
100	0x3d2fd7e1	0.042930488
101	0xbd225fbf	-0.03964209
102	0x3dfc3579	0.123148866
103	0xba5b0a02	-0.00083556783
104	0xbc8e00ce	-0.017334368
105	0xbcebe163	-0.028793996
106	0xbdab4415	-0.08362595
107	0x3d5bd8e2	0.053673632
108	0x3e385490	0.18001008
109	0x3cacf585	0.021113167
110	0x3d86e928	0.0658744
111	0xbe15d6cd	-0.14632721
112	0xbe110004	-0.14160162
113	0xbe3df8fb	-0.1855201
114	0x3d5bada9	0.053632412
115	0xbc149a37	-0.009069971
116	0x3db83331	0.08994139
117	0xbd1eaf76	-0.03874155
118	0xbd777210	-0.060411513
119	0xbb135e63	-0.0022486679
120	0xbc60e6cc	-0.013726901
121	0xbcd6e209	-0.026230829
122	0x3b2f77f9	0.002677439
123	0xbc99b402	-0.018762592
124	0x3da60e4c	0.08108196
125	0x3d0bf667	0.034170534
126	0xbbd4a48e	-0.006489343
127	0x3de60a6f	0.11232459
128	0x3c626dab	0.013820092
129	0x3d5d79b5	0.054071147
130	0x3d295a35	0.041345794
131	0x3d384235	0.044985015
132	0x3d85ad31	0.06527174
133	0xbdb6665a	-0.08906241
134	0xbcfb22f5	-0.030656317
135	0xbc275faf	-0.010215684
136	0x3decfd30	0.11571729
137	0x3d865b14	0.065603405
138	0xbd89da66	-0.06731109
139	0x3cc6eb76	0.024282198
140	0x3dd61041	0.10452319
141	0x3cdfda60	0.027325809
142	0xbd9a785c	-0.07542488
143	0x3d9f6928	0.07783729
144	0x3e1e7579	0.154745
145	0x3d9ef90f	0.07762348
146	0xbc75c932	-0.015001582
147	0xbc266d25	-0.010157858
148	0xbe04a07b	-0.12951843
149	0xbd6d7ae2	-0.05797852
150	0x3c07c780	0.008287311
151	0xbcd82ad4	-0.02638761
152	0xbd4f231e	-0.0505706
153	0x3dbf6d7d	0.09347055
154	0x3df09b94	0.11748424
155	0x3cce5a12	0.025189433
156	0x3daf9d9b	0.08574983
157	0xbde1398f	-0.109973066
158	0xbdee5832	-0.11637916
159	0xbe09409b	-0.13403551
160	0xbcb1b427	-0.021692349
161	0xbbce1db8	-0.006290164
162	0xbdda8f4b	-0.10671862
163	0xbddc99cd	-0.10771523
164	0x3cdd730a	0.027032394
165	0x3cd3f6e9	0.025874572
166	0xbcdb280d	-0.026752496
167	0x3dbd1e86	0.092343375
168	0x3db4bd6d	0.088251926
169	0x3db15dff	0.086605065
170	0x3d82af0d	0.063810445
171	0x3d4afe9a	0.049559213
172	0x3d0f34d4	0.03496249
173	0xbd80c518	-0.06287593
174	0x3cf0a523	0.029375618
175	0x3d8c4901	0.06849862
176	0x3b96e3ae	0.0046047783
177	0xbcd6c7a3	-0.026218241
178	0xbd8ba037	-0.06817668
179	0xbd652795	-0.05594595
180	0x3cddbd82	0.027067903
181	0x3d6c8c85	0.057751197
182	0xbc8c67da	-0.017139364
183	0x3d865a47	0.06560188
184	0xbb57eb06	-0.0032946481
185	0x3d441776	0.047873937
186	0x3d575b4b	0.052577298
187	0x3dae0c2f	0.084984176
188	0x3d47cf31	0.048781577
189	0xbdcc4ae4	-0.09975222
190	0xbcfa1e11	-0.030531915
191	0xbde9fa9e	-0.114247546
192	0xbd1cf7db	-0.03832231
193	0x3d96e499	0.0736782
194	0x3d8f39b9	0.069934316
195	0xbb626406	-0.0034544482
196	0xbc5b603c	-0.013389643
197	0x3de630e9	0.112397976
198	0x3d9a723a	0.07541318
199	0xbd625684	-0.05525829
200	0xbce7910f	-0.028267412
201	0xbb8ac337	-0.004234697
202	0xbd107fe5	-0.03527822
203	0xbb2bda4a	-0.002622264
204	0xbd848d3e	-0.06472252
205	0xbc9e04f5	-0.019289473
206	0xbdb8e3ca	-0.09027822
207	0xbceac108	-0.028656498
208	0x3cac9b75	0.021070221
209	0x3d2cd1c3	0.042192232
210	0xbcfc55b8	-0.030802593
211	0xbcd91f1d	-0.026504094
212	0x3d1a1241	0.037615065
213	0xbae3be83	-0.0017375503
214	0x3d3ced0e	0.04612451
215	0x3dcb3c68	0.09923631
216	0x3c6122f4	0.013741244
217	0xbded055d	-0.115732886
218	0xbcda1a7d	-0.026623959
219	0xbd8f7018	-0.07003802
220	0xbdc7cf00	-0.09756279
221	0xbc7b538c	-0.015339743
222	0x3d6b4c52	0.05744583
223	0x3d3d8e4c	0.046278283
224	0x3d7ad3f0	0.061237276
225	0x3c613a0f	0.013746752
226	0x3d67d856	0.0566028
227	0xbc6a8460	-0.014313787
228	0xbd64ccb4	-0.055859283
229	0x3e019f3d	0.12658401
230	0xbd813642	-0.06309177
231	0xbd0554ea	-0.032551683
232	0x3c4c351c	0.012463834
233	0xbc81f1f5	-0.015862444
234	0xbda8299f	-0.082110636
235	0xbd0d2afb	-0.034464817
236	0xbd6368a7	-0.055519726
237	0x3d4f8ec2	0.050673254
238	0x3d015944	0.03157927
239	0x3d975a23	0.07390239
240	0xbd42f8e8	-0.047600657
241	0x3c80d42a	0.015726168
242	0x3c167788	0.009183772
243	0xbd8edb68	-0.06975442
244	0x3cd9ceef	0.026587931
245	0x3d2b678c	0.041846797
246	0xbd04922a	-0.032365955
247	0x3d2fbe1f	0.042905923
248	0x3c15ebc2	0.009150447
249	0x3d47acea	0.048748888
250	0xbd994bae	-0.07485138
251	0x3d07550e	0.0330401
252	0xbd2b3504	-0.041798607
253	0x3ca031dd	0.019555027
254	0xbcde77fe	-0.027156826
255	0xbdd6dc6c	-0.10491261

mid_part.2.bias f4 [12]
0	0x3db486c2	0.088147655
1	0x3dde62d3	0.10858693
2	0x3cd93528	0.026514605
3	0xbda108a6	-0.07862978
4	0xbd987dbf	-0.07445859
5	0xbda0c09b	-0.078492366
6	0xbda7534c	-0.081701845
7	0xbcb4c1a0	-0.022064984
8	0x3db59bca	0.08867605
9	0xbbc9cfb0	-0.0061587915
10	0x3d3df1c9	0.046373162
11	0xbdc5ba77	-0.09654706

mid_part.3.weight f4 [12, 12, 3, 3]
0	0x3d82142f	0.06351506
1	0x3da3a757	0.07990902
2	0xbb6fa308	-0.003656568
3	0x3d67142b	0.056415718
4	0x3dfd6b81	0.1237402
5	0xbd2e38e1	-0.042534713
6	0x3dd37f17	0.10326975
7	0xbd7eac69	-0.062176142
8	0xbd6ad5a3	-0.057332646
9	0xbc0c6c09	-0.008570679
10	0xbd1933d4	-0.037402943
11	0xbc5250da	-0.012836659
12	0x3c967a52	0.018368874
13	0x3d5e897b	0.05433033
14	0x3d23ccd1	0.03999025
15	0x3d8f2d79	0.06991095
16	0x3cc2a327	0.023759438
17	0x3d426b95	0.04746588
18	0xbcd658ea	-0.026165444
19	0xbcdd426b	-0.02700921
20	0xbd904928	-0.070452034
21	0xbc65fe4e	-0.014037682
22	0xbda65c95	-0.08123127
23	0xbcb99a1d	-0.022656495
24	0x3dc72b2d	0.09725032
25	0x3be2fda9	0.0069272113
26	0x3d0445a9	0.032292996
27	0xbcec2a4b	-0.02882876
28	0xbd0b755f	-0.03404748
29	0x3d892bb7	0.06697791
30	0x3caf0ad4	0.021367468
31	0xbd3a1cd2	-0.04543764
32	0xbd96af52	-0.073576584
33	0x3d253dc2	0.0403421
34	0xbde4e134	-0.111757666
35	0x3d84a9a8	0.06477672
36	0xbd6a4932	-0.05719871
37	0xbd322f83	-0.043502342
38	0x3d632977	0.055459466
39	0xbd7a18fe	-0.06105899
40	0x3cf70c8a	0.030157346
41	0xbc007df9	-0.007842534
42	0xbd7ad61e	-0.061239354
43	0x3d0fb00d	0.035080004
44	0xbd33e178	-0.043916196
45	0x3da87a39	0.08226437
46	0x3c5aad59	0.013346993
47	0x3d8f3d04	0.0699406
48	0x3db4a4b0	0.08820474
49	0x3d07cc80	0.03315401
50	0x3cfbce83	0.03073812
51	0x3da03308	0.078222334
52	0xbda5145b	-0.08060523
53	0xbdd11a48	-0.10210091
54	0xbb2f55fe	-0.0026754136
55	0x3d0545c2	0.03253723
56	0x3dbd4f98	0.09243697
57	0xbdcbf6a4	-0.09959152
58	0xbdf9f540	-0.12204981
59	0xbcc07a91	-0.023495944
60	0x3d3b216e	0.045686178
61	0xbb930d14	-0.004487643
62	0xbd3efac4	-0.046625867
63	0xbd18451b	-0.03717528
64	0x3c38ce36	0.011279633
65	0x3b0fa720	0.0021919683
66	0xbe81482f	-0.25250384
67	0xbd096bbe	-0.033550017
68	0x3d155728	0.03646007
69	0xbbfcad95	-0.0077111223
70	0x3df639bf	0.12022733
71	0x3b044234	0.0020181062
72	0x3d217ea9	0.039427433
73	0xbc8c82df	-0.017152248
74	0xbd80af61	-0.06283451
75	0x3cca1bd4	0.024671473
76	0xbc2a0d2f	-0.01037912
77	0xbd74ce7b	-0.059767228
78	0xbdade258	-0.08490437
79	0xbbd1ab0e	-0.006398565
80	0xbd82f065	-0.06393508
81	0xbd904eab	-0.07046255
82	0xbd28c888	-0.041206867
83	0xbcf30461	-0.029665174
84	0x3dedfb01	0.11620141
85	0x3d214220	0.039369702
86	0x3d4a4f92	0.04939229
87	0x3da8bf02	0.08239557
88	0xbdb1f509	-0.08689315
89	0xbda009d0	-0.078143716
90	0x3d9bce93	0.0760776
91	0x3d9c009e	0.07617305
92	0x3d3e1bcd	0.04641323
93	0x3daa5674	0.08317271
94	0x3ca4e024	0.02012641
95	0x3d662cd5	0.0561951
96	0xbc59f916	-0.013304016
97	0x3d7f4321	0.06231988
98	0x3d3fabc7	0.04679468
99	0x3db6b136	0.08920519
100	0xbdc1c2fa	-0.09461017
101	0x3d016a73	0.03159566
102	0xbe7acfe0	-0.2449336
103	0xbe1ce683	-0.15322308
104	0x3c19c5bc	0.009385522
105	0xbe4fcfae	-0.20294067
106	0x3e00fa2a	0.1259543
107	0x3dcb60e3	0.09930589
108	0xbd905fa7	-0.07049494
109	0xbd8a3c74	-0.06749812
110	0xbc9528f3	-0.018208003
111	0xbdb007d3	-0.08595242
112	0xbe03c280	-0.12867165
113	0x3d8a025f	0.067387335
114	0xbceb15fb	-0.028697005
115	0xbdf3c76f	-0.11903273
116	0xba85ec80	-0.0010217577
117	0x3cd9d1a7	0.026589228
118	0x3dee9ac0	0.1165061
119	0x3db797ca	0.08964498
120	0x3d56fc03	0.05248643
121	0xbd862dfe	-0.06551741
122	0x3d604054	0.054748848
123	0xbd8d5c77	-0.06902402
124	0x3be5dc16	0.0070147617
125	0x3d6f0dcf	0.05836278
126	0xbcb6d3f2	-0.02231786
127	0x3da677a9	0.08128292
128	0x3bd2aa97	0.0064290273
129	0xbccd435e	-0.025056537
130	0xbb191015	-0.0023355533
131	0xbcbe2023	-0.023208683
132	0x3d489cda	0.04897771
133	0x3d448979	0.047982667
134	0xbcd5b510	-0.026087314
135	0x3c82e85d	0.01597994
136	0xbcb44b9b	-0.022008708
137	0xbd4bf03c	-0.049789652
138	0xbde7d831	-0.11320532
139	0xbd387611	-0.045034472
140	0x3daee654	0.08540025
141	0xbd9fdd36	-0.078058645
142	0xbdc82d11	-0.09774221
143	0x3d95803f	0.072998516
144	0xbdce953e	-0.100870594
145	0xbd9255b1	-0.071452506
146	0xbdae5667	-0.08512574
147	0xbcbe88ac	-0.02325853
148	0xbdda6322	-0.10663439
149	0x3cbfd70d	0.023417974
150	0xbd0a4201	-0.033754352
151	0x3c2821fd	0.01026201
152	0xbcfcfcda	-0.030882288
153	0x3d96ec58	0.07369298
154	0xbd28c0b9	-0.04119942
155	0xbd47aa3d	-0.048746336
156	0x3d207998	0.03917846
157	0x3b05b309	0.0020400903
158	0xbd26b676	-0.040701352
159	0x3d4fc3fd	0.05072402
160	0xbddb619b	-0.10711976
161	0x3cd44498	0.025911614
162	0x3b92fb6a	0.0044855373
163	0xbd0617b8	-0.032737464
164	0xbd589eaf	-0.052885707
165	0x3dec8dbc	0.11550471
166	0x3ca853f0	0.020547837
167	0xbcacb6e3	-0.021083301
168	0xbbb24a2e	-0.005440972
169	0xbd8d1225	-0.068882264
170	0xbe29e9e5	-0.1659313
171	0xbd9107c8	-0.07081562
172	0x3d2af6ef	0.0417394
173	0x3c227c88	0.009917386
174	0x3d9aa78b	0.075514875
175	0x3d45ed2e	0.048321895
176	0xbe213194	-0.15741569
177	0x3d36cb73	0.044627618
178	0x3e46bce5	0.19407995
179	0xbde27ab9	-0.11058564
180	0x3cc386b3	0.02386794
181	0x3db4d63c	0.088299245
182	0xbd6b0c6b	-0.05738489
183	0x3d74cc07	0.05976489
184	0xbd2d74b6	-0.042347632
185	0xbbe3b24a	-0.006948744
186	0xbd29d7cc	-0.041465566
187	0xbd86884b	-0.065689646
188	0xbd88bd31	-0.066767104
189	0xbd8ce38f	-0.06879341
190	0x3d6be9c7	0.057595994
191	0xbc8e2deb	-0.01735588
192	0xbc94393d	-0.0180937
193	0x3cecbe8e	0.028899457
194	0x3d553d1d	0.052060235
195	0xbdb485d6	-0.0881459
196	0x3d17419f	0.036927816
197	0xbdb55c68	-0.08855516
198	0x3d679845	0.0565417
199	0xbdedddd8	-0.11614579
200	0xbd99a40b	-0.07501992
201	0x3d283aa6	0.041071557
202	0xbc97b3e1	-0.01851839
203	0xbd513047	-0.05107143
204	0x3d3d447e	0.046207897
205	0xbdc158a6	-0.094407365
206	0x3b871802	0.004122735
207	0x3c1fab10	0.009745374
208	0x3daf77e9	0.08567793
209	0x3b553afb	0.0032536376
210	0x3dfb514a	0.12271364
211	0x3ce473b3	0.027887201
212	0xbcc48b4f	-0.023992209
213	0x3e08dc95	0.13365395
214	0x3d304967	0.043038752
215	0x3da00cc1	0.078149326
216	0x3cd53ac3	0.026028996
217	0xbd91eeee	-0.0712565
218	0x3da17345	0.07883314
219	0x3d49cb81	0.049266342
220	0x3ddcace1	0.107751615
221	0x3cbd2393	0.023088252
222	0x3d0d4de5	0.034498114
223	0x3cad7bfc	0.021177284
224	0x3d0da6a2	0.03458274
225	0xbd35a49e	-0.044346444
226	0xbd82acb6	-0.06380598
227	0x3b36ba1d	0.0027881928
228	0xbda03136	-0.07821886
229	0x3d4a7097	0.04942378
230	0x3d99ff97	0.07519453
231	0xbb79932f	-0.0038082113
232	0x3d9492e7	0.07254582
233	0x3d91b01e	0.0711367
234	0xbd7e9bc4	-0.06216027
235	0xbcff613e	-0.031174298
236	0xbd9a3d0d	-0.07531176
237	0xbd2fa638	-0.042883128
238	0xbdcbc40d	-0.09949503
239	0x3ce8b7f4	0.028408028
240	0xbaeadfee	-0.001791952
241	0xbd52fae4	-0.0515088
242	0xbd95bf9b	-0.073119365
243	0x3c995089	0.01871516
244	0x3d8aa2ca	0.06769331
245	0x3db6103c	0.08889815
246	0xbce84091	-0.0283511
247	0x3cb3d0e2	0.021950189
248	0xbdbecc7a	-0.093163446
249	0x3d94dde4	0.07268885
250	0x3d6790ba	0.056534506
251	0xbc1a8b4a	-0.009432623
252	0xbd268fa0	-0.040664315
253	0x3d9eb6e0	0.077497244
254	0xbdab0cf8	-0.08352083
255	0x3d7c43c4	0.061588064

mid_part.3.bias f4 [12]
0	0x3dca68cc	0.0988327
1	0x3d539a8d	0.051661063
2	0xbd29deff	-0.04147243
3	0xbcd1dfe2	-0.025619451
4	0x3cd84482	0.026399855
5	0x3d1bee3e	0.038069002
6	0x3c9b1512	0.018930946
7	0xbb7fb7b6	-0.0039019412
8	0x3dc824bc	0.097726315
9	0x3d264a27	0.04059806
10	0xbd28cbaa	-0.041209854
11	0xbd97881f	-0.0739901

mid_part.4.weight f4 [12, 12, 3, 3]
0	0xbdcbfbfc	-0.099601716
1	0xbd908d8a	-0.070582464
2	0x3d15ef98	0.036605448
3	0x3cd57cfa	0.02606057
4	0x3e251f22	0.16125157
5	0x3e448a9f	0.19193505
6	0xbc8a6724	-0.016894884
7	0x3e2ddf85	0.16979797
8	0xbc174b6a	-0.009234289
9	0x3d665d7a	0.05624149
10	0xbd9dc176	-0.07702915
11	0xbdd8f729	-0.10594017
12	0xbdc2ff74	-0.0952138
13	0xbdf61452	-0.120155945
14	0xbd9d8b64	-0.07692602
15	0xbd3ba3de	-0.045810573
16	0xbdb0c8f3	-0.08632078
17	0xbd4fd271	-0.050737802
18	0xbcc6e37d	-0.024278397
19	0x3dc22ca1	0.094811685
20	0x3e01d263	0.12677912
21	0x3e0037e6	0.12521324
22	0x3cab58f6	0.020916443
23	0x3e0f7b14	0.14011794
24	0xbcecf08a	-0.028923292
25	0x3d507fcb	0.050903123
26	0x3d9dbbd5	0.07701842
27	0x3d8d14c0	0.068887234
28	0xbd4daf4a	-0.050215997
29	0x3d250e1f	0.04029667
30	0xbc8417dc	-0.016124658
31	0xbdfa2c68	-0.12215501
32	0xbcb71694	-0.022349633
33	0xbdaaa199	-0.083316036
34	0xbd721643	-0.05910326
35	0xbcde2e92	-0.027121816
36	0x3d630ca7	0.055431988
37	0xbd832f12	-0.06405462
38	0xbdf97029	-0.12179596
39	0x3d769fa3	0.060210835
40	0xbccabab6	-0.024747234
41	0x3d4ba09b	0.049713712
42	0xbd455d52	-0.0481847
43	0xbc3af1ed	-0.011410219
44	0xbd97cd91	-0.074122556
45	0x3cd8f384	0.026483305
46	0xbd349d04	-0.044095054
47	0xbdf27940	-0.11839533
48	0xbd643821	-0.05571759
49	0xbd061d09	-0.032742534
50	0xbde7c97c	-0.11317727
51	0xbd3eb975	-0.046563584
52	0xbd585e40	-0.05282426
53	0xbb01d8db	-0.0019813094
54	0xbda95dd2	-0.08269848
55	0x3c6cdd59	0.01445707
56	0x3d12aff8	0.035812348
57	0x3d7011a6	0.05861058
58	0x3cb8eb36	0.022573095
59	0xbd3be530	-0.045872867
60	0xbd57fe57	-0.05273279
61	0x3d5549d2	0.052072354
62	0xbc9122ed	-0.01771685
63	0x3bb0f902	0.005400778
64	0xbe196f5a	-0.14983884
65	0x3cd0db40	0.025495172
66	0xbe24a9dc	-0.16080421
67	0xbdd8b597	-0.105815105
68	0x3c58d41b	0.013234164
69	0xbda39102	-0.079866424
70	0x3cd5ab1a	0.026082564
71	0x3bc4b040	0.006002456
72	0x3d82d283	0.06387808
73	0x3cab1802	0.020885471
74	0xbdf0468c	-0.11732206
75	0xbc114dbb	-0.00886863
76	0xbcc39ba3	-0.023877924
77	0x3d71a816	0.05899819
78	0x3dd6adae	0.104823455
79	0xbd8d7137	-0.0690636
80	0xbd7b86e3	-0.061407935
81	0x3d84427e	0.06457995
82	0xbcca558e	-0.024698999
83	0x3da3523c	0.07974669
84	0xbe12ba47	-0.14328872
85	0xbe1d742d	-0.15376349
86	0xbdaa081d	-0.08302329
87	0xbe083124	-0.13299996
88	0xbc52f4f1	-0.012875781
89	0x3d27caa7	0.04096475
90	0xbcc6753f	-0.02422583
91	0x3d24c4db	0.0402268
92	0xbd4366b3	-0.047705363
93	0xbbed46c1	-0.0072411005
94	0x3da6f50f	0.0815221
95	0x3e1f3ba8	0.15550101
96	0xbc9b8027	-0.018982006
97	0x3d862a6d	0.06551061
98	0x3cc839cc	0.024441622
99	0xbccf41f6	-0.025300007
100	0xbce7596f	-0.028240887
101	0xbe05d75a	-0.13070431
102	0xbdd68a29	-0.10475571
103	0xbe3631ca	-0.1779243
104	0xbe03df63	-0.12878184
105	0x3dd9da15	0.10637299
106	0x3d5699c4	0.052392736
107	0xbd16ae48	-0.0367873
108	0x3dd05a1a	0.101734355
109	0xbd257eb4	-0.040404037
110	0xbd5648b7	-0.05231544
111	0xbe091f86	-0.13390931
112	0xbcf20869	-0.029545026
113	0x3d888e36	0.066677496
114	0xbbadb304	-0.0053008813
115	0x3df3d992	0.119067326
116	0xbb7c8fbc	-0.003853782
117	0xbcf180e4	-0.029480405
118	0x3d78a7a5	0.060706753
119	0xbd32b4e1	-0.04362953
120	0xbb1d96ac	-0.0024046106
121	0xbcc5f396	-0.024164002
122	0x3d35ca17	0.04438218
123	0x3da74eb3	0.081693076
124	0xbc9c9533	-0.019114112
125	0x3cf0ea38	0.02940856
126	0xbc934b07	-0.017980112
127	0xbd637fa8	-0.055541664
128	0x3d93c4e1	0.07215286
129	0xbce81d6c	-0.028334342
130	0x3dd93cfa	0.106073335
131	0x3d2bd7d9	0.041953895
132	0xbd73e799	-0.05954704
133	0x3c4940d3	0.012283522
134	0xbd28f142	-0.041245706
135	0xbda7615d	-0.081728674
136	0xbd4e1c26	-0.050319813
137	0x3c0aedd4	0.008479554
138	0xbd37d00e	-0.04487615
139	0x3d1edd14	0.038785055
140	0xbc65032f	-0.01397781
141	0x3db36404	0.08759311
142	0x3d5cba57	0.053888645
143	0xbdd88cf6	-0.10573761
144	0x3c92ff6a	0.017944057
145	0xbd96b8d6	-0.073594734
146	0x3d664eef	0.05622762
147	0xbdcf0f09	-0.101102896
148	0xbd6f0263	-0.058351886
149	0x3cef3c73	0.02920363
150	0xbd85098a	-0.0649596
151	0xbda5e16e	-0.08099638
152	0xbc5c234a	-0.013436148
153	0x3dc4d95a	0.09611769
154	0x3ddb3aca	0.107045725
155	0xbd449c1c	-0.04800044
156	0x3da4da1d	0.08049414
157	0xbd245158	-0.040116638
158	0x3d330d78	0.043714017
159	0xbda23d02	-0.079217926
160	0xbdd12e95	-0.10213963
161	0xbbf60273	-0.007507616
162	0xbdbd9951	-0.092577584
163	0xbccc0414	-0.024904288
164	0xbb779576	-0.0037778295
165	0x3cb5ea96	0.022206586
166	0xbbb1808e	-0.0054169362
167	0xba0e564d	-0.000542973
168	0x3c26cd48	0.010180779
169	0x3d17b62f	0.03703898
170	0x3cc6eab1	0.024281831
171	0x3d76d7e8	0.060264498
172	0xbda19b7d	-0.07890985
173	0xbb7a6947	-0.0038209723
174	0xbc5e3d92	-0.013564484
175	0xbdbe76e0	-0.09300017
176	0x3d121f16	0.035674177
177	0xbd60809b	-0.054810148
178	0xbd9549ca	-0.07289465
179	0x3cf48386	0.029847872
180	0x3cd81f82	0.026382212
181	0x3d2afddd	0.04174601
182	0xbdac9b92	-0.0842811
183	0xbdc4e377	-0.09613698
184	0xbcefd76c	-0.029277526
185	0xbde30a34	-0.110859305
186	0x3d9ef991	0.07762445
187	0xbd91f4e0	-0.07126784
188	0xbd89f91d	-0.06736968
189	0xba7f7233	-0.0009744495
190	0x3e06c27a	0.13160124
191	0xbcef9cb0	-0.02924952
192	0xbe04ff2e	-0.12987968
193	0xbb390d6d	-0.0028236762
194	0x3d5afb7d	0.053462494
195	0x3cc3adc0	0.023886561
196	0xbdc53514	-0.096292645
197	0x3c5e0a53	0.013552266
198	0xbce8d06e	-0.0284197
199	0x3bd08f7f	0.0063647623
200	0x3d99fdf3	0.0751914
201	0x3d6791ff	0.056535717
202	0x3de806dd	0.11329434
203	0x3db70205	0.08935932
204	0x3d656305	0.056002636
205	0xbc550779	-0.01300227
206	0xbc805cf3	-0.015669322
207	0xbd3d6f6b	-0.046248835
208	0x3d6cb341	0.057788137
209	0xbc998c90	-0.018743783
210	0x3d6ad668	0.05733338
211	0x3cf21857	0.029552622
212	0x3d4d72dc	0.050158367
213	0xbda44d60	-0.080225706
214	0x3cd4b944	0.025967248
215	0x3dac82d8	0.08423394
216	0xbe0c5a31	-0.1370628
217	0xbc38e235	-0.011284401
218	0x3cedb415	0.029016534
219	0xbda05d33	-0.07830276
220	0x3e80192c	0.25019205
221	0x3c89836f	0.016786305
222	0xbdef4497	-0.11683004
223	0x3e5dfcd8	0.21678483
224	0xbde52795	-0.1118919
225	0xbc35db75	-0.011099686
226	0xbd306e57	-0.04307398
227	0x3d55b280	0.052172184
228	0x3ae02a00	0.0017102361
229	0xbcca791d	-0.024715954
230	0xbd39df80	-0.04537916
231	0x3d43c0ff	0.047791477
232	0xbd6e0bf6	-0.058116876
233	0x3a1a3ece	0.00058839924
234	0xbd7a93ca	-0.0611761
235	0x3d100d97	0.03516921
236	0xbd0a466b	-0.033758562
237	0xbc948c8a	-0.01813342
238	0x3d0ed4f5	0.03487106
239	0xbd2c3c69	-0.0420498
240	0xbd56fccd	-0.052487183
241	0x3d750d4a	0.059827127
242	0xbcebfbec	-0.02880665
243	0xbd3f2fb6	-0.04667636
244	0x3ca1a5a8	0.019732311
245	0xbd98f6b5	-0.07468931
246	0xbe04b0b1	-0.12958027
247	0x3c236e55	0.009975036
248	0xbd998515	-0.074960865
249	0x3c83f6a6	0.016108822
250	0x3b5b8076	0.0033493317
251	0x3d7f2574	0.062291577
252	0xbc861981	-0.016369583
253	0xbdb7b6d2	-0.08970417
254	0xbd98cba1	-0.07460714
255	0xbdd59613	-0.10429015

mid_part.4.bias f4 [12]
0	0x3d2c1e85	0.042021293
1	0xbc883ab1	-0.016629549
2	0xbd03fa89	-0.03222135
3	0x3d5a2003	0.053253185
4	0xbe14c4e5	-0.14528234
5	0xbdad5278	-0.08462995
6	0xbd8adda9	-0.067805596
7	0xbe04402b	-0.12915103
8	0x3dbe7e64	0.09301451
9	0x3a961bdf	0.0011452398
10	0x3cf5b557	0.029993696
11	0x3cee6b73	0.02910397
