checkpoints/model_up_2_epoch_50.pth (torch_old, 50087 bytes, 15 tensors)

first_part.0.weight f4 [56, 1, 5, 5]
0	0xbd90fe1f	-0.0707972
1	0x3bc1feb2	0.0059202546
2	0xbdcf86e8	-0.10133153
3	0x3db86890	0.09004319
4	0xbe0a0636	-0.13478932
5	0x3e209976	0.1568354
6	0xbe21215e	-0.15735385
7	0xbe372daf	-0.1788852
8	0xbe05daa2	-0.13071683
9	0x3de47a20	0.11156106
10	0xbd93faac	-0.07225546
11	0x3d29b360	0.04143083
12	0xbe577c36	-0.21043476
13	0xbe0cdc5f	-0.1375594
14	0xbd89f621	-0.067363985
15	0xbd0db003	-0.034591686
16	0xbe37d83d	-0.17953582
17	0x3dcfb609	0.10142142
18	0xbd3e96bb	-0.046530467
19	0x3d98e824	0.07466152
20	0x3e200e7f	0.1563053
21	0x3d081006	0.033218406
22	0x3d342a4a	0.043985642
23	0x3e4e1c26	0.20127925
24	0xbda0bff8	-0.07849115
25	0x3cfe999e	0.03107911
26	0xbdc7e498	-0.09760398
27	0x3e154e80	0.14580727
28	0x3e176826	0.14785823
29	0xbe54657a	-0.20741835
30	0x3e32875f	0.17434452
31	0x3de2b0fc	0.11068913
32	0x3df74ff4	0.12075797
33	0x3de8f804	0.1137543
34	0x3e2ac2b0	0.1667583
35	0x3a87796a	0.0010335867
36	0xbe31a00e	-0.17346212
37	0xbd89fa68	-0.06737214
38	0xbdfa052e	-0.12208019
39	0x3c484e7d	0.012225744
40	0xbc91542d	-0.017740333
41	0xbddf3250	-0.10898268
42	0xbce5c747	-0.028049124
43	0x3e59b3f8	0.21260059
44	0xbc5dbbb8	-0.013533525
45	0xbbad3611	-0.0052859862
46	0xbc8eb0b3	-0.017418241
47	0x3d699b8c	0.057033107
48	0x3e4f72af	0.20258592
49	0x3de3fbb9	0.11131997
50	0x3da59c73	0.08086481
51	0x3d3e687d	0.046486367
52	0x3d49356d	0.049123216
53	0x3dbdb633	0.09263267
54	0xbc4dc53f	-0.012559234
55	0xbe3136d6	-0.17306075
56	0xbe15f945	-0.1464587
57	0x3e148bd9	0.14506473
58	0x3cb69e9d	0.02229243
59	0xbe1a27a2	-0.15054181
60	0x3cf78635	0.030215362
61	0x3db83e6e	0.089962825
62	0xbe93571b	-0.28777394
63	0xbe2fa490	-0.1715262
64	0xbdbf4790	-0.09339821
65	0x3ac40526	0.0014955148
66	0xbddfdff4	-0.109313875
67	0xbddcb78c	-0.10777196
68	0xbe5e1b9f	-0.21690224
69	0x3dc16ef9	0.094449945
70	0x3e2b0ece	0.16704866
71	0x3ddb7601	0.10715867
72	0xbe247549	-0.16060366
73	0xbe15bd46	-0.14622983
74	0x3dc78803	0.09742739
75	0x3d83a46a	0.06427844
76	0x3dd18e19	0.10232181
77	0xbe439488	-0.19099629
78	0x3b294ba3	0.0025832437
79	0x3e429cfa	0.19005194
80	0x3db89b9e	0.090140566
81	0xbcad1b60	-0.021131217
82	0xbaee2ee6	-0.0018171936
83	0xbd95f310	-0.07321751
84	0xbdcf3ef1	-0.10119427
85	0xbdeb061d	-0.114757754
86	0xbdf57f68	-0.119871914
87	0x3e624ef8	0.22100437
88	0x3df42124	0.119203836
89	0x3dac6247	0.084171824
90	0xbe2a98dc	-0.16659874
91	0x3e21ade0	0.15788984
92	0x3de58185	0.112063445
93	0x3e15e437	0.14637838
94	0xbda56c53	-0.08077302
95	0x3dc2763e	0.09495209
96	0x3e433de1	0.19066574
97	0x3ddc0ce4	0.10744646
98	0x3e0869aa	0.13321558
99	0xbcece387	-0.028917087
100	0x3e116e58	0.14202249
101	0xbe20d0c4	-0.15704638
102	0x3cb94047	0.022613658
103	0xbde5104a	-0.111847475
104	0xbd5fd288	-0.054644138
105	0xbd5b2439	-0.05350134
106	0x3ccab3df	0.024743972
107	0x3e4e2176	0.20129952
108	0x3deb4d4f	0.11489355
109	0x38c4d9c1	9.386568e-05
110	0x3e1740bd	0.1477079
111	0xbdb1a17e	-0.0867338
112	0x3dfcbc87	0.12340646
113	0xbaf32dbd	-0.001855306
114	0xbcfc9d5e	-0.030836757
115	0x3ce5537d	0.027993912
116	0xbe0d30d4	-0.13788158
117	0x3d25af6e	0.040450506
118	0x3d9f2a19	0.07771701
119	0x3e307b98	0.17234647
120	0xbd8b9a96	-0.06816594
121	0x3da1391d	0.078722216
122	0x3e59b35c	0.21259826
123	0xbda92c16	-0.08260362
124	0x3e3b885a	0.18313733
125	0xbe16bcbd	-0.14720435
126	0x3d7720a7	0.060333874
127	0x3d7d633d	0.06186222
128	0x3cb6de08	0.02232267
129	0x3e071a36	0.13193592
130	0xbe062207	-0.13098918
131	0x3d8ae0da	0.06781168
132	0x3cf88fa3	0.030341929
133	0xbe311ad9	-0.17295398
134	0xbda5b1a0	-0.0809052
135	0xbe0390fb	-0.12848274
136	0x3e568ae0	0.20951414
137	0x3e346a78	0.1761874
138	0x3dc9a6d9	0.09846277
139	0xbcedc76c	-0.029025756
140	0x3d1d311a	0.038376905
141	0x3d86c3f5	0.065803446
142	0x3e62a331	0.22132565
143	0x3e8edf5a	0.2790478
144	0x3d9083ff	0.07056426
145	0xbd38da8d	-0.0451303
146	0xbd6764d3	-0.056492638
147	0x3dc25823	0.09489467
148	0xbde5d848	-0.11222893
149	0xbe022416	-0.12709078
150	0xbe117a23	-0.14206748
151	0xbd948663	-0.07252195
152	0x3c7a098f	0.015261068
153	0x3e0822a2	0.13294461
154	0x3d7b1c71	0.06130642
155	0x3e151b9d	0.14561315
156	0xbdfda494	-0.123849064
157	0x3cddee4c	0.027091168
158	0xbe2e87cb	-0.17043988
159	0x3dd8fe95	0.10595433
160	0x3d22c88c	0.039742038
161	0x3e54bd05	0.2077523
162	0xbdfb121f	-0.12259316
163	0x3e307ae1	0.17234375
164	0x3e2abaf6	0.16672882
165	0x3e228e19	0.15874518
166	0x3d39776d	0.04527991
167	0x3e4cd7cc	0.20004195
168	0x3e0bec13	0.13664274
169	0x3e141216	0.14460024
170	0xbcccb3d1	-0.024988087
171	0xbe19f4b2	-0.1503475
172	0x3ba1bb35	0.004935647
173	0x3d0450b4	0.032303527
174	0xbe16a464	-0.14711148
175	0xbe0bcf56	-0.13653311
176	0xbe3e2b9e	-0.18571326
177	0xbd8f1a67	-0.06987458
178	0x3e290134	0.16504365
179	0x3cb880ca	0.022522349
180	0xbd71aa53	-0.059000324
181	0x3ca400ec	0.02001997
182	0x3e081bec	0.13291901
183	0xbe55f69d	-0.20894857
184	0xbe428eab	-0.18999736
185	0xbdb6a09f	-0.08917355
186	0xbd36d550	-0.044637024
187	0x3e423422	0.189652
188	0x3e21c31d	0.15797086
189	0xbe4f2a23	-0.20230918
190	0xbe31836c	-0.1733529
191	0xbe01a5ba	-0.12660876
192	0x3e1f201a	0.1553959
193	0x3e316d7a	0.17326918
194	0xbe2c781e	-0.16842696
195	0xbdb2ab37	-0.08724063
196	0x3db496b2	0.08817805
197	0xbdecd040	-0.11563158
198	0x3e1a6bcf	0.15080188
199	0x3cd754a2	0.026285473
200	0xbd89a86b	-0.06721576
201	0x39b712f0	0.0003491859
202	0x3d524c17	0.051342096
203	0xbd9ff0a8	-0.078095734
204	0xbe223db1	-0.15843846
205	0x3b39f8d8	0.0028377082
206	0xbb0c1e35	-0.002138031
207	0xbbcfe62f	-0.0063445787
208	0xbce1dc4e	-0.02757087
209	0x3e08b890	0.13351655
210	0xbd525436	-0.05134984
211	0xbd1560da	-0.036469318
212	0x3d2d5306	0.042315505
213	0xbe14b7f6	-0.145233
214	0x3d5a9108	0.05336097
215	0xbd351341	-0.044207815
216	0x3da411b3	0.08011188
217	0xbe123bab	-0.14280574
218	0xbbf69ebb	-0.0075262464
219	0x3cccc18d	0.024994636
220	0xbe230c48	-0.15922654
221	0xbe1309c8	-0.143592
222	0x3da247d4	0.079238564
223	0xbd40327a	-0.04692314
224	0x3e08a424	0.13343865
225	0xbe352c6c	-0.17692727
226	0xbdb17fe0	-0.08666968
227	0xbe215db5	-0.15758403
228	0x3da38f09	0.07986266
229	0xbbeafb15	-0.0071710446
230	0xbca4de9c	-0.02012568
231	0xbd0a5b46	-0.03377845
232	0xbe27c972	-0.16385439
233	0x3d315271	0.043291513
234	0xbb97f433	-0.004637265
235	0xbe0436c9	-0.12911524
236	0x3d76c575	0.060246903
237	0xbcc9849e	-0.02459937
238	0xbe5d2ce9	-0.21599163
239	0x3dba25e5	0.09089259
240	0x3dec6b6a	0.11543925
241	0xbd45af8b	-0.048263114
242	0xbe18e94b	-0.14932744
243	0xbb00ff1f	-0.0019683314
244	0x3e10bba9	0.14134087
245	0x3e42f566	0.19038925
246	0xbe1da4f6	-0.15394959
247	0xbdc16d6a	-0.09444697
248	0x3e1de1e1	0.15418197
249	0x3dc1888f	0.094498746
250	0x3e00f596	0.12593684
251	0xbdba5d55	-0.09099833
252	0x3e3ce451	0.18446471
253	0xbe1e54d9	-0.15462054
254	0xbbae571a	-0.005320442
255	0x3b71a5d4	0.0036872523

first_part.0.bias f4 [56]
0	0x3e465079	0.19366635
1	0x3c7ca321	0.015419752
2	0xbdb75c6d	-0.08953176
3	0x3df45ebd	0.119321324
4	0xbe222a92	-0.15836552
5	0x3d1e5b84	0.038661495
6	0x3e07fb0a	0.13279358
7	0x3e1f974f	0.15585063
8	0xbe2bdcaf	-0.16783403
9	0xbdadc17b	-0.08484169
10	0xbd110d69	-0.03541318
11	0xbdfccd57	-0.12343853
12	0x3dcd3efc	0.10021779
13	0x3d243671	0.040090982
14	0x3d37a168	0.044831663
15	0x3e0e0325	0.13868387
16	0xbd8b1fd9	-0.06793184
17	0x3ddb3fa1	0.107054956
18	0x3d17357a	0.036916234
19	0xbe0ee108	-0.1395303
20	0xbdc58a0c	-0.09645471
21	0xbdd5c80f	-0.10438549
22	0x3dd7f151	0.10544074
23	0xbe0318af	-0.12802385
24	0xbe46f2bd	-0.19428535
25	0xbd14bd5b	-0.036313396
26	0xbdbb41e1	-0.09143425
27	0xbd957918	-0.072984874
28	0xbdf5a7e8	-0.11994916
29	0x3e453507	0.1925851
30	0x3e3b6659	0.18300761
31	0xbe1975f3	-0.149864
32	0xbde167ed	-0.110061504
33	0x3cdbae15	0.026816407
34	0xbe1798d3	-0.14804392
35	0xbd8f30e3	-0.06991746
36	0xbdf42d26	-0.11922674
37	0xbd6b6cba	-0.057476737
38	0x3e45af77	0.19305216
39	0x3e371350	0.17878461
40	0xbd0215af	-0.03175896
41	0xbe4cf351	-0.20014693
42	0xbdc829f7	-0.09773629
43	0x3da474c0	0.08030081
44	0xbe132ddf	-0.14372967
45	0x3e1a1bbd	0.15049644
46	0x3c2b1872	0.01044284
47	0x3ddb8848	0.10719353
48	0x3dda9e8e	0.10674773
49	0x3e16ab11	0.14713694
50	0x3e026931	0.1273544
51	0x3e489bde	0.19590709
52	0xbcc43fdc	-0.023956232
53	0xbdd7ed23	-0.10543277
54	0x3db63786	0.08897309
55	0x3e1f83ea	0.15577665

mid_part.0.0.weight f4 [12, 56, 1, 1]
0	0xbd3b1b79	-0.045680497
1	0x3e02cca2	0.12773374
2	0x3ddc4a0e	0.10756312
3	0x3d3e0da6	0.046399735
4	0x3df981b7	0.12182944
5	0x3bf71fd5	0.0075416365
6	0x3d8317c4	0.06401017
7	0xbdf05559	-0.11735029
8	0x3d341fb8	0.04397556
9	0x3d082557	0.033238735
10	0x3d523f3f	0.051329847
11	0x3d7b5c4f	0.06136733
12	0xbd807579	-0.06272406
13	0x3dfcecd8	0.12349862
14	0x3e0a21e1	0.13489486
15	0xbdbbb422	-0.09165217
16	0xbc604f90	-0.013690844
17	0x3cc1bac4	0.023648627
18	0x3d3d0245	0.046144743
19	0xbd8f5d2b	-0.07000192
20	0xbb855169	-0.0040685427
21	0xbdfb5107	-0.12271314
22	0xbdcdd52e	-0.100504264
23	0x3d963f0f	0.07336246
24	0x3df6b569	0.1204632
25	0x3d7b2bbe	0.061321013
26	0x3cc438e7	0.023952914
27	0x3dab2ba7	0.083579354
28	0xbd7850d0	-0.060623944
29	0x3cbf3052	0.02333847
30	0x3dcc6d81	0.09981824
31	0x3db194f3	0.08670988
32	0x3cf4e3f8	0.02989386
33	0xbcea69ae	-0.028614845
34	0x3c029e36	0.007972291
35	0x3d7792d8	0.060442775
36	0x3dba866a	0.09107669
37	0xbe020878	-0.12698543
38	0xbc9a7608	-0.01885511
39	0xbdf0cee1	-0.11758209
40	0xbd4ea59e	-0.050450914
41	0x3d1be23c	0.03805755
42	0xbd640ba1	-0.055675153
43	0xbd914449	-0.070931025
44	0xbdf247ca	-0.11830099
45	0x3d16fad4	0.036860302
46	0x3d3df49e	0.046375863
47	0xb7717685	-1.4392314e-05
48	0x3d13d7c9	0.03609446
49	0x3d3b8434	0.045780376
50	0xbd47082a	-0.04859177
51	0x3d9cc923	0.07655551
52	0xbe336c6b	-0.17521827
53	0xbdefccf3	-0.11709013
54	0xbdff1721	-0.12455583
55	0x3c187514	0.009305257
56	0xbe0efbd6	-0.13963255
57	0x3bcfa003	0.0063362136
58	0xbc4e9e88	-0.012611039
59	0xbde1f42a	-0.11032899
60	0x3e12b013	0.1432498
61	0xb9ee3f9d	-0.00045442293
62	0x3dd2b58e	0.10288535
63	0x3e0cd4fb	0.1375312
64	0xbd504b39	-0.050852988
65	0xbd538952	-0.05164463
66	0x3e0f30dd	0.13983484
67	0x3c97ea99	0.018544482
68	0x3dbc827c	0.092045754
69	0x3bfa3cf1	0.0076366593
70	0x3da6d964	0.08146933
71	0xbe057910	-0.13034463
72	0x3c62eebd	0.013850865
73	0x3dc45342	0.09586193
74	0xbc9b8673	-0.018985009
75	0xbdf16856	-0.117874786
76	0x3c79f4b7	0.0152560985
77	0x3cd622dd	0.026139671
78	0x3b9b3bd8	0.0047373585
79	0x3d2de75e	0.042456977
80	0x3d8bde56	0.068295166
81	0xbda061b5	-0.07831136
82	0x3bd0cfe5	0.006372439
83	0xbdc9ccbb	-0.09853502
84	0x3d4478f3	0.04796691
85	0xbdd4da5c	-0.10393211
86	0xbd8a7fbd	-0.067626454
87	0x3c7f3245	0.01557595
88	0x3da8becc	0.082395166
89	0x3dba78c7	0.09105068
90	0xbdcad87a	-0.09904571
91	0xbe0539c5	-0.13010319
92	0x3dba3aae	0.090932235
93	0xbd964db8	-0.073390424
94	0xbe05c419	-0.13063087
95	0x3c819775	0.01581929
96	0x3dcf5a16	0.101246044
97	0x3c939630	0.01801595
98	0xbcd84206	-0.02639867
99	0xbde774f0	-0.11301601
100	0x3e04119c	0.12897342
101	0x3dadca79	0.08485884
102	0x3dddab20	0.10823655
103	0x3da4f5fb	0.080547296
104	0xbdc44237	-0.09582942
105	0xbe0019b2	-0.12509802
106	0xbcdf24d2	-0.027239237
107	0x3d3bfe17	0.045896616
108	0xbdb632a0	-0.08896375
109	0x3d7d6476	0.061863385
110	0xbd39396d	-0.04522078
111	0xbae9b501	-0.0017830433
112	0xbbafbc98	-0.0053630583
113	0x3dcab41d	0.09897635
114	0x3c5d1e0c	0.013495933
115	0x3cc0a615	0.023516694
116	0x3d2da2f4	0.042391732
117	0x3d0d98e3	0.034569632
118	0xbd136bc7	-0.035991456
119	0x39d6bdae	0.00040958583
120	0x3d09eec9	0.03367499
121	0xbde33571	-0.110941775
122	0x3c8afd5c	0.016966514
123	0xbdf6df2b	-0.12054285
124	0xbe0d34c5	-0.13789661
125	0xbb9082c9	-0.004410122
126	0x3cdf123b	0.027230373
127	0x3a263ef6	0.00063417794
128	0xbbf436e1	-0.007452831
129	0xbd3392f6	-0.043841325
130	0xbd13abdd	-0.036052573
131	0xb92f8fcc	-0.00016742869
132	0xbdb28a27	-0.08717757
133	0x3d2af933	0.04174156
134	0x3d4160c2	0.047211416
135	0xbc8616e7	-0.016368343
136	0x3cc7bf30	0.024383157
137	0x3d663947	0.056206968
138	0x3e12e127	0.14343701
139	0xbc73e5c7	-0.014886326
140	0xbe0e5224	-0.13898522
141	0xbdf96e23	-0.1217921
142	0xbc9560dd	-0.018234665
143	0xbddd93fa	-0.1081924
144	0xbde4da16	-0.11174409
145	0xbd37cd9a	-0.04487381
146	0xbd10d726	-0.03536143
147	0xbc950cdb	-0.018194607
148	0x3cb05d87	0.021528972
149	0x3db2c559	0.08729047
150	0x3e0ab190	0.13544297
151	0xbd605148	-0.054765016
152	0xbe13b9a4	-0.14426285
153	0x3df538c0	0.11973715
154	0x3df1eabf	0.118123524
155	0x3e03fd56	0.12889609
156	0x3d5a5a97	0.05330905
157	0x3d8e2e65	0.06942443
158	0x3c810eaf	0.015754072
159	0xbdd812de	-0.10550474
160	0xbe20a464	-0.1568771
161	0xbdccc032	-0.09997596
162	0x3c96fa03	0.018429762
163	0xbd7bd711	-0.0614844
164	0xbb919e4e	-0.00444392
165	0x3d8a8d37	0.06765216
166	0xbde62d25	-0.112390794
167	0x3ca647a4	0.020297833
168	0x3e14cf49	0.14532198
169	0x3dc3a387	0.09552675
170	0x3b611efb	0.0034350741
171	0xbd2f0066	-0.04272499
172	0xbd7cefda	-0.061752178
173	0x3c0a1b79	0.008429402
174	0xbdb0aca3	-0.08626678
175	0x3e04021e	0.12891433
176	0x3ab94778	0.0014135679
177	0xbd84cf07	-0.064848
178	0xbdb7eac4	-0.08980325
179	0xbd52787c	-0.051384434
180	0xbdc2f9fc	-0.09520337
181	0xbd1e0f89	-0.038589034
182	0xbe154688	-0.14577687
183	0x3d7c8d4a	0.06165818
184	0xbdc8c788	-0.098036826
185	0x3cbc7d60	0.023009002
186	0xbceaeeed	-0.028678382
187	0xbd850815	-0.06495682
188	0xbd8b1929	-0.06791908
189	0xbc94e4b5	-0.018175462
190	0xbde0cacf	-0.10976183
191	0xbdaacff5	-0.08340446
192	0x3cc19068	0.023628429
193	0xbdb99288	-0.09061152
194	0x3dd7c208	0.105350554
195	0x3df82fca	0.1211849
196	0x3d9bda47	0.076099925
197	0x3deaafc1	0.11459304
198	0xbd90bd26	-0.07067327
199	0x3d52ee04	0.05149652
200	0x3c6a0c8f	0.014285221
201	0x3e0f7f3e	0.14013383
202	0xbe0b1dd7	-0.13585602
203	0xbd0b8a0b	-0.034067195
204	0x3d98a6ac	0.07453665
205	0x3d934e8f	0.07192718
206	0xbe0139d2	-0.12619713
207	0x3df52cb6	0.119714186
208	0x3db9597a	0.090502694
209	0x3dcfd494	0.10147968
210	0xbd566331	-0.05234069
211	0xbd6d92da	-0.058001377
212	0x3c95241c	0.018205695
213	0x3dd440a2	0.1036389
214	0x3da5d0f1	0.08096493
215	0xbdcfaeb4	-0.10140744
216	0x3dd9741f	0.106178515
217	0xbc19effa	-0.009395594
218	0xbd59f6e5	-0.053213973
219	0x3dc2beed	0.095090725
220	0x3e288590	0.164572
221	0x3cdf5b50	0.02726522
222	0xbd65f944	-0.05614592
223	0x3dec6a32	0.11543693
224	0xbd297e03	-0.04137994
225	0xbd1f25f1	-0.038854543
226	0xbd101ab1	-0.035181705
227	0xbdecc4bb	-0.11560961
228	0xbce55e91	-0.027999194
229	0x3dc1bab4	0.09459439
230	0x3c1ccd4c	0.009570431
231	0xbdac6dc0	-0.08419371
232	0x3deab88b	0.1146098
233	0xbcb8eb4b	-0.022573134
234	0xbddab184	-0.1067839
235	0xbd49ee69	-0.04929963
236	0xbda9ee7e	-0.08297442
237	0x3d55f771	0.05223793
238	0x3dda02ee	0.1064509
239	0x3c1899b3	0.0093139885
240	0x3e4067c9	0.18789591
241	0x3e0d45ae	0.13796112
242	0x3d0800a9	0.033203755
243	0x3daeab66	0.085287854
244	0x3d8ec8a0	0.0697186
245	0x3d222e45	0.039594907
246	0x3e1db1d7	0.15399872
247	0xbd7ad328	-0.06123653
248	0xbe0328c6	-0.12808523
249	0xbe03aeee	-0.12859699
250	0x3dc6ed3b	0.09713217
251	0xbdd42597	-0.10358732
252	0x3deca9b4	0.11555806
253	0xbce899db	-0.028393677
254	0xbe00dfae	-0.12585327
255	0xbc4c42f4	-0.012467135

mid_part.0.0.bias f4 [12]
0	0xbe10a831	-0.1412666
1	0x3d471bc6	0.04861047
2	0xbcfe533f	-0.031045554
3	0x3cd4c1ee	0.02597138
4	0x3dbb5899	0.09147758
5	0xbcef888a	-0.029239912
6	0x3b752082	0.003740341
7	0xbdceab0a	-0.10091217
8	0x3d873c13	0.06603255
9	0xbc8cf47d	-0.017206425
10	0xbd3acc67	-0.04560509
11	0x3bc55caf	0.0060230116

mid_part.1.weight f4 [12, 12, 3, 3]
0	0xbc533f57	-0.012893519
1	0x3c251cc4	0.010077659
2	0x3d7b066d	0.061285425
3	0x3d8ee46c	0.06977162
4	0x3da64ee9	0.0812052
5	0xbdb5882d	-0.08863864
6	0xbe028428	-0.12745726
7	0x3d2f8695	0.042852957
8	0x3d76f433	0.06029148
9	0x3d8201dc	0.06348011
10	0xbd9b3a62	-0.07579495
11	0xbce220ca	-0.027603526
12	0x3d88ca6b	0.06679233
13	0xbd9a8237	-0.07544368
14	0xbda32665	-0.079663076
15	0x3b6069d7	0.0034242773
16	0x3d856a1c	0.065143794
17	0xbcf795b6	-0.030222755
18	0xbd24dc9c	-0.040249452
19	0xbcb13dda	-0.021635938
20	0xbd2e1b61	-0.04250658
21	0xba6e74ac	-0.0009096365
22	0x3baffe92	0.0053709233
23	0x3d3e100a	0.046402015
24	0xbdc2cc2e	-0.095116004
25	0xbd8597cf	-0.06523096
26	0xbdf59c7f	-0.1199274
27	0xbe139bff	-0.14414977
28	0xbcc2bcbc	-0.023771636
29	0xbd4bbc52	-0.049740143
30	0xbd89c6b3	-0.06727352
31	0x3cb0fa57	0.021603746
32	0x3daeca51	0.085346825
33	0x3e018ae0	0.12650633
34	0x3da7c491	0.08191789
35	0xbd9358f4	-0.07194701
36	0x3d6cef71	0.057845537
37	0xbdc9b3a2	-0.09848715
38	0x3da8404e	0.0821539
39	0x3d87fd0f	0.06640064
40	0xbdf6d39b	-0.12052079
41	0xbcad4580	-0.021151304
42	0x3d5bfaca	0.053705968
43	0x3c66730d	0.014065516
44	0xbda620f8	-0.08111757
45	0x3e2d2910	0.16910195
46	0xbce725ba	-0.028216232
47	0x3db2bf58	0.08727902
48	0xbb8721c1	-0.004123897
49	0xbe847680	-0.25871658
50	0xbe198937	-0.1499375
51	0xbb1d5a4a	-0.0024010115
52	0x3d6c2c58	0.057659477
53	0xbd7b88f9	-0.061409924
54	0xbd94520c	-0.07242212
55	0xbd4c6ae2	-0.04990662
56	0xbb0cdc43	-0.002149359
57	0x3dde5f3e	0.1085801
58	0xbcf60f12	-0.030036483
59	0xbd8e1fea	-0.06939681
60	0xbd88de1e	-0.066829905
61	0x3dfb5e59	0.12273855
62	0x3d4424cd	0.04788666
63	0x3d12c494	0.035832003
64	0x3da06cd0	0.07833254
65	0xbb2d237b	-0.0026418853
66	0x3d9c1191	0.07620538
67	0xbc4223a7	-0.0118493205
68	0x3c0a0834	0.008424807
69	0xbd7e6353	-0.06210644
70	0xbcefcf16	-0.029273551
71	0x3c3b836b	0.011444907
72	0xbd99964b	-0.07499369
73	0xbd95834a	-0.07300432
74	0xbdabab9c	-0.08382341
75	0x3da7b770	0.08189285
76	0x3e0b1c23	0.13584952
77	0x3c904cfc	0.017614834
78	0x3bf841a9	0.0075761867
79	0xbc23a91b	-0.009989048
80	0x3dbb5e8d	0.091488935
81	0xbd7aa012	-0.06118781
82	0xbd9ac0a1	-0.07556272
83	0x3d3fa1f0	0.046785295
84	0xbd94eb13	-0.07271399
85	0xbd305f6a	-0.043059744
86	0x3cfce63d	0.030871505
87	0xbc8f872f	-0.017520515
88	0xbcfb0881	-0.030643703
89	0x3d790d22	0.06080354
90	0xbb04a2b6	-0.0020238585
91	0x3dd3864c	0.103283495
92	0xbd1353d5	-0.03596862
93	0xbd5eb4b6	-0.054371558
94	0x3dc2c33a	0.09509893
95	0xbd910e5d	-0.07082818
96	0xbd827ccb	-0.063714586
97	0x3dc35388	0.09537417
98	0xbd3a8c6b	-0.04554407
99	0x3c5eb137	0.013592056
100	0xbdb496ee	-0.0881785
101	0x3d2e9a6d	0.04262774
102	0x3d7bb8d7	0.061455574
103	0x3dfff781	0.124983795
104	0xbd85d4fb	-0.065347634
105	0x3d2e1a91	0.042505804
106	0x3cbe1e12	0.023207698
107	0x3dc2e270	0.09515846
108	0xbc273224	-0.010204826
109	0x3e002a09	0.12516035
110	0x3db4d5ed	0.088298656
111	0x3d8aff2a	0.0678695
112	0xbccf8df2	-0.02533624
113	0x3d8983ee	0.06714617
114	0xbd8d964b	-0.06913432
115	0x3dae5c48	0.08513695
116	0x3d413849	0.04717282
117	0x3d297d24	0.04137911
118	0x3d245b30	0.040126026
119	0x3db18814	0.08668533
120	0xbd46f82e	-0.048576526
121	0x3dc1555c	0.09440109
122	0x3d5d22fd	0.053988446
123	0x3aea7af0	0.0017889421
124	0x3d6b704f	0.057480153
125	0x3b4412ec	0.0029918505
126	0x3da040b5	0.07824842
127	0x3a10bd99	0.00055214163
128	0x3d14171d	0.036154855
129	0x3dca6f67	0.098845296
130	0x3d466406	0.048435234
131	0x3beb2a05	0.00717664
132	0x3b20ac03	0.002451659
133	0xbd61e5b5	-0.055150706
134	0xbd68edd6	-0.056867443
135	0x3d41cba8	0.047313362
136	0x3b4a46e6	0.0030865013
137	0x3d02033c	0.031741366
138	0xbde10a8e	-0.10988341
139	0x3ca3c93f	0.019993423
140	0xbc6dc383	-0.014511946
141	0x3be9c1e5	0.0071337097
142	0xbdb222b4	-0.08698025
143	0x3c9d1140	0.019173265
144	0x3cc83d2c	0.024443232
145	0xbdaaf2f0	-0.08347118
146	0x3cf3bf3c	0.029754274
147	0xbd25ff8d	-0.040526915
148	0x3da8dcbb	0.08245226
149	0x3c801a21	0.01563746
150	0xbd6edb8e	-0.058314852
151	0xbd5038e1	-0.050835494
152	0x3c625938	0.013815217
153	0xbbb5917b	-0.0055410243
154	0x3d88f15d	0.066866614
155	0x3e4fafeb	0.20281951
156	0x3d7b6d88	0.061383754
157	0x3dc586ab	0.096448265
158	0x3e302200	0.1720047
159	0xbd5e0ac9	-0.054209504
160	0x3d7113c7	0.05885675
161	0x3e099f78	0.13439739
162	0x3b525ed5	0.0032099981
163	0xbc5b7693	-0.0133949695
164	0xbdc7f2a5	-0.09763078
165	0x3d3f31c7	0.04667833
166	0x3d2cf8d5	0.042229492
167	0x3d95b6d9	0.07310266
168	0x3cc0bde4	0.023528047
169	0xbd8a7de9	-0.06762297
170	0x3b3ec40a	0.0029108548
171	0xbcde4e20	-0.027136862
172	0xbd837ed3	-0.06420674
173	0x3dd3ef58	0.103483856
174	0x3bd3c410	0.0064625815
175	0xbdbd399f	-0.09239506
176	0xbc2b96bc	-0.01047295
177	0x3d54c71e	0.051947705
178	0xbd01eddb	-0.031720977
179	0x3d9aa001	0.075500496
180	0x3d4f960b	0.0506802
181	0xbe090631	-0.13381268
182	0xbd5ef351	-0.054431263
183	0x3b823231	0.0039732684
184	0xbd9afc81	-0.075676925
185	0x3d02fc4d	0.031978894
186	0x3c6cdd32	0.014457034
187	0xbdd3d184	-0.10342696
188	0x3adb452c	0.0016728989
189	0xbd2d1f31	-0.042266075
190	0xbd94b367	-0.07260781
191	0xbd8ddf7e	-0.069273934
192	0x3bf5e8c7	0.007504556
193	0x3cfae049	0.030624526
194	0xbc7aaa01	-0.015299321
195	0xbbdc2b61	-0.0067190384
196	0x3db3cc15	0.0877916
197	0x3dc8fa5a	0.09813376
198	0x3ca648da	0.02029841
199	0xbd41687c	-0.047218785
200	0x3dc3fa2e	0.09569202
201	0x3cbcf97e	0.023068186
202	0x3d7a412f	0.06109732
203	0x3d5ce542	0.053929575
204	0x3d82a68f	0.06379425
205	0xbd062e56	-0.032759033
206	0x3d1221a8	0.03567663
207	0x3bfa322c	0.0076353755
208	0x3d95d326	0.07315664
209	0x3d13732d	0.035998512
210	0x3d1a9a1a	0.03774462
211	0xbdd7b106	-0.105318114
212	0x3d1a11ca	0.03761462
213	0x3d1372a4	0.035998
214	0xbd903616	-0.07041566
215	0x3d06e741	0.032935385
216	0x3c920256	0.01782338
217	0xbd339e20	-0.04385197
218	0xbd9c5f5b	-0.07635375
219	0x3af80b10	0.0018924195
220	0xb9eb3fdd	-0.00044870275
221	0xbd43d2cd	-0.047808457
222	0xbda8d134	-0.08243027
223	0xbd3e99fe	-0.046533577
224	0x3cc86b10	0.024465114
225	0x3d817b2c	0.06322321
226	0x3d46844e	0.04846602
227	0xbd56aedb	-0.05241285
228	0x3d99627a	0.07489486
229	0xbda58383	-0.080817245
230	0xbdd313ae	-0.10306488
231	0xbdc0dc89	-0.09417064
232	0x3c2fe50f	0.010735764
233	0xbd7978d6	-0.060906254
234	0x3d0e09eb	0.034677427
235	0xbd934df8	-0.07192606
236	0xbc286b92	-0.010279553
237	0xbddb19de	-0.10698293
238	0x3d00235b	0.031283718
239	0xbc83f223	-0.01610667
240	0x3d24d797	0.040244665
241	0xbdc43afb	-0.09581562
242	0x3bb76834	0.005597139
243	0x3da88619	0.08228702
244	0x3c0e9f4b	0.008704971
245	0xbd814ad9	-0.06313104
246	0xbcf49968	-0.029858306
247	0xbd88b7e3	-0.066756986
248	0x3c919e1a	0.017775584
249	0x3dbb0ab5	0.091329016
250	0x3d553810	0.05205542
251	0x3ce69298	0.028146073
252	0xbd65057d	-0.055913437
253	0xbc6db6b7	-0.014508895
254	0xbd92e602	-0.07172777
255	0xbdb537f4	-0.08848563

mid_part.1.bias f4 [12]
0	0x3c310764	0.010804985
1	0x3d2772c0	0.04088092
2	0x3d5e79f1	0.05431551
3	0x3b5588a7	0.0032582672
4	0x3d22452a	0.03961674
5	0xbd647249	-0.055773053
6	0xbd2d84e9	-0.04236308
7	0xbb9bc9f9	-0.0047543016
8	0x3ab91132	0.0014119504
9	0xbc228f7f	-0.009921907
10	0xbd6e7753	-0.058219265
11	0xbdb0940f	-0.0862199

mid_part.2.weight f4 [12, 12, 3, 3]
0	0x3de10d6f	0.109888904
1	0x3dc38873	0.0954751
2	0x3dad0709	0.084486075
3	0xbdade104	-0.08490184
4	0xbd398090	-0.045288622
5	0x3cf0511a	0.029335547
6	0xbd2d77e6	-0.042350672
7	0xbdc1466e	-0.094372615
8	0xbd604f20	-0.05476296
9	0xbdd0e003	-0.10198977
10	0xbdc97e0f	-0.09838497
11	0x3d4544c8	0.048161298
12	0xbde7c301	-0.11316491
13	0x3d04344b	0.032276433
14	0x3d9c9095	0.07644764
15	0x3c8e8bb0	0.017400593
16	0xbd43adac	-0.04777305
17	0x3d720a68	0.059091955
18	0x38ccc473	9.7640695e-05
19	0x3daaa40a	0.08332069
20	0xbdb5e0b0	-0.08880746
21	0x3b3e3fcb	0.0029029723
22	0x3c903e99	0.017607974
23	0xbd991148	-0.07473999
24	0x3d516f57	0.051131573
25	0x3da0fdb4	0.0786089
26	0xbd1026d3	-0.035193276
27	0x3bf1fcb7	0.0073848623
28	0x3c94b8ff	0.01815462
29	0xbddd1b2d	-0.10796199
30	0x3dd71088	0.105012
31	0x3cc7baa8	0.024380997
32	0x3c1f2e8b	0.009715687
33	0xbdaf4258	-0.08557576
34	0x3cd737ca	0.02627172
35	0xbd020d8f	-0.03175121
36	0x3e1d12be	0.15339181
37	0x3d45b6ce	0.04827004
38	0xbc7e3302	-0.015515091
39	0x3bd9c915	0.0066462853
40	0x3c2d4653	0.010575849
41	0xbc143c8c	-0.009047639
42	0xbca793c7	-0.020456208
43	0x3d709e92	0.058744974
44	0x3d36e69c	0.04465352
45	0xbccc79b7	-0.024960382
46	0x3d4e0d11	0.05030543
47	0x3dde36cf	0.10850298
48	0x3d2c9e17	0.042142954
49	0x3dd98714	0.10621467
50	0xbd9b6338	-0.07587284
51	0x3d20df91	0.03927571
52	0xbcead1a0	-0.02866441
53	0x3d75df74	0.060027555
54	0xbb79c64d	-0.0038112581
55	0x3aa50f4e	0.0012593062
56	0x3d67791d	0.056511987
57	0xbded0848	-0.11573845
58	0xbdecf983	-0.11571028
59	0x3ce483e1	0.027894916
60	0xbb9fe55d	-0.004879637
61	0x3dcc3303	0.09970667
62	0x3e03b2b4	0.12861139
63	0xbcffff17	-0.031249566
64	0x3c4dcf77	0.0125616705
65	0x3b81b2e3	0.0039580925
66	0xbd7abbf6	-0.06121441
67	0xbd3dcfa3	-0.046340596
68	0x3ca47cd1	0.020079048
69	0x3dc42f37	0.09579318
70	0x3d35d556	0.044392906
71	0xbd580c8d	-0.052746344
72	0x3d47ea33	0.048807334
73	0x3d0bbc97	0.0341154
74	0xbd943478	-0.0723657
75	0xbd0c9450	-0.03432113
76	0x3d3c30bb	0.04594491
77	0xbc07d70a	-0.008291015
78	0xbda1eb50	-0.079062104
79	0xbc2951a2	-0.010334404
80	0x3db742a3	0.08948257
81	0xbd072a42	-0.032999285
82	0xbd8801ea	-0.0664099
83	0x3d34241c	0.04397975
84	0xbdd20f10	-0.10256779
85	0xbd625bda	-0.055263378
86	0xbdef53e5	-0.116859235
87	0xbcdb8004	-0.026794441
88	0xbd9cd6ac	-0.07658133
89	0xbd562756	-0.052283607
90	0x3ddcd174	0.107821375
91	0x3e014fd9	0.12628116
92	0xbce922d6	-0.028458994
93	0xbd54df97	-0.051971044
94	0xbd9f3603	-0.07773974
95	0x3cf2e011	0.029647859
96	0x3d50c8ea	0.050972857
97	0xbd6cdf41	-0.0578301
98	0x3d6a114e	0.05714541
99	0x3d766f4d	0.06016474
100	0x3ca8450f	0.020540742
101	0x3be57fbc	0.0070037525
102	0x3d9fa0f6	0.07794373
103	0xbd5cd209	-0.053911243
104	0xbacfd113	-0.0015855156
105	0xbb35829c	-0.0027696257
106	0xbd81877f	-0.06324672
107	0x3d762cd6	0.060101353
108	0x3e06b441	0.13154699
109	0xbd625eff	-0.055266377
110	0xbd563738	-0.052298754
111	0xbcaeb767	-0.021327687
112	0xbd2aad46	-0.041669153
113	0xbe33c610	-0.17556024
114	0x3a564ce9	0.00081749127
115	0xbda1db69	-0.07903177
116	0x3c98ff86	0.01867653
117	0xbd619bf3	-0.055080365
118	0xbc4f73bb	-0.01266187
119	0x3d2e5998	0.042565912
120	0xbd14ffdd	-0.036376823
121	0x3c14c2d5	0.009079655
122	0x3cf3d58b	0.029764911
123	0xbd3d3e02	-0.046201713
124	0x3daa576a	0.08317454
125	0x3c8817e7	0.01661296
126	0x3b0d1dd4	0.0021532672
127	0x3db17aa9	0.08665974
128	0xbca46eb8	-0.020072326
129	0x3d455343	0.048175108
130	0xbbf2df8e	-0.0074119037
131	0xbc9664a5	-0.018358538
132	0x3d85f5d6	0.0654103
133	0xbdd77a2f	-0.105213515
134	0xbd8779b7	-0.06615012
135	0x3c67fb60	0.014159054
136	0x3c2b23dd	0.010445562
137	0x3ca53f2c	0.020171724
138	0xbd678af2	-0.056528993
139	0xbd7e31fa	-0.06205938
140	0x3dfa459b	0.122203074
141	0x3c997944	0.018734582
142	0xbdd6e1b0	-0.10492265
143	0x3dfecb6a	0.12441142
144	0x3e1cc5d5	0.15309842
145	0x3c6672e9	0.014065483
146	0xbdc27ffb	-0.094970666
147	0x3d8891da	0.06668444
148	0xbdd677bd	-0.10472057
149	0xbd929795	-0.07157818
150	0x3c02d5e7	0.007985569
151	0xbd79a5a2	-0.060948975
152	0xbdbb50b9	-0.09146256
153	0x3d7bf331	0.061511222
154	0x3de051fe	0.10953139
155	0xbc8c1a6a	-0.017102439
156	0x3de14f2d	0.1100143
157	0xbd02eb86	-0.031962894
158	0xbde01adc	-0.10942623
159	0xbdaffb17	-0.085928135
160	0x3d12525d	0.03572308
161	0xbd8d36b0	-0.068951964
162	0xbdc7fbc4	-0.09764817
163	0xbd133d11	-0.03594691
164	0x3d842962	0.06453206
165	0x3ba06bfb	0.004895685
166	0x3ceba022	0.02876288
167	0x3df3aef2	0.118986025
168	0x3dbb7f4d	0.0915514
169	0x3e04fb00	0.12986374
170	0x3d94201b	0.07232686
171	0x3d81d7da	0.063399985
172	0x3d9cf899	0.07664604
173	0xbcebbdcc	-0.028777026
174	0x3cb3f87a	0.021969069
175	0x3d6bc372	0.057559438
176	0xbc0eedfa	-0.00872373
177	0xbc657780	-0.014005542
178	0xbd88a80a	-0.06672676
179	0xbd5367f6	-0.051612817
180	0x3ca860ab	0.020553907
181	0x3d91418b	0.070925795
182	0x3c31970a	0.010839233
183	0x3d8cc7fe	0.06874083
184	0x3c01b4b2	0.007916616
185	0x3d8ee6f0	0.069776416
186	0x3d527ecc	0.051390454
187	0x3da30dd2	0.079616204
188	0x3d699437	0.057026114
189	0xbdc9f50d	-0.09861193
190	0xbda8842d	-0.082283355
191	0xbe03f4ce	-0.12886354
192	0xbd845f6b	-0.06463512
193	0x3d1c553f	0.038167235
194	0x3e0219bd	0.12705131
195	0xbd686580	-0.056737423
196	0xbce3a230	-0.027787298
197	0x3e4339aa	0.19064966
198	0x3d63dd85	0.05563118
199	0xbdb562ad	-0.088567115
200	0xbdaa80e6	-0.08325367
201	0x3aca8e32	0.0015453754
202	0xbd42ad24	-0.0475284
203	0xbd0c1975	-0.034203965
204	0xbd80c9d1	-0.062884934
205	0xbab90dc6	-0.0014118485
206	0xbd6842aa	-0.0567042
207	0xbdba7699	-0.09104652
208	0xbb149408	-0.0022671241
209	0x3d4b6433	0.049656104
210	0xbd2f3d6c	-0.042783186
211	0x3bad634e	0.005291379
212	0x3d0f11c5	0.034929056
213	0x3ccc824e	0.024964478
214	0x3d849c5e	0.06475137
215	0x3d8ded93	0.06930079
216	0x3b4e3e79	0.0031470342
217	0xbdf416d8	-0.119184196
218	0xbd714c70	-0.058910787
219	0xbd79e47c	-0.061008915
220	0xbdb93356	-0.09042995
221	0xbb3e2eea	-0.0029019662
222	0x3d8f8b61	0.07009006
223	0x3cc39811	0.023876222
224	0x3d3eb944	0.0465634
225	0x3cca6944	0.024708398
226	0x3d6c75e7	0.057729628
227	0xbbdebf6c	-0.0067977216
228	0xbd63836b	-0.05554525
229	0x3de154e7	0.11002522
230	0xbd85a7d5	-0.06526152
231	0xbd05d112	-0.032670088
232	0xbbda629e	-0.006664588
233	0xbc93e127	-0.018051697
234	0xbdd123e6	-0.10211925
235	0xbd63064c	-0.055425927
236	0xbdad847c	-0.08472535
237	0x3d09bae2	0.03362549
238	0x3ca6cbc9	0.020360844
239	0x3d67bd53	0.056577038
240	0xbd84af2a	-0.064787224
241	0x3c78ecc5	0.015193169
242	0xbc23676d	-0.009973389
243	0xbdcbb8a3	-0.09947326
244	0x3cb84f09	0.022498624
245	0x3d4317f1	0.047630254
246	0xbd3e139e	-0.046405427
247	0x3d9e393b	0.077257596
248	0x3ccf611a	0.025314856
249	0x3d439599	0.04775009
250	0xbd680265	-0.05664291
251	0x3cd38d9e	0.025824364
252	0xbd89d773	-0.06730547
253	0x3c027dea	0.007964591
254	0xbd540a13	-0.05176742
255	0xbdf84717	-0.12122934

mid_part.2.bias f4 [12]
0	0x3dc3999b	0.09550782
1	0x3dc37558	0.09543866
2	0x3c932e73	0.017966485
3	0xbd918d73	-0.071070574
4	0xbd9346d7	-0.07191246
5	0xbd8c7a76	-0.06859295
6	0xbdc49c0b	-0.09600075
7	0x3c057d59	0.008147561
8	0x3daea827	0.08528166
9	0xba1d1889	-0.0005992731
10	0x3cc4e041	0.024032714
11	0xbdadaa98	-0.08479804

mid_part.3.weight f4 [12, 12, 3, 3]
0	0x3c213821	0.009840042
1	0x3dccbae7	0.09996586
2	0x3da3d9aa	0.080005005
3	0x3d5aed23	0.053448807
4	0x3d99267e	0.07478045
5	0x3cc61ec8	0.0241846
6	0x3e18acdd	0.14909692
7	0xbdb76224	-0.08954266
8	0xbdcf68c1	-0.10127402
9	0xbcd24c6e	-0.02567121
10	0xbcf74e7f	-0.030188797
11	0xbd06f61e	-0.03294956
12	0x3c85feab	0.016356787
13	0x3db7e422	0.0897906
14	0x3d1d856f	0.03845733
15	0x3db5e4b2	0.08881511
16	0x3daa777e	0.083235726
17	0x3d8ee988	0.06978136
18	0xbc421867	-0.011846638
19	0xbb889e20	-0.0041692406
20	0xbde9aa7c	-0.114094704
21	0x3bad72c3	0.0052932217
22	0xbd8840e4	-0.06653002
23	0xbd3b7a33	-0.045770835
24	0x3dfff756	0.124983475
25	0x3c6e0c4a	0.014529297
26	0x3cf35fb0	0.029708713
27	0xbd0b8b46	-0.03406837
28	0xbcef2869	-0.029194074
29	0x3debf4a4	0.11521271
30	0xbb50d9ef	-0.003186818
31	0xbd8c94b9	-0.06864304
32	0xbce05543	-0.027384406
33	0x3cad5524	0.021158762
34	0xbe1ce57e	-0.1532192
35	0x3db44553	0.08802285
36	0xbd853b3e	-0.0650544
37	0xbd5a10c9	-0.053238664
38	0x3de2b391	0.11069406
39	0xbd68dc80	-0.05685091
40	0xbcd30a3c	-0.025761716
41	0x3b4f08eb	0.003159101
42	0xbd89d080	-0.06729221
43	0xbc1f2e4f	-0.009715631
44	0xbd8ba1f5	-0.06818
45	0x3de603ee	0.11231218
46	0x3c9a4972	0.01883385
47	0x3d8d4c62	0.068993345
48	0x3dfb6b00	0.12276268
49	0x3b77fd1f	0.003784008
50	0x3d16e62a	0.036840595
51	0x3e0cee9d	0.13762899
52	0xbdae44db	-0.08509227
53	0xbde860cf	-0.1134659
54	0xbdaec609	-0.08533866
55	0xbd512202	-0.051057823
56	0x3db3846e	0.08765493
57	0x3d6372e6	0.055529498
58	0xbd83edf4	-0.0644187
59	0x3dc56440	0.09638262
60	0x3df99765	0.12187079
61	0xbcb2be5d	-0.021819288
62	0x3dc86be6	0.09786205
63	0x3d456a62	0.048197158
64	0xbcdbe920	-0.026844561
65	0x3e2bcef0	0.16778159
66	0x3d518840	0.05115533
67	0xbe2aaf5c	-0.16668457
68	0x3e0a6f5a	0.1351904
69	0x3df71108	0.12063795
70	0xbdd3ff8e	-0.103514776
71	0xbc306b5c	-0.010767784
72	0x3d9ccb0b	0.07655915
73	0xbd1c9f73	-0.038238
74	0xbdb3fd9b	-0.08788606
75	0x3daca731	0.08430327
76	0x3c880dfc	0.01660823
77	0xbcfa0e12	-0.030524287
78	0xbc9567ab	-0.01823791
79	0x3bbb9b14	0.005725274
80	0xbd1dcc93	-0.038525175
81	0xbda349aa	-0.07973035
82	0xbceb5beb	-0.028730353
83	0xbd6053f8	-0.05476758
84	0x3de485aa	0.11158307
85	0x3c897c51	0.016782911
86	0xbc95e888	-0.018299356
87	0x3dd83b2f	0.105581634
88	0xbd9331b7	-0.07187217
89	0xbe159cc7	-0.14610587
90	0x3d466ed3	0.048445534
91	0x3d1d0dfe	0.038343422
92	0x3cc90d05	0.024542341
93	0x3c437c97	0.01193156
94	0xbd0b9850	-0.034080803
95	0x3e3d5201	0.18488313
96	0xbd9929b9	-0.07478661
97	0xbd760478	-0.060062855
98	0x3e2a708e	0.16644499
99	0xbdb238a5	-0.0870221
100	0xbd79fd07	-0.06103232
101	0x3df3e89e	0.119096026
102	0xbe2d1f21	-0.16906406
103	0x3c8d5ccd	0.017256165
104	0x3e3ab4c3	0.18233018
105	0xbdf71569	-0.120646305
106	0x3ceee4e7	0.029161884
107	0x3e0ec365	0.13941725
108	0xbd6ab033	-0.057296943
109	0xbd4dcabb	-0.050242167
110	0x3c8ec9e7	0.017430259
111	0xbdb1a77f	-0.086745255
112	0xbdee7f7d	-0.1164541
113	0x3dc01698	0.093793094
114	0xbcb9e52e	-0.02269229
115	0xbdfab8ba	-0.12242265
116	0xbc3d9977	-0.011572233
117	0x3c8bfcd9	0.01708834
118	0x3dc32162	0.09527852
119	0x3da188de	0.078874335
120	0x3d6894b8	0.056782454
121	0xbd93d4c6	-0.07218318
122	0x3d72ce95	0.059279043
123	0xbd82874e	-0.063734636
124	0x3af5fe91	0.0018767883
125	0x3d8cc8e4	0.06874254
126	0xbca6a2f4	-0.020341374
127	0x3da20fcf	0.079131715
128	0x3c43495a	0.011919344
129	0xbd02c9f3	-0.031930875
130	0xbc8f196f	-0.017468182
131	0xbceb26d6	-0.028705042
132	0x3d42a19a	0.047517397
133	0x3d26f93b	0.04076503
134	0xbcaa068e	-0.020755079
135	0x3c990645	0.018679747
136	0xbc5cbd49	-0.0134728635
137	0xbd42d44e	-0.04756575
138	0xbdd5192c	-0.10405192
139	0xbd14c6a5	-0.036322255
140	0x3dadf1d8	0.08493394
141	0xbda8e204	-0.08246234
142	0xbdd15ad5	-0.10222403
143	0x3d3e2443	0.0464213
144	0xbdbb9779	-0.091597505
145	0xbd2d4186	-0.042298816
146	0xbd8c2c1f	-0.06844353
147	0xbccc3730	-0.02492866
148	0xbdb91b97	-0.090384655
149	0x3cf2f06e	0.029655661
150	0xbcf6cebb	-0.030127874
151	0x3c9fc340	0.019502282
152	0xbd0bc491	-0.034123007
153	0x3da1327a	0.07870956
154	0xbc3e4fba	-0.011615688
155	0xbd28ad84	-0.041181102
156	0x3d0a75ce	0.033803754
157	0x3cde85c6	0.027163398
158	0xbcf6f999	-0.030148314
159	0x3d101bd2	0.03518278
160	0xbdcca736	-0.099928305
161	0x3cbfab45	0.023397097
162	0x3d594eb1	0.05305356
163	0x3d5cff0d	0.053954173
164	0x3ce6071d	0.028079564
165	0x3da1db9c	0.07903215
166	0x3d936271	0.071965106
167	0x3d8a2164	0.0674465
168	0x3bf8b1b8	0.007589545
169	0xbd7561dc	-0.05990778
170	0xbdab8300	-0.08374596
171	0xbdc25937	-0.09489673
172	0x3dd678c3	0.10472252
173	0x3e07542b	0.13215701
174	0xbca6cf53	-0.020362532
175	0x3ba8590c	0.0051375683
176	0xbd72cbff	-0.059276577
177	0x3d417e4e	0.047239594
178	0x3d94a24a	0.07257517
179	0xbd323285	-0.04350521
180	0x3cca9fc8	0.024734393
181	0x3d9088ff	0.0705738
182	0xbd8e54e8	-0.06949788
183	0x3d4c4557	0.049870815
184	0xbd85aafb	-0.065267526
185	0xbc8897ac	-0.016673885
186	0xbd25e5b8	-0.04050228
187	0xbd9f7470	-0.077858806
188	0xbd75db7d	-0.060023773
189	0xbd9e0f96	-0.077178165
190	0x3d946088	0.072449744
191	0xbc0615b8	-0.008183889
192	0xbc974bbe	-0.018468734
193	0x3d29da6a	0.04146806
194	0x3d438294	0.04773195
195	0xbdaf03c6	-0.085456416
196	0x3d6d2d8c	0.057904765
197	0xbdaef609	-0.08543021
198	0x3d8f0e8f	0.06985199
199	0xbdc542b3	-0.096318625
200	0xbdc45948	-0.095873415
201	0x3d825728	0.0636428
202	0x3cd8559f	0.026408015
203	0xbd1d0984	-0.038339153
204	0x3d23d3f7	0.039997067
205	0xbdaa8859	-0.083267875
206	0xbbc4cdc0	-0.0060059726
207	0xbc5583f6	-0.01303195
208	0x3bc877ec	0.0061178114
209	0x3ca1d8fd	0.019756788
210	0x3c8475df	0.016169487
211	0xbd8d0536	-0.068857595
212	0xbd783549	-0.06059769
213	0x3d347ff5	0.04406734
214	0xbcdefb46	-0.027219426
215	0x3d4a7487	0.049427535
216	0x3d10ec37	0.035381522
217	0xbd8a3ab7	-0.0674948
218	0x3d7d4569	0.061833773
219	0x3d848d3f	0.06472253
220	0x3dfc309f	0.12313961
221	0x3c50504c	0.012714457
222	0x3d6355b5	0.05550166
223	0x3d6ba034	0.05752583
224	0x3d4c1b0f	0.049830493
225	0xbd0479df	-0.032342788
226	0xbd4e99b8	-0.050439566
227	0x3c33a4af	0.010964557
228	0xbd9bc010	-0.076049924
229	0x3d4a2397	0.049350347
230	0x3d97e9cd	0.07417641
231	0xbb5346e4	-0.00322383
232	0x3d9b0398	0.07569045
233	0x3d995370	0.074866176
234	0xbd74b396	-0.05974158
235	0xbcbe5547	-0.023234023
236	0xbd87bc51	-0.066277154
237	0xbd05545f	-0.032551166
238	0xbdb4f95d	-0.08836625
239	0x3d154b2e	0.03644865
240	0x3b34161c	0.0027478999
241	0xbd3dd782	-0.046348102
242	0xbd96e1f3	-0.07367315
243	0x3c052850	0.008127287
244	0x3d6c313d	0.057664145
245	0x3da4b4cf	0.08042299
246	0xbd1845d6	-0.037175976
247	0x3ca3dfc6	0.020004164
248	0xbdc1258a	-0.09430988
249	0x3d9825c0	0.07429075
250	0x3d8c679d	0.068557
251	0x3b286fd2	0.0025701416
252	0xbd30622b	-0.04306237
253	0x3d85e9de	0.06538747
254	0xbdbf9366	-0.09354286
255	0x3d854d90	0.065089345

mid_part.3.bias f4 [12]
0	0x3d85689d	0.06514094
1	0x3d157dd6	0.03649696
2	0xbcd20e2d	-0.025641525
3	0xbd91bd3e	-0.07116173
4	0xbaa079e1	-0.0012243354
5	0x3d24b1b3	0.04020853
6	0x3c19cc1b	0.009387041
7	0x3c9569d4	0.01823894
8	0x3d48c2d1	0.049013916
9	0xbcdd625a	-0.027024437
10	0xbd3e1fc8	-0.046417028
11	0xbd9d99de	-0.076953635

mid_part.4.weight f4 [12, 12, 3, 3]
0	0xbd8da54a	-0.06916292
1	0xbd1999ed	-0.03750031
2	0xbd6f3ec9	-0.058409486
3	0xbbf68d5e	-0.0075241765
4	0x3d8405cb	0.064464174
5	0x3cc5fbf5	0.024167994
6	0xbd2a3681	-0.041555885
7	0x3de05496	0.109536335
8	0xbd84b69e	-0.06480144
9	0x3d970dce	0.0737568
10	0xbd29b0ee	-0.0414285
11	0xbd8b791d	-0.0681021
12	0xbdbfe3a5	-0.093695916
13	0xbdb5fb42	-0.08885814
14	0xbd4fc763	-0.05072726
15	0xbd608225	-0.054811615
16	0xbd9138dd	-0.07090924
17	0xbd3da88a	-0.04630331
18	0xbb84ac6b	-0.004048874
19	0x3d85b882	0.06529333
20	0x3d8627a9	0.06550533
21	0x3e0448e8	0.12918437
22	0xbcc5b7f0	-0.02413556
23	0x3da69b8c	0.08135137
24	0xbc698654	-0.014253218
25	0x3d4de95a	0.05027137
26	0x3d82ef4a	0.06393297
27	0x3db9ef59	0.09078855
28	0xbd032f45	-0.0320275
29	0x3da30f85	0.079619445
30	0x3d167699	0.036734197
31	0xbd93ff3b	-0.07226416
32	0x3ceef6e1	0.029170455
33	0xbdaf777f	-0.08567714
34	0xbd66cd26	-0.05634799
35	0xbb9c6bba	-0.004773584
36	0x3d789e6d	0.06069796
37	0xbd1acb6a	-0.037791647
38	0xbdb5b3cd	-0.08872185
39	0x3d59ffc2	0.053222425
40	0xbb8858cd	-0.0041609765
41	0x3d903080	0.07040501
42	0xbd8d0a3d	-0.068867184
43	0xbc23bb86	-0.00999344
44	0xbd8e91fd	-0.06961439
45	0x3c76ba79	0.015059107
46	0x3beaf7fb	0.007170675
47	0xbd5b5964	-0.053552046
48	0xbd0a678c	-0.033790156
49	0x3d86bedc	0.06579372
50	0xbd299025	-0.041397233
51	0xbe060d66	-0.13091049
52	0xbd9a557a	-0.075358346
53	0xbd5e08e1	-0.054207686
54	0xbdd9a269	-0.106266804
55	0x3d2931c3	0.041307222
56	0x3dade3ec	0.08490738
57	0x3d4b7741	0.049674276
58	0x3d8d55af	0.069011085
59	0x3bb6e70d	0.0055817426
60	0xbd9db397	-0.0770027
61	0x3d85bf36	0.06530611
62	0xbbb2ad74	-0.005452806
63	0x3cff95fb	0.031199446
64	0xbdab7475	-0.08371822
65	0x3d2df300	0.04246807
66	0xbd4a12eb	-0.049334448
67	0x3d400816	0.04688271
68	0x3d2983a3	0.041385304
69	0xbdfcd1f7	-0.12344735
70	0x3b079146	0.0020685955
71	0xbd87f7d1	-0.06639064
72	0x3d7e43fd	0.062076557
73	0x3c55d2d8	0.013050757
74	0xbdd02904	-0.10164073
75	0x3ba35a0c	0.0049850997
76	0xbc44d5c7	-0.012013859
77	0x3db2f043	0.087372325
78	0x3d8d8085	0.06909279
79	0xbdd9a917	-0.106279545
80	0xbd9293bb	-0.071570836
81	0x3d869b74	0.06572619
82	0xbc9459f7	-0.018109305
83	0x3dc452d8	0.09586114
84	0x3c87e642	0.016589288
85	0xba2feec4	-0.0006711299
86	0x3cf2369c	0.029567055
87	0xbdb42e56	-0.087979004
88	0x3db6400a	0.08898933
89	0x3dc0547e	0.093911156
90	0xbc3bba98	-0.011458062
91	0x3c6bbe8e	0.0143886935
92	0xbdd1f198	-0.102511585
93	0xbd171ce6	-0.036892794
94	0xbcffcc29	-0.03122528
95	0x3d4f3a11	0.050592486
96	0x3cd94aa0	0.026524842
97	0x3d87475b	0.06605407
98	0xbb55e073	-0.0032635003
99	0x39de5e8d	0.00042413585
100	0xbc7bcd6d	-0.015368802
101	0xbdc81c91	-0.097710736
102	0xbd06cbc5	-0.032909174
103	0xbdd129ec	-0.10213074
104	0xbd6999f5	-0.05703159
105	0x3d88094d	0.06642399
106	0x3b1ef8b3	0.0024257123
107	0xbd65f433	-0.05614109
108	0x3d42aeda	0.047530033
109	0xbd53cf21	-0.051711205
110	0x3dd8a7f8	0.105789125
111	0xbe0110c8	-0.12604058
112	0xbd9a176c	-0.075239986
113	0x3dfc474a	0.12318285
114	0x3d56d104	0.052445427
115	0x3d935f71	0.071959384
116	0xbc922ade	-0.017842706
117	0xbd35f20e	-0.044420294
118	0x3d609f6c	0.054839537
119	0xbd52eb84	-0.051494136
120	0x3c36de5e	0.011161415
121	0xbbee07db	-0.00726412
122	0x3d122cc6	0.03568723
123	0x3dddedb4	0.10836354
124	0xba5c4967	-0.0008403272
125	0x3d05757d	0.03258275
126	0xbd473d2f	-0.048642334
127	0xbd75fc72	-0.060055204
128	0x3d45462d	0.048162628
129	0xbd5b4d67	-0.053540614
130	0x3ddbc5a4	0.10731056
131	0x3ceb5a3f	0.028729556
132	0xbdabb279	-0.0838365
133	0x3c10d07c	0.008838769
134	0xbd3ad7a0	-0.045615792
135	0xbd4e64f4	-0.050389245
136	0xbd97e0b7	-0.07415908
137	0x3adba157	0.0016756457
138	0xbce5a4f3	-0.028032755
139	0x3cf5a1e8	0.02998443
140	0x3c4ed6fe	0.0126245
141	0x3dc14c4b	0.0943838
142	0x3c89062c	0.016726576
143	0xbde9ddd8	-0.114192665
144	0x3cc4de55	0.024031797
145	0xbdbc1b16	-0.09184854
146	0x3d3ef6a9	0.046621952
147	0xbdd87a1b	-0.10570165
148	0xbdbadcca	-0.091241434
149	0x3bedcab3	0.0072568296
150	0xbd968d55	-0.07351176
151	0xbde76930	-0.1129936
152	0xbd03734e	-0.032092385
153	0x3da554cc	0.08072814
154	0x3db066f3	0.08613386
155	0xbd5f0267	-0.05444565
156	0x3d85573b	0.065107785
157	0xbd4e1b73	-0.050319146
158	0x3d595806	0.05306246
159	0xbe03337e	-0.12812611
160	0xbe16e56e	-0.14735958
161	0xbd8a25ae	-0.06745468
162	0xbdd41825	-0.10356168
163	0xbd04fc14	-0.032466963
164	0xbc5c4c3f	-0.013445913
165	0x3bf09184	0.0073415656
166	0xbcb642d3	-0.022248661
167	0xbca57812	-0.020198856
168	0xbbf874da	-0.007582289
169	0x3c8ad5b9	0.016947614
170	0xbb702ffc	-0.0036649695
171	0x3d4b040c	0.049564406
172	0xbdc302f0	-0.09522045
173	0xbc0fb456	-0.008771023
174	0xbce3dc61	-0.027815046
175	0xbd7ecf14	-0.062209204
176	0x3dabde66	0.083920285
177	0xbdae8ab6	-0.08522551
178	0xbe0e1501	-0.138752
179	0xbce74c04	-0.02823449
180	0x3c90c3b3	0.017671442
181	0x3d0887de	0.033332698
182	0xbde006bb	-0.10938784
183	0xbd077215	-0.03306778
184	0x3c5a6d73	0.013331759
185	0xbdbc69c5	-0.091998614
186	0x3db92f5a	0.09042235
187	0xbddaf2ac	-0.10690817
188	0xbdc13fc9	-0.09435994
189	0xbdc8f970	-0.098132014
190	0x3cde229b	0.02711611
191	0xbd5167da	-0.05112443
192	0xbdc06243	-0.09393742
193	0x3d92b34d	0.07163105
194	0x3e1b87ca	0.15188518
195	0xbd996277	-0.07489484
196	0xbdafacb0	-0.085778594
197	0x3d23e0c7	0.040009286
198	0xbcdf7ddf	-0.0272817
199	0xbc882dfd	-0.016623491
200	0x3daa75e5	0.08323268
201	0x3dc2511a	0.09488125
202	0x3d8dd827	0.069259934
203	0x3d42a1d7	0.047517624
204	0x3de328d8	0.11091775
205	0x3c1f44fd	0.009721038
206	0xbd01eacc	-0.03171806
207	0x3b66b14f	0.00352009
208	0x3dab9747	0.08378463
209	0x3cb71c6d	0.022352422
210	0x3dd873e2	0.10568978
211	0x3d63fc2c	0.05566041
212	0x3de0100f	0.10940563
213	0xbd7c56e5	-0.061606307
214	0xbbb971bc	-0.00565931
215	0x3dc4cd88	0.096095145
216	0x3c1bd883	0.00951207
217	0xbd6891c6	-0.056779645
218	0x3e203e15	0.15648682
219	0xbd9077af	-0.07054078
220	0xbbf942f2	-0.0076068575
221	0x3c96b917	0.018398805
222	0xbdcd39ec	-0.10020813
223	0x3dd94f6c	0.10610852
224	0x3d11ab5e	0.03556382
225	0x3c2b4029	0.010452309
226	0xbd5c0db7	-0.053724017
227	0x3d6fc6df	0.058539268
228	0x3cbdd728	0.023173884
229	0xbc90aeb2	-0.017661426
230	0xbd6a3e2e	-0.057188205
231	0x3d4b00fa	0.04956148
232	0xbdb1af5a	-0.08676024
233	0xbc9a1bf8	-0.018812165
234	0xbcd95bd2	-0.026533041
235	0x3d5858be	0.052819006
236	0xbcc9375c	-0.02456253
237	0xbaf21dd5	-0.0018472025
238	0x3d5e9119	0.054337595
239	0xbc852ebb	-0.016257634
240	0xbc5b7a7c	-0.013395902
241	0x3e0c78a1	0.13717891
242	0x3c9e5475	0.019327382
243	0xbd5b8596	-0.053594194
244	0xb9a9f87d	-0.0003241933
245	0xbd8ab6fe	-0.06773184
246	0xbe08ed30	-0.1337173
247	0x3bf7ab25	0.007558244
248	0xbd803bcc	-0.06261405
249	0xbc120e80	-0.00891459
250	0xbbf8ba25	-0.0075905495
251	0x3db769c5	0.08955721
252	0x3bc03cd6	0.005866627
253	0xbdb2861a	-0.08716984
254	0xbd7dcf26	-0.06196513
255	0xbdd190cc	-0.10232696

mid_part.4.bias f4 [12]
0	0x3c879f86	0.016555559
1	0x3c836fa0	0.016044438
2	0xbab894ed	-0.0014082469
3	0x3c9489c1	0.018132092
4	0xbd9f974a	-0.07792528
5	0xbdb5a71f	-0.088697664
6	0xbd0ec112	-0.034852095
7	0xbd62e2c1	-0.05539203
8	0x3d6c1c02	0.057643898
9	0xbc080d8a	-0.008304009
10	0x3df6aa8c	0.12044248
11	0x3d8a4ec3	0.06753304
