checkpoints/model_up_4_epoch_100.pth (torch_old, 50087 bytes, 15 tensors)

first_part.0.weight f4 [56, 1, 5, 5]
00000000: e375 ddbc 4a86 653d bd8e 7bbd f48d 093e
00000010: 9658 e1bd aa86 413e 0101 febd 19b7 1cbe
00000020: 922c d0bd 35cd 133e c416 72bd 0bf7 403d
00000030: 4760 67be 2a7b 12be 17ef 21bd 8db5 a2bc
00000040: 509e 28be cabe ce3d eddb fbbc 9f44 e03d
00000050: 5ed3 2d3e d602 633d 7a5d 883d c8c1 673e
00000060: a95c 37bd 9a2e 433d a058 febd 7c5d c73d
00000070: 1984 233e 35b1 73be 9758 3f3e 0591 da3d
00000080: 3f86 1c3e 2a82 043e beed 243e 7045 9eba
00000090: 8400 37be 067c 55bd e88a cbbd baeb 683c
000000a0: d955 aebc db33 02be fce0 9fbd b5ec 7e3e
000000b0: 6c6e 14bc a1c1 683c 85bb 7dbb cb12 8d3d
000000c0: 9b94 403e 9d32 c23d 8c53 ca3d a8a4 773d
000000d0: db83 6c3d e8a1 c73d 21de f5bb 239c 34be
000000e0: 5c18 0abe 0aec 273e 4221 393d 66c4 00be
000000f0: 5557 363c c18f cf3d 58e8 8ebe 478f 2bbe
00000100: 8508 72bd 22d4 80bc 4007 b9bd 6fe5 92bd
00000110: 3068 57be 4d95 e53d 4e63 303e 27a3 c63d
00000120: b05c 22be d45d 1bbe 6d82 e03d dcc8 9c3c
00000130: f70d c93d 7ff9 0fbe db68 0cbd 150e 6e3e
00000140: 9956 9a3d 4ff4 be3b 9dc0 adbd 03ef ffbd
00000150: 9d58 1ebe e32f 1ebe 1d96 00be 2b7d e03d
00000160: 5e57 2e3e a1a7 8a3c ed65 5ebe 26b4 2f3e
00000170: a42a cf3d 0f2a 203d 2187 09be 5a8d 8dbc
00000180: 9df7 173e 2179 a63d e193 133e 9b11 d8bc
00000190: eb6f 153e ae8f 1abe d1a8 e43c a69a efbd
000001a0: b02c 60bd 1489 3bbd e054 043d cd60 5d3e
000001b0: 4958 ff3d d30f abbb eefa 223e 8518 87bd
000001c0: dba6 213e 81b3 c33c 6489 fbbc 7e24 f03c
000001d0: 48c8 02be abed 663d 4650 b43d f0cc 2d3e
000001e0: 5c50 93bd d65e 9b3d 93d5 573e 83bf b2bd
000001f0: 4f1b 303e 4419 c2bc 04a5 043e 9bd1 243e
00000200: 7ebf 033e 0d34 af3e 5a54 313b 3d1e 1b3e
00000210: 6aff cbbb 3c17 2cbe 4863 0abd 9b0f 1abe
00000220: acd6 0d3e a481 893d d74a 573e 5ee8 05be
00000230: 9066 c93a 07f1 e2bc 5c72 343d 7b5b 103e
00000240: 8b5e 26bd 7d62 31bd 6033 babc 497d 923d
00000250: ffc9 b9bd ddf6 57bd a879 15be c2c0 86bd
00000260: ce51 053d f1cc 023e cfdd 8b3d 40a5 183e
00000270: c237 cebd 91e1 f33c 6e9d 2bbe 9bee b83d
00000280: c754 583d b343 723e ca12 cabd 7576 6c3e
00000290: ea0a 253e 09bc 293e ab11 8c3d 55cb 673e
000002a0: a0c1 0c3e c6af 023e 00d6 c5bc 4d86 15be
000002b0: 5272 b93b 5a4e 063d 071c 1abe 9378 dbbd
000002c0: 24ee 42be 0561 94bd 3cd7 303e abf6 023d
000002d0: 67d7 76bc 3386 8b3c 5942 083e 1fc4 4dbe
000002e0: 6ee5 33be 62df 50bd 5f9c 92bd a0fa 1b3e
000002f0: 81ef 0e3e a754 50be f6ff 11be 16de 19be
00000300: efd1 013e 9ad8 3c3e 0102 1abe 27bc 86bd
00000310: cc95 ce3d bc63 c4bd 0d7b 3c3e ae22 503d
00000320: 3d55 dfbc 9a0c f13c 3fb1 553d 6519 83bd
00000330: 9ec6 18be abaf 4d3d 1932 143d db1b 483c
00000340: 11c8 b13b 59ae 2d3e 40d9 30bc 5a64 8ebc
00000350: d58f 2b3d ffd8 ebbd 0dfc c53d 1b4c cabb
00000360: 49c2 ce3d c6da 0ebe 6f01 973c 5cb6 563d
00000370: bace d3bd 0878 e5bd fd00 ce3d 9b76 91bc
00000380: 3bb6 393e b103 38be 27e5 bbbd 7a04 2cbe
00000390: 5a44 b73d d3ee 293c 2d78 fcbc a8ab 66bd
000003a0: 3fbb 39be da47 3b3d f257 803c fc9a 10be
000003b0: fa43 233d f299 21bd e6f4 63be 4bc5 d63d
000003c0: fbf1 f03d 6cf6 6cbd dc9e 2cbe 6b92 3d3b
000003d0: 9a74 223e 73a3 563e 7b09 0bbe a38b b0bd
000003e0: 77a7 2f3e 092d f13d e3b7 ee3d 9892 bbbd
000003f0: b78a 423e 91ff 25be acc3 a2bc 9177 883b
-0.027033752 0.05603627 -0.061415423 0.13433057 -0.110032246 0.18899027 -0.12402535 -0.15304221
-0.10164751 0.14433749 -0.059103742 0.0471106 -0.2259532 -0.14304796 -0.039534654 -0.01986196
-0.16466641 0.10094984 -0.030744517 0.109505884 0.16975161 0.055422626 0.06658454 0.22632515
-0.044766102 0.047651865 -0.124192476 0.097346276 0.1596836 -0.23798068 0.18686138 0.106721915
0.15285586 0.12940279 0.16106316 -0.0012075137 -0.1787129 -0.05212023 -0.09938604 0.014216358
-0.02128117 -0.12715094 -0.07806584 0.24894984 -0.00905953 0.014206321 -0.0038716507 0.0688835
0.18806688 0.0948231 0.098792166 0.060459763 0.057742935 0.09747678 -0.0075032865 -0.17637686
-0.13485855 0.16398636 0.045197733 -0.1257492 0.01112922 0.10134841 -0.2791164 -0.16753875
-0.059090156 -0.015726153 -0.09034586 -0.07172667 -0.21035838 0.112101175 0.17225382 0.096990876
-0.1585567 -0.15172511 0.10962377 0.019138746 0.09817117 -0.14060019 -0.034279685 0.2324756
0.075360484 0.0058274637 -0.08484004 -0.1249676 -0.15463491 -0.15447955 -0.12557264 0.10961374
0.17025515 0.016925635 -0.21718569 0.17158565 0.10115555 0.03910261 -0.13430454 -0.017279316
0.1484055 0.08128572 0.1441188 -0.026375582 0.14593475 -0.15093872 0.02791253 -0.11699419
-0.054730117 -0.045785025 0.032307506 0.21618958 0.12468011 -0.0052203923 0.15916035 -0.065964736
0.15786307 0.023889305 -0.030705161 0.029314276 -0.12771714 0.056379 0.088043734 0.16972709
-0.07193062 0.07586448 0.21077566 -0.08727934 0.17197917 -0.023693688 0.12953573 0.16095583
0.12866017 0.342194 0.0027058334 0.15148254 -0.006225516 -0.16805738 -0.03378609 -0.15045016
0.13851422 0.0671418 0.21024643 -0.13076922 0.0015365649 -0.027702821 0.044054374 0.14097397
-0.040617507 -0.043306816 -0.022729576 0.071528025 -0.09071731 -0.05272566 -0.1459719 -0.065797344
0.03254872 0.12773491 0.06829416 0.14906788 -0.10069229 0.029770644 -0.16759273 0.090298854
0.052815225 0.23658638 -0.09866865 0.23092063 0.16117445 0.16575636 0.068393074 0.22636159
0.13745737 0.12762365 -0.024149895 -0.14602013 0.00565938 0.032789566 -0.15049754 -0.10716357
-0.19036156 -0.072450675 0.17269605 0.031973522 -0.015066004 0.017031765 0.1330656 -0.20094346
-0.17567989 -0.050994284 -0.07158732 0.15232325 0.13958551 -0.20344792 -0.14257798 -0.15026125
0.1267774 0.18442002 -0.15039827 -0.06578856 0.10087165 -0.09589335 0.18406315 0.050814323
-0.027262324 0.029424954 0.05217099 -0.06401328 -0.14919516 0.05021636 0.03618059 0.0122136725
0.005425461 0.1696104 -0.010793984 -0.017381836 0.041885216 -0.11515998 0.096672155 -0.0061736233
0.10095651 -0.13950643 0.0184333 0.052420005 -0.10342164 -0.11204535 0.10058782 -0.01775675
0.18135922 -0.17970158 -0.09174567 -0.16798583 0.08948584 0.010371882 -0.030819023 -0.056316048
-0.18137835 0.04572282 0.015666936 -0.14121622 0.03985975 -0.039453454 -0.2226139 0.104868494
0.11764904 -0.057852194 -0.16857475 0.0028926383 0.15864792 0.20960788 -0.13577835 -0.086203836
0.17153727 0.11776168 0.11656167 -0.0915882 0.18998228 -0.16210772 -0.019868694 0.004164644

first_part.0.bias f4 [56]
00000000: b178 663e 0854 1a3d d005 aebd e60b 9f3d
00000010: 8514 24be 0b20 4cbc a01e 013e 40f1 1d3e
00000020: 46a3 09be b431 91bd 6b56 4fbd c0a3 2cbe
00000030: ddd1 b13d 16c2 893d 8ef8 183d 7530 113e
00000040: e0ae afbd f065 b83d a302 8c3d 5524 04be
00000050: 7435 babd 86c7 f8bd 4e5d d83d 83e2 13be
00000060: 1507 37be 3136 55bd 96b8 acbd 9a9c 71bd
00000070: fa48 ffbd a15e 523e c8ee 473e 3161 40be
00000080: b781 b5bd 0702 a53d 030b 24be 2bf9 99bd
00000090: 80fa 97bd e6d4 fabc c69f 543e db89 393e
000000a0: 5544 11be 6638 3ebe 78f4 aabc 03e1 b43d
000000b0: ea8f 18be f3fa 183e 1387 243b cb59 bd3d
000000c0: 92bd 013e 7950 003e bb7e 063e 0abf 3a3e
000000d0: 732a 4fbc 7a23 a6bd ebf1 c63d 75e9 1b3e
0.22506978 0.037677795 -0.084972024 0.07765941 -0.16023453 -0.0124588115 0.12609339 0.15424061
-0.1344119 -0.07089558 -0.050619524 -0.1685934 0.08682606 0.06726472 0.037346415 0.14178641
-0.08578277 0.09003818 0.068364404 -0.12904485 -0.090922266 -0.12147431 0.105646715 -0.14441876
-0.17873795 -0.052053634 -0.084336445 -0.058987238 -0.12465091 0.2054391 0.19524682 -0.18787076
-0.08862632 0.08057027 -0.16019826 -0.07518228 -0.07420826 -0.030619096 0.20764074 0.18118994
-0.14186223 -0.18576202 -0.020868525 0.0883198 -0.14898649 0.1493948 0.0025104925 0.09245642
0.12669972 0.12530698 0.13134281 0.18236938 -0.012644398 -0.08112235 0.09714111 0.15225776

mid_part.0.0.weight f4 [12, 56, 1, 1]
00000000: 3958 a2bd d22b c43d 663f d13d cb0c 4a3d
00000010: 7092 c03d ba14 c63c 488e 683d 32c9 d2bd
00000020: 1cd6 3c3d ae02 863b c19a 353d f294 5c3d
00000030: 4e7d 93bd 3551 0d3e 9298 003e b758 8bbd
00000040: 9f1e 5bbd cfac aa3d acbe 833d af13 66bd
00000050: 6fed 9b3c 8b10 0abe 43e7 bcbd 27da 983c
00000060: c8b1 fa3d 03ad 27bc 1fcb 603c 715c 873d
00000070: 9ca4 acbd d5cc 853c 9d4f dd3d 0967 993d
00000080: a706 7c3d 57de 90bd 5766 6d3b 85de a23d
00000090: e47e c33d 77e4 06be 5cb6 8dbc add9 cebd
000000a0: a67e 41bd 1837 243d 9c78 8cbc 59d6 4dbd
000000b0: 3781 01be 2217 a13d d8f5 783d 96d5 e43c
000000c0: 5093 143d 2eb8 9b3d efc5 91bc c3c7 883d
000000d0: 68df 82be 886b 12be 16ea 05be 416c e63a
000000e0: 51aa 38be 1bc3 b43b 114f a3bc cd09 d2bd
000000f0: 7246 1d3e 4a34 49bc a24a e13d 4c7e f03d
00000100: 250d 55bd 29a3 8fbd 7c83 143e 181f e53c
00000110: e0a3 dc3d edfd 04bc 7b47 bd3d 8bec 10be
00000120: 218f 1a3c 5998 aa3d 1d35 d8bc c2fc f9bd
00000130: 71ec 513c c8c1 1c3d 537e 293c 4624 2b3d
00000140: 5165 723d 5990 99bd c689 7b3c 2a43 edbd
00000150: db9f 6e3d 17f4 f6bd 69e9 9abd e471 ff3c
00000160: abe7 bf3d a268 e43d 706e a4bd 2775 07be
00000170: a973 b03d 1cec a7bd 41b0 08be ccdf b03c
00000180: 18d0 003e aaf0 0d3d 23ff a8bb c6b2 0bbe
00000190: b63a 0e3e 8cd1 bb3d d01e 003e 3854 c43d
000001a0: f703 04be 30de 01be 8aa7 01bd d23e 3e3d
000001b0: 1d25 d9bd 5766 e63d e22f 53bd 8e6b bf3a
000001c0: da59 14bd 05ea c73d 6f57 233a 5459 ff3c
000001d0: 177b 403d 5717 093d ea4b f1bc 9ac6 a53c
000001e0: 0f05 063d 9146 03be e1d2 913c 04fe e9bd
000001f0: e077 00be 97f8 44bc 3bd2 093d df52 16bc
00000200: 0014 d1bb cee9 56bd 9bd8 25bd 570d b6ba
00000210: f9c6 b4bd 2e66 403d 0f29 633d 230d cfbc
00000220: 6661 2c3a 4ddf 263d f859 213e ee58 0cbd
00000230: 6383 d9bd 5760 0abe f1c4 0dbd ab96 f5bd
00000240: 946b cfbd 495f 90bd b07b e7bc c90f 8cbc
00000250: 5e20 793c 5689 a73d 9ea7 093e 7080 23bd
00000260: b79a d1bd 2ace 083e 6add 003e 10fb fb3d
00000270: 0ed0 6d3d 09ec ac3d 1f6d e13c 99b8 abbd
00000280: 99dc 46be f5cd bcbd e741 edbb 210d 84bd
00000290: 858c 38bd 7d51 8d3d 93fe febd a43a c63c
000002a0: 3ed8 2b3e 10b5 103e cc94 88bb 7cd2 20bd
000002b0: 07c6 3fbd c894 253d a2f4 8dbd 7b7e 2f3e
000002c0: f933 39bb f560 3abd c02e b0bd 309a 8dbd
000002d0: 635a bbbd f309 e7bd d3f8 0cbe 1cf4 a53d
000002e0: 0102 16bd 3f54 273c 240d a4bc ca21 a9bd
000002f0: 0390 acbd 4011 09bc c931 c0bd 38c2 93bd
00000300: 7608 2c3c 2233 30bd fcc5 a53d 85df f23d
00000310: 2c40 a53d f508 053e 9ffc 00bd cc57 023d
00000320: ebb2 a9bc 956a 433e 2aa7 37be 64a0 58bd
00000330: 2d7b 8a3d c36d 7c3d c557 f3bd 0aa1 233e
00000340: 726d bb3d 56d3 cc3d 8c05 e3bd bebc a1bc
00000350: 8769 983c d398 f83d 6b78 a13d 8366 f5bd
00000360: 906a 043e c040 5239 1732 3ebd 9032 d83d
00000370: 0b36 1f3e 1ec8 01bc c24f 09bd c822 033e
00000380: 0d43 95bd f664 8cbc d714 89bd 18e3 babd
00000390: fd9b 84bb 49cd dc3c 20e9 0d3d e424 4bbd
000003a0: bdac dd3d 2c01 07bd 5351 c7bd 4694 16bd
000003b0: a2f1 33bd a148 533d 4ccd 033e 6ec9 eabc
000003c0: 042d 133e 38cb 353e efb6 21bb 5cd0 943d
000003d0: 4bdc 2e3d 85c2 5f3d 2960 163e 17dd 25bd
000003e0: 280d 09be 5194 a8bd b862 083e 5ebf 09be
000003f0: 325c 9a3d d16f 52bd fec8 0abe b7e4 55bd
-0.079269834 0.095786706 0.102171704 0.049328607 0.09402931 0.024179805 0.056776315 -0.10292281
0.046102628 0.004089675 0.044337038 0.053852983 -0.07201634 0.1380051 0.12558201 -0.068040304
-0.053496 0.08333742 0.06432852 -0.056171115 0.019034116 -0.13482873 -0.09223797 0.01865871
0.1224094 -0.01023412 0.013720303 0.06609429 -0.08429834 0.016333023 0.10806201 0.074903555
0.06152978 -0.07073658 0.003622433 0.079525985 0.09545687 -0.1317309 -0.01729887 -0.10100112
-0.047239922 0.040091604 -0.017147355 -0.050253246 -0.12646948 0.0786574 0.06078133 0.027933877
0.0362733 0.07603489 -0.017794577 0.066787265 -0.2556107 -0.14298832 -0.13077578 0.001757987
-0.1803372 0.0055164224 -0.019935163 -0.102557756 0.15358904 -0.012280533 0.11000563 0.11742839
-0.05201449 -0.07013542 0.14503282 0.027968928 0.10773444 -0.008117181 0.092421494 -0.14152734
0.009433539 0.08329839 -0.026392514 -0.12206413 0.01281272 0.03827074 0.010345059 0.04178264
0.059178654 -0.07498235 0.015352672 -0.11585076 0.05825792 -0.12058275 -0.07564051 0.031182237
0.09370359 0.111527696 -0.08028877 -0.13228284 0.086158104 -0.08199331 -0.13348486 0.02159109
0.12579381 0.034653343 -0.005157368 -0.13642415 0.13889584 0.09170827 0.12511754 0.09586376
-0.12892137 -0.12682414 -0.03165392 0.04644663 -0.10602782 0.112499885 -0.051559336 0.0014604197
-0.0362185 0.097614326 0.0006230985 0.031170525 0.046992388 0.033469524 -0.029455144 0.020236302
0.032719668 -0.12819888 0.01780075 -0.11425403 -0.12545729 -0.012022159 0.033647757 -0.009175031
-0.006380558 -0.052469067 -0.040489774 -0.0013889474 -0.088270135 0.046972446 0.05545908 -0.025274819
0.0006575793 0.0407403 0.15756977 -0.034264497 -0.10620763 -0.13513313 -0.034611646 -0.11991628
-0.10127941 -0.07049424 -0.028257221 -0.01709737 0.015205471 0.081804916 0.13442847 -0.03991741
-0.10234588 0.13359895 0.12584463 0.12303746 0.058059745 0.08443458 0.027517853 -0.083848186
-0.19420089 -0.09218971 -0.007240522 -0.06447817 -0.045055885 0.06900308 -0.124509 0.024197884
0.16781709 0.1413157 -0.0041681286 -0.039263234 -0.046819713 0.040425092 -0.06931426 0.17138092
-0.0028259738 -0.04550262 -0.08602667 -0.069141746 -0.09148099 -0.112811945 -0.13766794 0.08103201
-0.036623005 0.010212957 -0.020025797 -0.08258398 -0.084259056 -0.008365929 -0.09384496 -0.07214779
0.010500064 -0.043017514 0.08094403 0.11859039 0.080688804 0.12991698 -0.03149092 0.03182201
-0.020715198 0.19083627 -0.17934862 -0.052887335 0.06761775 0.061628114 -0.11881975 0.159794
0.091517344 0.10001247 -0.11085042 -0.01974332 0.018605007 0.12138524 0.07884296 -0.11982443
0.12931275 0.00020051282 -0.04643449 0.10556519 0.1554796 -0.007921247 -0.03352333 0.12806237
-0.072881795 -0.017137986 -0.06693428 -0.09125346 -0.0040469156 0.026953356 0.034646153 -0.04959573
0.10823963 -0.032960102 -0.09732308 -0.0367625 -0.04393161 0.051582936 0.12871283 -0.028660502
0.14372641 0.17753303 -0.0024675687 0.07266304 0.042690556 0.054628868 0.1468512 -0.04049405
-0.13383925 -0.08231414 0.13318908 -0.13451907 0.07537116 -0.051376168 -0.13553235 -0.052220073

mid_part.0.0.bias f4 [12]
00000000: 306b 0cbe d488 333d a9f4 e8bc e38f 3d3d
00000010: a8c4 dd3d 9f8b 8dbc 6034 a33c 7d16 97bd
00000020: b3b4 393d 8d55 d8bc c5e5 97bc ae45 dc3b
-0.13712764 0.04383166 -0.028436976 0.0462798 0.10828525 -0.01727849 0.019922435 -0.07377336
0.045338344 -0.026407981 -0.01854218 0.0067221737

mid_part.1.weight f4 [12, 12, 3, 3]
00000000: 7437 91bd a155 22bd aca4 a63d 4dbc b03d
00000010: 8174 b83d 1c5f 01be d1c2 d8bd dd72 253d
00000020: b95b 103e 54a3 d13d 5e37 3fbd e8b9 c8bc
00000030: 0814 773d ec04 c5bd 4dd8 c6bd 996d dcbb
00000040: cd37 053d 7a10 2abd 6726 b53c 9dc1 28b8
00000050: 9eb8 8fbd da60 933c 3df8 0cbb 0176 b03d
00000060: 9bcf 1cbe 6556 f7bd d85a 02be b5bf 9a3c
00000070: bd23 163d 2e38 1d3d 31f0 a9bd 218a 49bb
00000080: c10b 9a3e e62f 113e 0923 1b3e b0b0 49be
00000090: afc0 023e 42c6 09bd 614b c03d 86dc 203d
000000a0: 50ee 2abe ec97 79bd 5725 5f3c 9942 2cbb
000000b0: 45a8 01be cfc2 5f3e eb23 053d a1eb 743d
000000c0: 4a7d 63bd b431 3dbe 0f07 4fbe bf70 333c
000000d0: a73e 143e f353 4fbd f274 c2bd d099 18bd
000000e0: 7092 223c d6bf e23d 946b 99bc 5327 cebd
000000f0: d725 a4bd bd2f ae3d 1665 e03c 6b0a ae3d
00000100: 705e be3d 6166 013d 76b2 ce3d 63d4 acbe
00000110: a0b7 b43d 0965 81bd 063f bb3d f4df 9bbd
00000120: 972a afbd 0be3 94bd 3016 97bd b991 9b3d
00000130: 8ddc a63d d4e4 953d 1747 13bc 3a33 8abc
00000140: 41bf 243d 9c30 8bbd 0dbc dabd 8b27 893c
00000150: b118 d2bd 4b73 47bd d53e 973d e166 7b3c
00000160: 1bc8 583d f60b 6a3d 371a b43d 4d84 2e3e
00000170: 0498 56be 19a5 13be 6774 563e 4617 9bbe
00000180: fba6 a7be 121d 453d 223e 303d 21a6 2f3d
00000190: cabf 65be 4317 1b3e 25fb 1a3e 5a93 a7bc
000001a0: ae96 863c e438 4c3e 4ee7 8e3e 05f4 483e
000001b0: d4ff 2fbc 59cd fa3d dc95 e53d 6515 883d
000001c0: ea8f bfbc 1e69 a13d 322c 90bd be80 a43d
000001d0: 7c29 593d be57 2d3d 55f8 5c3d 0f53 cf3d
000001e0: ff3a 46bd ef25 e03d 91d7 8f3d 3bd2 94bb
000001f0: a51b 6d3d 799d 033c 2d2f 943d 19d1 f13c
00000200: 7e82 313d 98fb eb3d 7801 c43d 18c3 b13c
00000210: 4e6c 023b a8bd 32bd 004a 63bd fa74 5a3d
00000220: 7e76 51bc 3a4e 94bc 86cc 05be c7ca e0bc
00000230: 6fa0 06bc 8f7d 913b ca15 adbd fd6b a13d
00000240: a934 973c af8a 95bd 8832 323d 4d78 4fbd
00000250: 3181 ac3d 7d0c f93c 4bd9 98bd d3ef 5ebd
00000260: 2ffd 013d b5e1 bf3c b9ef 7e3d e759 333e
00000270: cafe 173d 4669 fd3c 9c60 f73d b5b2 c4bd
00000280: d3f4 8f3c bb7a e43d f20d 8ebb 838e 51bd
00000290: 5170 d2bd 08a8 3b3d 0214 2c3c 9a87 333d
000002a0: 1fc9 863d c334 92bd cca0 caba cc35 493c
000002b0: e6a2 37bd d4c5 da3d 3831 c03c 90ce 08be
000002c0: 4c32 813c 23b2 463d 5784 84bd b1b6 f73d
000002d0: 79ba 513d 1e7a f8bd 991d 88bd e4fc f53b
000002e0: e550 93bd 39a1 023d 41b3 da3c e99e cfbd
000002f0: b592 823b b90b 04bd 03f0 9bbd 4164 8abd
00000300: edcc 9bbb 21b8 57bc 07f7 40bc e775 b4ba
00000310: 1267 b13d 88a0 f43d 1d99 8e3c 47be 5ebd
00000320: 56ab a13d ccb1 933d dae1 2f3d 00b5 4abd
00000330: 5405 8b3d 728b 95bd 3089 09bd 12ab 423d
00000340: 31d0 dc3d e16a b93d d6ed 763d 9996 03be
00000350: c324 d93d 27ac 9e3d 19da edbc c59d e93d
00000360: 20a2 d13b 321f 7abd 046f 89bd 5bc6 45bb
00000370: 4562 113b f8da 2dbd 90e4 bebd 99c4 0abd
00000380: e602 113d 98f7 903d 4763 123d 3d61 70bd
00000390: 0a6e ae3d f54a afbd 4b14 e5bd ebf8 8dbd
000003a0: 3d54 aa3c e1f1 5fbd 1f20 033d 938c ccbd
000003b0: b707 503b 74d9 00be 6b42 91bb 66d4 dcbc
000003c0: 3bea 533d 3e16 d7bd a9fc 943c e36e c53d
000003d0: fe0c 443d efe3 91bd 0d2a a1bc 1ee2 a4bd
000003e0: 88af 5abc 5038 f53d aa37 f13c 6e6c 5d3c
000003f0: cf29 3dbd acb3 a3bc ea92 c0bd ea66 97bd
-0.07090655 -0.039632443 0.081368774 0.086296655 0.09006596 -0.12633938 -0.10584033 0.040392745
0.1409749 0.102362305 -0.04668366 -0.02450271 0.060321838 -0.096200794 -0.09709225 -0.0067269322
0.03252392 -0.04151962 0.022113038 -4.0234638e-05 -0.07017635 0.017990518 -0.0021510266 0.086162575
-0.1531357 -0.12077025 -0.12729967 0.018890241 0.036655176 0.038383655 -0.08297766 -0.0030752497
0.30087093 0.14178428 0.15150084 -0.19696307 0.12768815 -0.03363634 0.093893774 0.039272808
-0.16692472 -0.0609359 0.013619742 -0.0026284812 -0.12661846 0.21851657 0.032504957 0.059795026
-0.055539407 -0.18475991 -0.20217536 0.010952174 0.14477025 -0.05061717 -0.09494962 -0.037256062
0.009922609 0.11071746 -0.018728055 -0.10066094 -0.0801503 0.08505199 0.027391952 0.08498081
0.09295356 0.031591777 0.100926325 -0.33755788 0.08824086 -0.06318099 0.0914288 -0.07611075
-0.08553045 -0.072698675 -0.07377279 0.07596154 0.081475355 0.07319036 -0.008989117 -0.01687013
0.040221456 -0.06796381 -0.10680399 0.016742488 -0.10258616 -0.048693936 0.07385031 0.015344352
0.05292521 0.057140313 0.087940626 0.17042656 -0.20956427 -0.14418449 0.20942841 -0.30291194
-0.32744583 0.048123427 0.043028004 0.042883042 -0.22436443 0.15145592 0.15134867 -0.020456005
0.016429272 0.19943577 0.27910846 0.19624336 -0.0107421465 0.12246198 0.11210224 0.06644706
-0.023384053 0.07881378 -0.070396796 0.08032368 0.05301808 0.042320006 0.053947765 0.10123264
-0.048396107 0.10944735 0.07023538 -0.004541663 0.057887692 0.00803315 0.072355606 0.02951865
0.043337338 0.11522597 0.09570593 0.021699473 0.001990098 -0.0436379 -0.055490494 0.053334214
-0.012784598 -0.018103708 -0.13066301 -0.027440442 -0.008216961 0.0044400166 -0.084514216 0.07881925
0.018457728 -0.073018424 0.04350522 -0.050651837 0.08423079 0.030401463 -0.0746332 -0.054427933
0.031735595 0.023423055 0.062240336 0.17514764 0.03710822 0.030933987 0.12078974 -0.09604398
0.017572796 0.111562215 -0.0043351585 -0.0511613 -0.10275329 0.045814544 0.010502817 0.04383049
0.065813296 -0.0713897 -0.0015459298 0.012280893 -0.044833086 0.10682264 0.02346097 -0.13360047
0.015771054 0.04850973 -0.06470554 0.120953925 0.051203225 -0.12132667 -0.0664627 0.0075069536
-0.07193164 0.031892035 0.026696803 -0.101377316 0.003984774 -0.032237742 -0.07614138 -0.06757403
-0.0047546537 -0.013166458 -0.011777646 -0.0013768048 0.08662237 0.119446814 0.017406994 -0.05438068
0.07894008 0.072116464 0.04294 -0.04948902 0.06788126 -0.07301988 -0.033578098 0.047526427
0.10781897 0.09053589 0.06028541 -0.12850417 0.10602715 0.07747679 -0.029034661 0.11407045
0.0063975006 -0.061064906 -0.06710628 -0.0030178044 0.0022183817 -0.042445153 -0.093209386 -0.033878896
0.035403155 0.07078475 0.03573921 -0.058686484 0.08517082 -0.08559219 -0.11185511 -0.06932243
0.020792121 -0.054674033 0.032013055 -0.0998775 0.003174288 -0.12582952 -0.0044329665 -0.026956748
0.05173705 -0.10502289 0.018186884 0.096402906 0.047863953 -0.07123553 -0.019673372 -0.08050941
-0.013347514 0.119736314 0.029445488 0.013514621 -0.04618245 -0.019983135 -0.09403022 -0.07392676

mid_part.1.bias f4 [12]
00000000: 7ca5 b53b b6ac 0a3d 73c6 643d 7b24 d53b
00000010: 3c2f 283d 87d8 87bd b0f0 0fbd f4db d9bb
00000020: 0059 6b3a 427f e3bb 7e07 38bd 2490 92bd
0.005543409 0.033856116 0.05585332 0.006504593 0.04106067 -0.06633096 -0.035141647 -0.006648535
0.00089778006 -0.0069426605 -0.04492902 -0.07156399

mid_part.2.weight f4 [12, 12, 3, 3]
00000000: 758f e13d c28d bf3d 21d0 c43b 876c 1fbd
00000010: 67f4 b43c 11b9 953d a3b4 c5bc bb50 dcbd
00000020: 6145 b0bd b5e9 adbd e0fe c8bd 683a 823d
00000030: 41e9 eebd 5c2b f53b 6479 a73d 4bfe d23c
00000040: e7e5 93bd c0b9 333d 9d09 cdba df7c bc3d
00000050: 2cd5 05be 7289 1abc deca ea3c 545a edbd
00000060: 7e12 673d e5b8 e73d db57 38bd 7a32 8ebc
00000070: d73e a13c 2468 fbbd 2ef4 e63d 897c c73d
00000080: f440 133d 7c88 c6bd c0ec 633d 6d2b 31bd
00000090: 02eb 053e 41d6 343d 1778 93bd 8d02 163d
000000a0: 1b1f ad3d 3e88 4c3c fad1 5abd b315 163d
000000b0: 26ba 9d3c d7a7 d7bd 35e8 49bd 5fc8 533c
000000c0: 2562 ed3d 05f5 8b3e dee4 55bc e5a8 81bd
000000d0: b443 0ebe 8bb5 9f3d 2ea1 b73c 49a3 593c
000000e0: 420f 723d 271b 07be c035 16be c5f0 9a3b
000000f0: af13 a7bb a64a 983d fbc5 dd3d 7cbe a9bc
00000100: eee6 813c 9940 703c 386e a2bd b671 85bd
00000110: bfb8 853c 906e b63d 5339 123d 31c6 58bd
00000120: 7c31 573d e999 fd3c e037 9bbd 9d53 3abd
00000130: d185 e63c ba94 0fbc dfdc 85bd 44bd 8ebc
00000140: a581 ac3d e69b 93bd 902b d9bd d8c1 ee3c
00000150: 6796 a7bd 77aa 18bd 721c c6bd 3a73 47bd
00000160: 5925 a6bd 7f2d abbd 5da2 ae3d 88b1 c03d
00000170: 043f 75bd 265f 08bd 8fd4 2ebd f397 503d
00000180: 35b6 4c3d b8c2 11bd 0837 953d 4db3 7f3d
00000190: a4c7 303d 4e41 2abc 4a00 063e 571f 783a
000001a0: b353 4abc 7a1a fdbc 07f9 88bd ae69 6d3d
000001b0: 95b9 853e 31b3 a03c 0940 263e 993e fbbd
000001c0: 1536 6dbe 9d4e 3fbe f605 d73d b6d7 3dbd
000001d0: 9089 223e 4cc9 76bd ce30 6dbd d697 0cbb
000001e0: d818 18bd ce8e b3bc ecf8 39bc 528d 01bd
000001f0: 0326 b33d 5808 fc3c d268 623b 0c12 8d3d
00000200: 1142 a3bc 5128 973d 6ecf be3c f69d 263d
00000210: 9ce3 963d 2552 0abe 42b2 37bd 28ae f33c
00000220: c2d3 db3d 9994 a23d 7399 6abd 4f47 123b
00000230: 1db0 e13d 92d1 363d 77b8 92bd e75b cc3d
00000240: 80b9 373e 6d3c bd3d c003 84bc 486f 583b
00000250: b53d 2ebe 68b0 9ebd 98a5 433d bab9 38bd
00000260: 9c88 e8bc f205 ff3d 1dda 003e d5a0 8b3d
00000270: 1ea3 193d bc9e 4bbe 4167 e8bd 5dcc 1cbd
00000280: e8bf ab3c 99b6 943d 55b6 09be 0d90 f1bd
00000290: fbf2 893c 1482 bf3c f233 9fbc 84d5 af3d
000002a0: 6d3b 973d d62d 973d 23e3 3d3d 7edc 0a3d
000002b0: 555c b83c 370b 88bd b211 d53c c493 9b3d
000002c0: 9811 813c 2325 ebbc 0a01 8fbd 40a5 65bd
000002d0: 504d a13c 55df 713d ad7f c93a 2bcd 683d
000002e0: edc9 f0ba fae5 583d ed6e 443d 7de9 b23d
000002f0: 5742 663d 5ba3 d6bd 9716 01bd faf2 e0bd
00000300: 8043 54bd aebd 8f3d 111c 893d b57c 80bc
00000310: 439c 7fbb 64d8 ea3d 18b5 cf3d b745 35bd
00000320: 6875 98bc 905c 2fba 94d9 1fbd 4fad a7bb
00000330: d417 92bd d1f1 9abc 4d6e c3bd 72b0 6cbd
00000340: 81a3 3b3c 6902 fcbb 3260 063c d3f6 d7bc
00000350: aff8 513d eb2c 9a3c 561d 673d e290 a03d
00000360: 0ab2 193d af8a 06be c728 77bc ae17 a3bd
00000370: 7d67 03be 8fa1 59bc 3d58 8c3d 613e fb3c
00000380: 7c33 833d 19f5 ce3b 05c9 693d 91f0 90bc
00000390: 41fb 7abd 6f5f 053e 5ee8 8ebd 1cb4 18bd
000003a0: b589 793c 24fc b4bc a732 a9bd 7b5b 40bd
000003b0: 9a26 53bd a486 3d3d 9ae0 953c c825 a03d
000003c0: fdc3 34bd 5d7c c6bb 2c29 4d3b b07f 7cbd
000003d0: 1b57 b43c e06c 463d 71f8 f3bc d2d0 0f3d
000003e0: 18b8 633c 4ff8 573d d745 9bbd 87a0 143d
000003f0: a1e9 06bd c3a6 b13c 3efb 95bc 4684 e3bd
0.110136904 0.0935321 0.006006256 -0.03892186 0.022089196 0.07310689 -0.024133986 -0.107575856
-0.08606983 -0.08491842 -0.098142385 0.06358796 -0.116655834 0.0074819755 0.0817745 0.025756022
-0.07221585 0.043878317 -0.0015643124 0.09203505 -0.130696 -0.009432184 0.028661188 -0.11589494
0.05641412 0.11314563 -0.04500566 -0.017358053 0.019683285 -0.122757226 0.11277042 0.0974055
0.035950616 -0.09694001 0.055645704 -0.043254305 0.1307793 0.04414964 -0.0720064 0.036623526
0.084531985 0.012483655 -0.053422906 0.036641788 0.019253802 -0.1053006 -0.049293716 0.01292619
0.11590985 0.27335373 -0.0130550545 -0.06331042 -0.13893014 0.077982984 0.022415724 0.013283559
0.059096582 -0.13193952 -0.14668941 0.004728409 -0.005098782 0.07436113 0.108287774 -0.020720713
0.015857186 0.014663839 -0.07931179 -0.06515829 0.016323445 0.08907807 0.0356992 -0.052923385
0.052537426 0.03095718 -0.07579017 -0.045489896 0.02813998 -0.0087634865 -0.065362684 -0.017424233
0.08423165 -0.0720747 -0.10604012 0.029145166 -0.08182984 -0.037271943 -0.09673394 -0.048693873
-0.08112592 -0.08358287 0.08527062 0.094088614 -0.05987455 -0.033293866 -0.04268318 0.05092616
0.049978454 -0.03558609 0.07285887 0.062426854 0.043159142 -0.010391546 0.13086048 0.0009465119
-0.012349057 -0.030896414 -0.06688123 0.057962112 0.2611815 0.019616695 0.16235365 -0.12267799
-0.23165162 -0.18682332 0.10499184 -0.046348296 0.15872788 -0.060250565 -0.057907872 -0.0021452806
-0.037133068 -0.02191868 -0.0113508515 -0.031628914 0.087474845 0.030765697 0.003454734 0.06888208
-0.019928964 0.073807366 0.02329227 0.040677987 0.07367632 -0.13507898 -0.044847734 0.02974613
0.10733749 0.07938499 -0.057275247 0.0022320335 0.11019919 0.044633456 -0.0716409 0.099784665
0.17941856 0.09240041 -0.01611507 0.0033025313 -0.17015727 -0.077484906 0.047765344 -0.045098998
-0.028385453 0.12452306 0.12583204 0.06817786 0.037509076 -0.19884771 -0.11347819 -0.038280834
0.020965531 0.0726139 -0.1344846 -0.11795054 0.016839495 0.023377456 -0.01943395 0.08585647
0.073843814 0.073817894 0.046359193 0.033901684 0.022504965 -0.06642764 0.026009414 0.075965434
0.01575546 -0.028704232 -0.0698262 -0.056065798 0.019690186 0.059050877 0.0015373133 0.05683629
-0.0018370725 0.052953698 0.04795735 0.087359406 0.05621561 -0.10480376 -0.031515684 -0.10983844
-0.051822186 0.070186004 0.06694806 -0.015684465 -0.0039003051 0.114670545 0.10141963 -0.04425594
-0.018610671 -0.0006689513 -0.039025858 -0.0051170955 -0.07133451 -0.018914135 -0.095425226 -0.05778546
0.011452557 -0.007690717 0.008201646 -0.026362812 0.051262554 0.018820247 0.05642446 0.07840134
0.037523307 -0.13138841 -0.015085406 -0.07963501 -0.12832446 -0.0132831475 0.068527676 0.030669393
0.06406304 0.006315839 0.057076473 -0.017692836 -0.06127477 0.13024686 -0.06977914 -0.03728114
0.015230586 -0.022092886 -0.08261614 -0.046962243 -0.051550485 0.04627098 0.018295575 0.07819706
-0.04413222 -0.0060573057 0.0031305058 -0.06164521 0.022014191 0.048443675 -0.029781552 0.035111256
0.013898872 0.05272704 -0.0758168 0.036285903 -0.03293765 0.021685963 -0.018308278 -0.111092135

mid_part.2.bias f4 [12]
00000000: 05c4 b13d 5df3 cb3d f157 de3c 1b67 a1bd
00000010: 0dea 9cbd 06b4 aabd 8ef5 9dbd c0a5 05bd
00000020: bc28 bf3d 3341 1ebc 6ce8 323d f120 c0bd
0.08679966 0.09958527 0.027141543 -0.07880994 -0.07661829 -0.08335118 -0.077128515 -0.032628775
0.09333941 -0.009659099 0.043678686 -0.09381283

mid_part.3.weight f4 [12, 12, 3, 3]
00000000: a3f5 903d 2672 a73d 48cb 0bbc c02e 583d
00000010: bc55 173e 28f9 2bbd 28b5 e23d 195d 8dbd
00000020: 0dc1 42bd c46c 8c3c b653 5cbd e986 a3bb
00000030: 24d2 b33c 0a20 173d 0f39 3c3d d805 af3d
00000040: 052f c63b cc38 463d 2478 98bc 3b5b 40bd
00000050: 5c67 92bd faa1 38bc f922 bfbd 6204 86bc
00000060: dc3a e43d 0202 3ebb 284b 1c3d 3fac 23bd
00000070: d1ca 15bd 0ce7 9e3d 0eca 8c3c 3e39 37bd
00000080: bf72 80bd 935b bc3c 49a5 dfbd cb27 a63d
00000090: e8d9 88bd 8085 7ebc 4e8d 403d 877a 90bd
000000a0: 477c 4c3d 1525 30bc 8162 a6bd de73 713d
000000b0: 5f46 2fbd 993f 893d a3a3 bd3c cf0a 8a3d
000000c0: 4d18 963d 4ba9 573d 72ec 0e3d 4fde 733d
000000d0: c58b 7fbd 8a27 c3bd a458 583d 90a4 c43d
000000e0: ab9e e5ba 45da d8bd db1a c2bd b4d0 54bd
000000f0: ebae c03d 5230 133d c05b 32be 6ad3 db3c
00000100: 7d92 0c3c 109e aabd eb14 90be 0c33 61bd
00000110: 786a 873d 9ec2 ae3d 257e 5b3d e420 a2bd
00000120: 7ec5 333d b208 bfbc a83d 86bd 2568 1a3d
00000130: 3596 adbc 3da4 95bd da5a 89bd f539 88bc
00000140: b4ae 99bd 7532 7ebd 49ca 19bd 0d82 e7bb
00000150: 4e3f d63d f2b3 773d ebd4 433d 08eb 9c3d
00000160: 4e1b a7bd 0b2a 6fbd bcd0 8e3d 2171 bf3d
00000170: 5877 3d3d 2f07 9c3d cee5 1d3d 50c6 683d
00000180: 8027 0fbd ae7c a53d 64a4 173d d365 bf3d
00000190: 39a5 fdbd 765f 933d dfe5 56be eb7d 51be
000001a0: 7625 99bc 30fe 57be 85c4 8f3d d1a9 2f3c
000001b0: f27d 8dbd b9c4 96bd d3a5 42bc ad0c b0bd
000001c0: 3d09 04be 9c5f a43d 521a debc ef9c eebd
000001d0: bfe8 ecbb b78c d93c b041 0a3e 3868 b33d
000001e0: 5c6d 373d f3a1 89bd 26c7 3f3d e161 96bd
000001f0: ecae 993c 6462 6b3d ac97 efbc 4ed8 b13d
00000200: 443c 29bb 4b3a 0abd 30b7 33ba 9054 e5bc
00000210: b2dc 153d b074 3b3d 4e16 1cbd 7a0d e33c
00000220: f0b7 adbc 5b63 49bd cb4b d8bd 2dd4 37bd
00000230: e214 a83d a08e 7fbd 224d ccbd 2f25 8f3d
00000240: 9fc7 cfbd b5d8 abbd df17 a2bd 2d8b 80bc
00000250: a8ca e4bd 684c df3c 9d6a f2bc 27a7 973b
00000260: c10b cebc 3bfb ac3d 38e4 3fbd eee6 2ebd
00000270: c953 453d f085 b3bb a483 14bd 6f99 7a3d
00000280: 6546 edbd 446e bc3c fae6 16bd 5b39 e5bc
00000290: deef 08bd 9a43 e33d 43ff c03b b8e2 323c
000002a0: c5db d7bc 926a 29bd 6852 dfbd b96b bdbd
000002b0: 8936 ba3d e147 5b3b 2519 a43d 5d17 833d
000002c0: 082e 04be 6449 ab3b bced 903e 2b81 b0bd
000002d0: 72d2 9c3c 74f8 bd3d b358 72bd b03b 633d
000002e0: 6dff 17bd 1b60 9abb 5b7e 4cbd e15f 85bd
000002f0: 098a 8bbd 24a9 6cbd bf49 423d 37f2 9ebc
00000300: 23d8 16bc abf3 123d d351 803d 3223 b1bd
00000310: 2d27 ee3c 0697 c8bd 9d64 7e3d 532b fabd
00000320: ab19 8abd cfd3 403d fef5 d6bc 64dd 4bbd
00000330: 5d16 713d d3d4 c8bd 4130 413c dd65 b9bc
00000340: 63b4 fb3d cf25 87bd 8970 0a3e f9b2 8e3d
00000350: acd4 6bbd e444 1d3e 8743 a43d c083 983d
00000360: 50ee fe3c 13dd 90bd f59f 943d 9357 5c3d
00000370: 11d2 dc3d ca97 a03c 3ba5 e83c 0f18 b23c
00000380: e183 193d 4c98 3bbd d915 79bd fc9f 2c3c
00000390: ea29 9dbd 0444 5e3d 42ac 9b3d ee38 09bc
000003a0: 8435 973d 9558 853d bc1f 80bd 7727 fabc
000003b0: 3687 98bd 6cfa 2ebd ea75 cabd 760d fc3c
000003c0: 9b70 37ba 9989 35bd b132 84bd 88cb 853c
000003d0: 986e 8f3d 7728 9e3d 06f8 eebc 95bf ca3c
000003e0: 9a5a d6bd 0362 913d e956 6e3d 0eab aabc
000003f0: a6e2 14bd 8e54 9c3d b143 a3bd e7cc 843d
0.070781015 0.08176069 -0.008532353 0.05277896 0.14778799 -0.04198566 0.11069709 -0.069025226
-0.04754739 0.017141707 -0.05379077 -0.004990448 0.021950789 0.03689579 0.045952853 0.085460365
0.0060480856 0.04839401 -0.018611975 -0.046962004 -0.071486205 -0.011269087 -0.093328424 -0.016359512
0.11144039 -0.0028992896 0.038157612 -0.03995919 -0.036570374 0.077589124 0.017186191 -0.044732325
-0.06271886 0.022992885 -0.109201975 0.08113059 -0.06682187 -0.015534759 0.04700976 -0.0705462
0.049923208 -0.010751029 -0.08124257 0.05894839 -0.04279172 0.067015834 0.023149317 0.06740343
0.07328854 0.052651685 0.03489346 0.059538182 -0.062389154 -0.09529026 0.05281891 0.096017
-0.00175186 -0.105885066 -0.094777785 -0.051956847 0.09408363 0.035934754 -0.17417812 0.026834209
0.008579847 -0.08330929 -0.2814096 -0.054980323 0.06612104 0.08533214 0.053587098 -0.0791643
0.043889515 -0.023319576 -0.06554729 0.037696976 -0.021189788 -0.073067166 -0.06706782 -0.016629199
-0.07504025 -0.06205984 -0.03754643 -0.007065064 0.10461293 0.060474344 0.047810476 0.07662016
-0.08159505 -0.058389705 0.06973407 0.093477495 0.046256393 0.07618558 0.038549237 0.05682975
-0.03494978 0.080804214 0.03702201 0.09345593 -0.12385029 0.07195942 -0.20986126 -0.2045819
-0.01869462 -0.21093059 0.07019905 0.01072164 -0.06908788 -0.073617406 -0.011880356 -0.08596168
-0.12894149 0.080260485 -0.02711216 -0.116510265 -0.007229894 0.026556356 0.1350162 0.087601125
0.044782028 -0.067203425 0.046820782 -0.07342888 0.018760167 0.05746688 -0.029247127 0.08683835
-0.0025823275 -0.033747 -0.0006855605 -0.027994424 0.036587425 0.04576558 -0.03810721 0.027716387
-0.021205872 -0.04916702 -0.10561331 -0.04488008 0.08207108 -0.062391877 -0.099756494 0.06989514
-0.101454966 -0.08390943 -0.07914709 -0.015691364 -0.11171466 0.027258113 -0.029591853 0.0046280804
-0.02515209 0.08446356 -0.046848506 -0.0427007 0.048175607 -0.005478613 -0.036258355 0.061181482
-0.11585692 0.023001797 -0.03684137 -0.02798145 -0.03343188 0.11096878 0.0058898046 0.010918312
-0.026349911 -0.0413614 -0.109043896 -0.09249062 0.09092433 0.0033459591 0.080126084 0.064009406
-0.12908185 0.0052272547 0.28306377 -0.08618387 0.019143317 0.09275904 -0.05916662 0.055476844
-0.037108827 -0.0047111637 -0.04992519 -0.06512428 -0.068134375 -0.057778493 0.04743361 -0.019402606
-0.009206804 0.03587691 0.06265607 -0.08649291 0.029071415 -0.097944304 0.06210767 -0.12215295
-0.06743177 0.047076996 -0.026240345 -0.04977168 0.058859218 -0.09806218 0.01179129 -0.02263158
0.122902654 -0.06599008 0.13519491 0.0696773 -0.057575867 0.15358311 0.08020692 0.07447004
0.031119496 -0.070734166 0.07257072 0.053794455 0.107822545 0.019603629 0.0283991 0.021739988
0.037479285 -0.04579954 -0.06081185 0.01053619 -0.0767401 0.054264084 0.07601215 -0.0083753895
0.07383254 0.06511036 -0.06256053 -0.030536396 -0.074476644 -0.04271929 -0.098857716 0.030768137
-0.00069976755 -0.044320676 -0.06454981 0.016332403 0.07003516 0.07722562 -0.029171001 0.024749557
-0.104664996 0.070987724 0.058188353 -0.020833518 -0.03634896 0.07633315 -0.079718955 0.064843945

mid_part.3.bias f4 [12]
00000000: 4596 bf3d 2e55 5c3d 9c78 3abd d63e 84bc
00000010: 291c 1b3d ea32 3f3d 26b8 d43c 95f9 38bc
00000020: fd62 d73d 53e8 2d3d 56c7 62bd 65ab 86bd
0.093548335 0.05379217 -0.04552518 -0.016143244 0.037868652 0.046679415 0.025966715 -0.011289974
0.105169274 0.04245789 -0.055365883 -0.0657566

mid_part.4.weight f4 [12, 12, 3, 3]
00000000: 7890 f8bd 1790 6cbd 9f80 073d 1292 b3bc
00000010: fbfc 423e fcff 353e a26f 2dbd 0792 1f3e
00000020: f1cf 30bd cd29 173d 451c 9bbd d351 e7bd
00000030: f226 b4bd 421d 00be b068 b3bd f7c2 f6bc
00000040: 50de b9bd cdb9 52bd 3b61 ffbc 3435 e43d
00000050: 400b 183e f677 e43d 739d ea3c 8180 173e
00000060: 54aa 22bd f4ec 203d 7f0a a73d 289f 853d
00000070: da45 5ebd d4a7 573d 0798 02bd 2bc6 0abe
00000080: 28fe 05bc df82 88bd f40f 78bd 04b4 21bd
00000090: 84cb 473d 95b6 84bd cca7 fdbd 47d9 963d
000000a0: b98e c7bc 72ce 363d ae93 28bd 3146 bfbc
000000b0: dd3e b8bd e860 3d3d e42a 00bd 6d26 12be
000000c0: 6b0d 93bc a4aa 3cbd ef84 efbd f730 2dbc
000000d0: 6154 8abd f79f 293b 1724 96bd 2911 af3b
000000e0: b1d7 a63c ce67 9c3d 6034 6d3c 4774 45bd
000000f0: d7d8 0cbd 8559 413d 2a44 a4bc 65cf 1abd
00000100: d04c 9ebd 7ce1 3b3c 36cf 63be 9d81 95bd
00000110: 8fda 283d aa78 f3bd 206d 913d 986d 76bd
00000120: 1d8e 873d 60d0 5c3c 54c1 f6bd db49 333a
00000130: 9783 f8bc 457e 5c3d 0c79 e13d cfe2 8dbd
00000140: 70d0 97bd c3c6 253d 87c7 3a3d 7449 5f3d
00000150: 1f5d 2dbe c3df 05be 3831 7fbd 4e33 edbd
00000160: 0744 2dbd 94c9 603c 6770 1cbd d6d1 883d
00000170: 02fc 7abd fca1 17bd b8f2 f53d 5679 113e
00000180: f933 1abd 4d5c 7e3d 9c00 123d 3530 28bc
00000190: 8b7b 06bd 2b48 dabd 466f babd 18de 39be
000001a0: 09d1 ecbd 444a d53d 574d 873d 1645 91bd
000001b0: f603 ea3d 26cd 2fbd 47f7 e1bd 5029 10be
000001c0: 618b 8ebc bbe2 2c3d f155 97bc f766 e23d
000001d0: 8d22 e4bd 9f3a 5ebd 10c6 803d f059 3dbd
000001e0: c390 70bb 0226 03bd dd87 1f3d b954 963d
000001f0: 75ef 0abc cf00 0d3c 098a 88bc 656c 54bd
00000200: 105e 9a3d 5fab ddbc 9a07 ec3d 321b 523d
00000210: 8a32 6cbd 70a8 383c 3074 37bd 4ecb 92bd
00000220: 69f6 68bd c748 db3b 0766 0ebd ee41 ec3c
00000230: a595 22bc d473 bf3d 57e6 483d d480 d6bd
00000240: 46a2 103c d1bf a5bd eaa9 523d 24bf c7bd
00000250: 24c6 6dbd 86d1 f93c 7da9 85bd 405a 97bd
00000260: d1f5 83bc 16e0 413d a7ed 123e c2d1 1bbd
00000270: fb6f 993d e114 2fbd 2544 303d 40de cebd
00000280: 4fdb abbd 6ec3 393c 1683 b8bd a47c ccbc
00000290: b7bd cabb 425e a13c a306 39bc fb0f 65bb
000002a0: 0cc3 553c 2cd3 333d b9a4 fd3c 954a e53c
000002b0: 2953 e5bc b285 b93c ecfc 4bba 6f58 d6bd
000002c0: d3ba 5b3d a21b d5bd 8e8e a0bc d584 78bd
000002d0: c9da dc3c 8082 fb3c 71ed adbd 839a b7bd
000002e0: 6a82 13bd 84ed dfbd 9c23 a03d ceab 86bd
000002f0: 6cd7 6bbd cc60 d4bb 528c 483e 12e5 b6bc
00000300: f023 01be d66f 5bbc dc52 5f3d 8baf 0d3d
00000310: 10ff 85bd 10d2 33bc 6dfc 50bd 96b2 e33c
00000320: 2fcb 753d 6e76 c53c 3577 123e 3e68 c03d
00000330: 70f6 6d3d 82a0 11bd aab4 c03b dd92 38bd
00000340: 5c40 4e3d 2d3a 11bc 81cd 973d 72f2 f33c
00000350: ba48 823d cfd9 b8bd e9ab 1f3d 297d cb3d
00000360: 4ee7 08be fd0b 74bd ff67 aa3a eb97 26be
00000370: a3e7 8b3e 1799 89bc 8f29 17be d84c 543e
00000380: 26e6 08be 569d 32bc 1fe8 2cbd ea29 8e3d
00000390: 4685 1e3d 0563 15bd 17ce 50bd 8c02 463d
000003a0: 56fe 95bd 274b babb 7cd7 99bd 11f0 e33c
000003b0: dab4 dcbc 34c8 06bd 8ab0 263d ecd5 31bd
000003c0: 1440 05bd d7d9 8b3d f901 dcbb a1c6 1ebd
000003d0: 31c2 e63b d472 8bbd 6737 00be 881e 623a
000003e0: 89f0 b6bd a887 f83c 18ef b03c b33d 0a3d
000003f0: 5c7c 7dbc 488a b9bd fcc1 96bd a78c bbbd
-0.1213693 -0.057754602 0.033081647 -0.021920238 0.19041817 0.17773432 -0.04234279 0.15583049
-0.04316706 0.0369051 -0.07573751 -0.112949036 -0.08796491 -0.12511161 -0.08760202 -0.030122263
-0.09075606 -0.051446725 -0.031174293 0.1114296 0.14848042 0.11155693 0.02863953 0.14795114
-0.03971322 0.039288476 0.08156299 0.06524497 -0.054265834 0.052650288 -0.031883266 -0.13552158
-0.008178271 -0.06665587 -0.06056209 -0.039478317 0.048778072 -0.06480137 -0.1238552 0.07365661
-0.024360048 0.044630475 -0.041156463 -0.0233489 -0.08996365 0.046234995 -0.031290904 -0.14272471
-0.017950734 -0.046061173 -0.11695277 -0.010570756 -0.06754375 0.00258827 -0.07331102 0.005342622
0.020366522 0.07636987 0.014477819 -0.048206594 -0.034386482 0.047204513 -0.020052034 -0.037795443
-0.077294946 0.011467334 -0.22247013 -0.073001124 0.04122406 -0.11888249 0.07100892 -0.06016311
0.06618903 0.013477415 -0.12048593 0.00068393134 -0.030336184 0.053831358 0.11009416 -0.06928026
-0.07412803 0.040472757 0.04560044 0.05451341 -0.16930054 -0.1307364 -0.062302798 -0.11582051
-0.042301204 0.013719935 -0.038193133 0.06680648 -0.06127549 -0.037019715 0.120091856 0.14206442
-0.03764722 0.062099744 0.035645112 -0.0102654 -0.032832664 -0.10658296 -0.09103255 -0.18151128
-0.11563308 0.10414556 0.06606548 -0.07093255 0.11426537 -0.042920254 -0.110334925 -0.1407826
-0.017400445 0.042208415 -0.018473597 0.11054795 -0.111394025 -0.054255124 0.062877774 -0.04622835
-0.0036707378 -0.03201867 0.03894793 0.07340378 -0.008479943 0.00860615 -0.016667383 -0.051861186
0.07537472 -0.027059255 0.115248874 0.051295467 -0.057665385 0.011270627 -0.04478854 -0.071676835
-0.05687562 0.0066920253 -0.03476527 0.028840031 -0.009923373 0.09348264 0.049047794 -0.10473791
0.0088277515 -0.08093227 0.051431574 -0.09753254 -0.05805029 0.030495416 -0.06526468 -0.07390261
-0.016108425 0.047332846 0.1434847 -0.038041838 0.07492062 -0.04274452 0.043033738 -0.101009846
-0.08391439 0.011338098 -0.09009378 -0.024961777 -0.0061871666 0.019698266 -0.011293086 -0.0034952152
0.013046991 0.04390256 0.030962335 0.027989665 -0.027993755 0.022646759 -0.0007781524 -0.10466086
0.053644966 -0.10405661 -0.019599225 -0.060673553 0.026959794 0.030701876 -0.08492554 -0.08965018
-0.036013044 -0.109339744 0.07819292 -0.06575738 -0.05757849 -0.0064812656 0.19584778 -0.022326026
-0.12611365 -0.013393363 0.05452238 0.03459124 -0.0654279 -0.010975376 -0.051021982 0.027795117
0.060008224 0.024104323 0.14303286 0.093948826 0.05809635 -0.035553463 0.005880912 -0.045061935
0.050354347 -0.008863968 0.07412244 0.029778693 0.06361528 -0.09025919 0.038982306 0.09935982
-0.13369486 -0.059581745 0.0013000964 -0.1626889 0.27325162 -0.016796632 -0.14761947 0.20732439
-0.13369045 -0.01090177 -0.042213555 0.06941588 0.03870132 -0.036471386 -0.050977793 0.048342273
-0.07323901 -0.0056852284 -0.075118035 0.027824434 -0.026941705 -0.032905772 0.040695705 -0.043416902
-0.032531813 0.06828659 -0.0067141023 -0.038763646 0.0070421924 -0.06809011 -0.12521134 0.00086257653
-0.08932597 0.030338123 0.021598384 0.033750247 -0.015471544 -0.09059578 -0.07361218 -0.09157687

mid_part.4.bias f4 [12]
00000000: a2c3 233d cc55 0abd eff9 84bd d6d3 623d
00000010: 676c 30be afcc a4bd 78fe 88bd c337 1cbe
00000020: 6171 c43d 4049 993b 9e6f 2b3c 6187 dc3c
0.039981492 -0.03377323 -0.064929835 0.055377804 -0.17228852 -0.08046853 -0.06689161 -0.15255646
0.09591938 0.0046779215 0.010463623 0.026920022

mid_part.6.0.weight f4 [56, 12, 1, 1]
00000000: 05b5 71be 3800 5cbc 1e3d 9fbe ac33 34be
00000010: 1735 c33c d544 6bbe 8e18 babd 25c1 163e
00000020: 1dcd 51bd 6d47 ea3b 50d1 273d d168 a2be
00000030: f1fb 82be 6706 89bd 2259 7f3e 84b5 a83d
00000040: 5017 663c 7b7b 91be f834 c63d b9aa 483e
00000050: 8e51 83be 3be3 f03d 9662 1abe 6e08 96be
00000060: 5193 07bd 94d9 4d3e 4e07 9f3e 59f4 533e
00000070: c82f 533e 4739 a03c dc18 2c3e b977 343e
00000080: c6fd a8be ebd1 72be 9fc1 703b 92f2 d53d
00000090: afe1 ad3c 5010 97bc 1b78 343d 2a12 23be
000000a0: b0ff 51be ec5a 30be a277 3b3e 8752 3a3e
000000b0: 6fb0 f0bb 5d89 3dbd 8a21 91bd b7d6 06be
000000c0: 87a3 0e3e 05c3 f13d 4089 45bc 2558 1b3e
000000d0: 39c7 13bd 4412 c63d 02dc d33d cb81 763d
000000e0: c778 cebd b1a5 523e 70ba 11be 503c 43bd
000000f0: 2f1e 76be ef5c 79be 45dc 42bd ff5b 013e
00000100: d370 0ebd d259 103c 3998 b0be de31 083e
00000110: 2945 a43e a3dc 8abe 3073 3abd 27ba ae3d
00000120: fa74 973d e0c6 81bd 1992 0ebe 36dc 2dbe
00000130: dd2d b33e d6ed 683c 29d6 e93d 0ee8 0ebe
00000140: 48e1 23be 289a 2dbe 9569 8a3d 7a09 b83e
00000150: c3ae 79bc 63c5 6ebe 79bb 54be 3a5c f83d
00000160: 9296 43bd 18a0 7b3e acd5 64be 5ed8 323c
00000170: 2c2a 35bd e397 b2be 1848 9cbe d52e e1bd
00000180: cc1a 203e 8955 113d 2c69 d2bd 944f 52be
00000190: 30ae 833e 2949 7d3e 32f5 3a3e cd58 863e
000001a0: 745b 3c3e aec9 293e e535 853e 8277 9c3e
000001b0: 2f0f 403e 318a 4d3e 93bb 03bd 0b9a 76be
000001c0: 96f4 3bbe fb54 223d 95ce 703e 90e6 6bbe
000001d0: 8462 233d 32d8 1f3e 2a00 b4be 4d80 763e
000001e0: bdff 5a3e 1c41 22be d647 c2bd 15e2 fa3b
000001f0: f44d e2bd fe61 18bd 9f8d 48bd 60a3 9d3d
00000200: 073b 23be e892 8fbe 83b5 9bbd 0609 a13d
00000210: 7546 453d 8ede 1abe 22c3 1a3e a1a4 d33b
00000220: aece 143e ec40 23bc 7952 bcbd 72fd a8bd
00000230: c86a 6abd c1fb 08be 83b1 703d 4c10 7a3c
00000240: 8a7f 3bbd 1384 1abc 9221 b93e a021 04bc
00000250: 0342 5b3d 8045 5dbd 282f 0ebe 4aee f33c
00000260: 9e2a c73b d2c9 233e 1aaa 5a3e 7680 f73d
00000270: d310 67bd d81b 093b edcc 14be 548e 2bbe
00000280: c7b5 0f3e 66df 283e 9f20 383d d129 9a3e
00000290: 27ae 90be b02c 20be 7b32 b7bd 5d4e 413e
000002a0: e69d 0d3e 4278 093e 3b7c 4e3e 65bd 53be
000002b0: 3aab d83d f094 0a3e 0b1f 41bd ffff 933e
000002c0: 4be1 da3d eb7d 3bbe 5073 bbbd ea6f 853d
000002d0: ab45 4bbe 76b6 353e 3663 39bd 93e4 b73b
000002e0: fdaf 78be 9211 dabd 66cc aebd 0705 253e
000002f0: 67ca 5bbe 4e04 2a3e cc50 173d 9569 1f3b
00000300: 961a e43d 897b d8bd e915 e2bc 1cdc 713e
00000310: d802 c73e 9d90 87be fff6 423d ca32 de3c
00000320: 93db a9be 23d3 a0bd cba7 3abe 8124 a43d
00000330: f645 133e 45f7 bc3d df33 67be ad58 79be
00000340: 89d7 703c e71c a03e 3085 243e 2649 57be
00000350: 6b4a cdbc 8d82 30be dcb3 a0be 99d9 3cbc
00000360: 37de ab3b 0037 e3bc 863b 34bd ae8c 813e
00000370: bfb9 1e3e cb29 9d3c bab8 cebe 3206 13be
00000380: eb44 8b3d 43d1 1c3c 77c5 213e 9a85 a7bd
00000390: 06b9 00be 7c6e 64bc 4cf1 adbe 6b2b 2d3d
000003a0: ddb2 113e 57e6 683e 838b a13d e369 10be
000003b0: 4ffb 193e 7d64 0ebe 8b3a c63d 1576 3d3c
000003c0: 64bb 8f3e b34d f43d 83e0 9c3e 0c3b 2ebe
000003d0: 1039 883e 4b6f 62be 1fa2 7e3e 1ddc 833e
000003e0: 6023 273e 6ed7 95bd 21e3 18be a648 35bd
000003f0: db96 c1bd 5cc3 3e3e 1bfb 483e 5196 52bd
-0.2360421 -0.0134277865 -0.31101316 -0.17597836 0.023829026 -0.22975476 -0.09086715 0.14722116
-0.051221002 0.007149628 0.0409711 -0.31720594 -0.2558284 -0.06690674 0.24936345 0.08237746
0.014043644 -0.2841452 0.09678072 0.19596376 -0.2564816 0.11762091 -0.1507667 -0.29303306
-0.033099476 0.2010253 0.3106026 0.2069868 0.20623696 0.019558562 0.16806358 0.17623796
-0.33006114 -0.2371289 0.00367365 0.10446657 0.021225778 -0.018440396 0.044059854 -0.15924898
-0.20507693 -0.17222184 0.18307355 0.18195544 -0.0073452513 -0.046273578 -0.07086475 -0.13167845
0.13929568 0.11804775 -0.012056649 0.15170343 -0.036078665 0.09671453 0.103446975 0.060182374
-0.1008163 0.20571019 -0.14231277 -0.04766494 -0.24034952 -0.24351858 -0.047573347 0.1263275
-0.034775566 0.008810477 -0.34491137 0.13300273 0.32084015 -0.27121457 -0.045520008 0.085315995
0.073953584 -0.063367605 -0.1392292 -0.16978535 0.34995928 0.014216861 0.11417801 -0.1395571
-0.16003907 -0.16953337 0.067584194 0.3594473 -0.01523942 -0.23317485 -0.2077464 0.12126966
-0.047751017 0.2457279 -0.22347134 0.010915844 -0.04422967 -0.34881505 -0.30523753 -0.109952606
0.15635222 0.035481963 -0.10273966 -0.20538169 0.25718832 0.2473494 0.18257597 0.26239625
0.18394262 0.16580841 0.2601768 0.30559927 0.18755792 0.20072247 -0.032161307 -0.240822
-0.18355021 0.039631825 0.23516305 -0.23037171 0.039888874 0.15609816 -0.35156375 0.2407238
0.21386619 -0.1584515 -0.09486358 0.0076563456 -0.11050025 -0.037202828 -0.048963185 0.07697177
-0.15940486 -0.28041768 -0.0760298 0.07863049 0.048162896 -0.1512396 0.151135 0.0064588343
0.14531967 -0.009964209 -0.09195418 -0.08251466 -0.05723074 -0.13377286 0.05876304 0.015262675
-0.045775928 -0.009430903 0.36158425 -0.008064657 0.05352975 -0.05402136 -0.13885176 0.029776711
0.0060780784 0.15994957 0.21353951 0.12085049 -0.05641253 0.0020921137 -0.14531298 -0.16753513
0.14034186 0.1649147 0.044952985 0.30110028 -0.28257868 -0.15642047 -0.08945175 0.1887755
0.13829765 0.13424781 0.20164578 -0.20677717 0.10579534 0.13533378 -0.047148746 0.28906247
0.106875025 -0.18309753 -0.091528535 0.065154865 -0.19850795 0.17745385 -0.04526063 0.005611965
-0.24285884 -0.106478825 -0.0853508 0.16115199 -0.21463929 0.16603205 0.03694229 0.0024324406
0.11137883 -0.105704375 -0.027598338 0.23619121 0.38869357 -0.2647752 0.047598835 0.027123827
-0.33175334 -0.07852771 -0.1822807 0.08014775 0.14382157 0.092268504 -0.22578381 -0.24350233
0.014699825 0.3127205 0.16066432 -0.21023998 -0.0250599 -0.17237301 -0.31387222 -0.011526489
0.005244996 -0.027736187 -0.04400208 0.25302643 0.15500544 0.019184968 -0.4037531 -0.14357832
0.068002544 0.009571376 0.15797983 -0.08179779 -0.12570581 -0.013942357 -0.33973157 0.042277735
0.14228387 0.22744118 0.07887938 -0.14102893 0.15037273 -0.1390552 0.09679135 0.0115637975
0.28072655 0.119288824 0.3064004 -0.17014712 0.26606035 -0.22112767 0.24866532 0.2575387
0.16322088 -0.073164806 -0.14930393 -0.044258736 -0.094526015 0.18629211 0.19627039 -0.051412884

mid_part.6.0.bias f4 [56]
00000000: 909c 75be d22e ccbd 1b0a 38be 5f3e 9d3c
00000010: 4269 15bc 1d3b efbc a420 6cbe 184b 533e
00000020: c631 debd e2d2 f23c 7ea5 3ebe da9d 0dbe
00000030: f9f3 7ebe c1e9 383e 9372 2b3d 0eff a13c
00000040: 9ce7 653d ff7e 503e 74cb 0abe 04fc 1d3e
00000050: 0184 83bc f96e 123e 0d40 4c3e 7144 1f3e
00000060: 2a05 14be 1959 b63d 3cc0 e03b 5b04 c1bd
00000070: c0a9 46be 7b63 9bbd 4dfc cc3d 0482 cabc
00000080: b6ec 973d ae25 40be 26b5 f3bb 11c0 d6bc
00000090: 25ce ac3d 6dc8 39be e96b 16be d98c b9bd
000000a0: 747a 7abd afa0 3abe 18bb 9d3d 28d6 b63d
000000b0: dfc4 453e cba2 44be 13e5 b6bd cd2f 683d
000000c0: f66e f63d 403f 463c 6c87 823d 44ea 453d
000000d0: cdf2 13be 3f42 7bbe 29a3 bfbd 2d64 a73d
-0.23985505 -0.09969868 -0.17972605 0.01919478 -0.009119334 -0.029202992 -0.23059326 0.20634115
-0.10849337 0.029641572 -0.18617818 -0.13829747 -0.24897756 0.1805792 0.041857313 0.01977494
0.056129083 0.20360945 -0.13554174 0.15428168 -0.016054155 0.14300145 0.19946308 0.15553452
-0.14455095 0.08903713 0.0068588536 -0.09424659 -0.19400692 -0.07587334 0.1000906 -0.0247202
0.07418196 -0.18764374 -0.007437366 -0.026214631 0.084377564 -0.18142863 -0.14689602 -0.09060068
-0.061151937 -0.18225358 0.07701701 0.08927566 0.19313382 -0.19202726 -0.08930411 0.05668621
0.12032883 0.012100041 0.06373486 0.048319116 -0.1444809 -0.2453699 -0.09357292 0.08173404
