checkpoints/model_up_3_epoch_100.pth (torch_old, 46727 bytes, 15 tensors)

first_part.0.weight f4 [56, 1, 5, 5]
000000 8f 05 bc bb c3 db 8c 3d e6 7b 51 bd c0 4f 15 3e
       -0.0057379673 0.06877854 -0.05114355 0.14581203
000010 ef ce a5 bd f6 5c 49 3e 72 5e 12 be e0 23 3c be
       -0.0809611 0.19664368 -0.1429384 -0.1837306
000020 ea 0e d3 bd 5c 8f 27 3e e6 67 27 bd b6 7d 48 3d
       -0.10305579 0.16363281 -0.04087057 0.048948012
000030 c4 27 7c be 5a 89 07 be 47 df a4 bc a7 47 67 3c
       -0.24624544 -0.13235989 -0.020125998 0.014116204
000040 7a 4d 14 be e4 57 b8 3d 39 84 09 bd 47 70 fb 3d
       -0.1448268 0.09001139 -0.033573363 0.122772746
000050 00 5b 5c 3e 69 da b4 3d 75 79 9b 3d 23 b9 6e 3e
       0.21519089 0.08830721 0.075915255 0.23312812
000060 28 a0 21 bd 36 41 5b 3d b6 e5 9a bd 0f e4 16 3e
       -0.039459378 0.053528987 -0.07563345 0.14735435
000070 42 13 26 3e 26 48 4e be a1 71 36 3e 75 58 b3 3d
       0.16218284 -0.2014471 0.17816783 0.08757106
000080 3b 20 61 3d 8b cf 92 3d f4 40 2a 3e fd b0 11 3c
       0.054962378 0.07168492 0.1662634 0.008892295
000090 1f 67 5f be 90 99 39 be 83 80 2b be c5 f7 b2 3c
       -0.21816681 -0.18124986 -0.16748242 0.021846661
0000a0 e7 92 94 3b b7 be ab bd e9 d4 59 bd 6f d7 5c 3e
       0.0045341137 -0.08385985 -0.053181563 0.21566556
0000b0 4c 45 8f bb f4 a0 af 3c 5e 3b 04 3c 33 09 0c 3d
       -0.0043722745 0.021439053 0.008070795 0.03418846
0000c0 cc 4d 28 3e 93 17 ac 3d 6a 8d b6 3d f7 03 e9 3d
       0.16435927 0.08402934 0.08913691 0.11377709
0000d0 2a 6b 9b 3d 40 0d 9e 3d b6 3e f1 bc 62 8d d8 bd
       0.07588799 0.07717371 -0.029448848 -0.10573842
0000e0 fa 51 fd bd cb 19 60 3e 2a 7e 8b 3d eb 45 f3 bd
       -0.123691514 0.21884839 0.06811173 -0.1187857
0000f0 a7 87 ad 3d c0 2d 51 3e 71 17 36 be 4c 35 d5 bd
       0.08473139 0.20427608 -0.1778238 -0.10410556
000100 a7 78 3e bd 49 e0 89 3c ad 35 5c 3c a9 45 c6 3b
       -0.04650178 0.01683058 0.013440532 0.0060507846
000110 cf ae 11 be 4c 51 fa 3d a9 d7 3c 3e 1e 86 30 3e
       -0.1422684 0.122225374 0.18441643 0.17238662
000120 00 3c e6 bd b3 eb 0d be 99 28 3e 3d 6c e2 94 bc
       -0.11241913 -0.13859443 0.046425436 -0.018174373
000130 ca 67 d1 3c 4e c1 84 be 2b 0a ac bc 20 68 1d 3e
       0.025562186 -0.2592873 -0.021000942 0.15371752
000140 1f b4 59 3d b5 fc 1e 3d 7c 8f 61 3d 06 f8 4d bb
       0.053150292 0.03881522 0.055068478 -0.003142835
000150 1e 60 f0 bd 46 22 cc bd 9f fb bb bd 7f 7d 83 3e
       -0.11737083 -0.09967475 -0.09178852 0.25681683
000160 f6 d7 2d 3e d8 52 8b 3d 1d fa 20 be 42 39 1c 3e
       0.16976914 0.068029106 -0.1572041 0.15256217
000170 6c af 91 3d 61 cc de 3d ca b0 e4 bd 93 b0 99 3c
       0.07113537 0.10878826 -0.11166532 0.018760955
000180 75 11 37 3e 02 41 07 3e a5 cf 0f 3e 6e 86 1f bd
       0.17877753 0.13208392 0.14044054 -0.03894656
000190 3c 4d 11 3e 37 d2 1c be a4 80 e5 3c 3c bb f9 bd
       0.14189619 -0.15314566 0.028015442 -0.12193915
0001a0 d2 9e 9e bd 93 74 29 bd bc fd 33 3d 1f be 6f 3e
       -0.07745136 -0.04137094 0.04394315 0.23412369
0001b0 13 ad f0 3d db 17 96 bc cc 72 22 3e 59 56 a7 bd
       0.11751761 -0.018321922 0.15864104 -0.081707664
0001c0 4a 7c 29 3e d0 4a 8e 3c 11 b7 22 bd f8 b6 b8 3c
       0.16551319 0.017369658 -0.039725367 0.022548184
0001d0 e1 e8 0e be 46 64 a0 3d 7c 49 c8 3d dc 41 23 3e
       -0.13956024 0.07831626 0.09779641 0.15943092
0001e0 19 d2 a8 bd 1e fa 8c 3d 60 df 56 3e 3c 38 b9 bd
       -0.08243198 0.068836436 0.20983648 -0.09043929
0001f0 c5 ef 30 3e 0a ad 10 be 39 32 6d 3d b6 3f 9a 3d
       0.17278965 -0.14128509 0.057909224 0.07531683
000200 0c e4 26 3d 8e c3 08 3e dd d8 ea bd 8c 7b 89 3d
       0.040744826 0.13355848 -0.11467145 0.06713018
000210 ab 8c 3b 3d 91 ca 0b be 04 ca 80 bd 01 c3 1d be
       0.04578845 -0.13651492 -0.062885314 -0.1540642
000220 39 68 04 3e 0f a6 da 3d 79 ca 81 3d 44 27 77 bd
       0.12930383 0.106762044 0.06337447 -0.06034018
000230 a5 d6 1d bd 8a 25 83 bd 80 09 c8 3d a8 fc 4d 3e
       -0.03853478 -0.064036444 0.09767437 0.20115912
000240 08 2d a1 3c f7 e6 0c be 8e 63 1c be c7 87 bd 3c
       0.019674793 -0.13759981 -0.15272352 0.023136033
000250 e8 6e 19 be d3 92 17 be db 91 14 be 6b 1a 8c bd
       -0.14983714 -0.14802103 -0.14508764 -0.06840976
000260 d8 91 b9 3c df bc f1 3d a0 a1 24 3d cc b4 24 3e
       0.022652552 0.118036024 0.0401932 0.16084594
000270 58 06 e3 bd 1d 43 87 3d 8a af 1d be 9d 43 c8 3d
       -0.11085194 0.06604598 -0.15398994 0.09778521
000280 4c c7 81 3d e7 8b 73 3e 3b df 4d bd 86 1a 58 3e
       0.06336841 0.23783837 -0.050261717 0.21103868
000290 2c d0 2e 3e ff 23 22 3e 2e c9 51 3d a6 d5 7b 3e
       0.17071599 0.15834044 0.05121725 0.24593219
0002a0 e4 d2 1c 3e aa a8 0e 3e b0 ca ed bc d4 0b 20 be
       0.15314823 0.13931528 -0.029027313 -0.15629512
0002b0 7f 7a 22 3c df f9 ec 3c d3 96 17 be 9d 3b a2 bc
       0.009916901 0.028927742 -0.14803629 -0.019803816
0002c0 1e 51 cc bd c1 f4 0e bc 89 ad 43 3e 27 5c 89 3d
       -0.099764094 -0.008725346 0.19109167 0.0670703
0002d0 28 13 88 3d be 82 f1 3d a7 73 0a 3e 62 fb 75 be
       0.06644279 0.11792515 0.1352068 -0.24021676
0002e0 a3 26 2f be 7b 7f 07 bd 90 81 68 be 92 04 90 3b
       -0.17104582 -0.03308056 -0.22705674 0.004395076
0002f0 1a 1b 01 3e a1 4f 4f be 45 b0 68 bd 23 54 59 be
       0.12607995 -0.2024522 -0.05680873 -0.21223502
000300 c9 d3 c7 3d 27 e2 89 3e 1f aa c0 bd e1 48 f4 3a
       0.09757192 0.26930353 -0.09407448 0.0018637442
000310 8e d4 0e 3e db cb 6d bd 31 3d 78 3e 2c 59 e5 3d
       0.1394827 -0.05805574 0.24242093 0.11198649
000320 00 db ff bc ef 0e 3a bb 34 ed 6d 3d da 96 40 bd
       -0.031232357 -0.0028390249 0.058087543 -0.047018863
000330 d2 70 10 be 53 1b 92 bc e1 b5 90 bc 1f 8e 88 3d
       -0.14105538 -0.017835295 -0.017664852 0.066677324
000340 01 99 31 3d c0 34 17 3e d3 2b 70 bd 3d 19 e0 3d
       0.043358807 0.14766216 -0.058635544 0.10942314
000350 e1 7f 77 3e ac 83 98 bd 92 5e c5 3d 7e 56 7c bd
       0.24169876 -0.074469894 0.096371785 -0.061605923
000360 46 66 0d 3e 7c bf 78 bd 0b c1 1e 3c 77 8f 83 3d
       0.13808545 -0.06072949 0.00968958 0.06423848
000370 f5 f9 f5 bd 1a cd 12 be da 7d cb 3d 26 24 11 3c
       -0.12010566 -0.14336053 0.09936114 0.008858716
000380 ff 63 31 3e ff be 3c be 2e 3a cd bd 1f 06 31 be
       0.17323302 -0.18432234 -0.100208625 -0.17287491
000390 f6 0f c9 3d 5c 5f 00 3d ff 46 30 bd 6d d2 82 bd
       0.098174974 0.03134094 -0.043036457 -0.06387792
0003a0 2a 98 58 be 17 95 3a 3d b6 7c 06 3d eb c0 16 be
       -0.21151796 0.04555234 0.032833777 -0.1472203
0003b0 d7 ff 1c 3d b5 69 98 bd ac 28 61 be ab 12 02 3e
       0.038329925 -0.07442037 -0.21988171 0.12702434
0003c0 a2 c3 f2 3d 1c d2 44 bd 64 01 34 be 8d 6d 87 3b
       0.1185372 -0.04805194 -0.17578655 0.0041329325
0003d0 b8 44 37 3e 71 b1 4f 3e 0b 8f 10 be 46 b4 c0 bd
       0.17897308 0.20282532 -0.14117067 -0.094093844
0003e0 bc ca 2d 3e 97 a9 fb 3d 01 fa 9c bc 2b 07 24 3d
       0.16971868 0.12288206 -0.01916218 0.0400459
0003f0 28 0b a1 3e c0 eb 55 be bb 18 0e be cc 4f 09 3e
       0.31453824 -0.20890713 -0.13876621 0.13409346

first_part.0.bias f4 [56]
000000 b4 ff 50 3e cd ad 7e 3c f9 7d f9 bd 02 41 cb 3d
       0.20410043 0.015544367 -0.121822305 0.09924509
000010 c3 82 19 be c6 c8 ab bc c3 69 07 3e a7 47 34 3e
       -0.14991288 -0.02096976 0.13223939 0.17605458
000020 45 26 f2 bd f9 bc 92 bd d2 4d 70 bd 91 0d 0a be
       -0.118237056 -0.0716495 -0.058667965 -0.13481738
000030 cc 20 c0 3d cf ea 2b 3d cc 83 1e 3d 97 4e 15 3e
       0.093812555 0.041971978 0.03869991 0.14580761
000040 42 3e 5f bd e0 2c a3 3d 9b 83 07 3d ec 06 e5 bd
       -0.054502733 0.079675436 0.033084493 -0.11182961
000050 b0 71 a2 bd 83 1f da bd 63 3f f1 3d 65 10 08 be
       -0.079318404 -0.10650542 0.11779668 -0.13287504
000060 08 2c 4a be f1 34 28 bd 7b 41 ce bd 9c c1 5c bd
       -0.19743359 -0.041066114 -0.10071083 -0.053895578
000070 7b 08 2d be 34 49 54 3e 9d 63 41 3e a1 1f ba bc
       -0.16897766 0.2073105 0.18885656 -0.02272016
000080 15 4a 0d be a4 b4 1d ba 5c 64 11 be d5 9d 1b bd
       -0.13797791 -0.0006015992 -0.1419844 -0.037992317
000090 4a 22 d8 bd 7a 96 80 bd c7 c2 46 3e c7 6f 35 3e
       -0.10553415 -0.06278701 0.19410239 0.17718421
0000a0 d5 51 2a be ef aa 29 be da 26 cf bd 23 a4 ef 3d
       -0.16632779 -0.16569112 -0.10114832 0.117012285
0000b0 8f 5c 05 be a5 e5 28 3e 88 84 d6 37 c3 58 a9 3d
       -0.1302359 0.16493852 2.5572503e-05 0.08268883
0000c0 83 6e d4 3d 34 9a 09 3e 7f c8 d8 3d 49 48 43 3e
       0.10372641 0.1343773 0.105851166 0.19070543
0000d0 78 72 01 bd 96 19 ca bd 1a 68 a2 3d 58 ee 2e 3e
       -0.031603307 -0.098681614 0.07930012 0.17083108

mid_part.0.0.weight f4 [12, 56, 1, 1]
000000 d3 e3 09 bc 41 2a 04 3e c0 85 fb 3d bb ea 15 3d
       -0.008416134 0.12906744 0.1228137 0.03660081
000010 9f b0 ce 3d 87 1d 4c be b9 e8 81 3d 93 73 21 be
       0.100922816 -0.19933139 0.063432164 -0.15766744
000020 68 42 1d 3c 52 00 b5 bc 7c a9 a5 3d 41 ca 29 3d
       0.009598352 -0.02209488 0.08088967 0.04145265
000030 6a c0 fb bc de 60 ed 3d 77 90 fb 3d b8 f0 44 bd
       -0.030731399 0.115907416 0.12283414 -0.04808113
000040 44 4e 71 bd e1 c4 d3 3d 8f a8 c7 3d 4b 3b 77 bd
       -0.05891253 0.10340286 0.09748947 -0.06035928
000050 c9 b5 79 3d d6 02 12 be a2 31 d2 bd a9 40 aa 3d
       0.06096438 -0.14258894 -0.10263373 0.08313114
000060 c2 66 be 3d e1 b0 e1 3d 0c 20 a9 bd d2 b1 f5 3d
       0.09296943 0.11020065 -0.082580656 0.11996807
000070 5d 6a 37 bd ed 1e db bc 30 4c 28 3e 5c 4e 64 bd
       -0.04477917 -0.026748145 0.16435313 -0.05573879
000080 78 37 ff 3c 49 6d 93 3c 47 59 b5 3b a1 7f f0 3c
       0.03115438 0.017996447 0.0055343243 0.029357733
000090 b1 ef 12 3e d2 85 fd bd 6c 2f 9b b9 3c a4 29 be
       0.14349248 -0.1237904 -0.00029599236 -0.16566557
0000a0 52 9e a1 bd 09 28 9c bc ca d4 86 bd ef 11 a3 bd
       -0.07891525 -0.019062059 -0.06583555 -0.07962405
0000b0 4f df 7f be 78 50 41 3d af 49 3c 3e c1 12 c5 3c
       -0.24987529 0.04719588 0.18387483 0.024056794
0000c0 e5 9c d8 3d 81 67 56 3d 75 ad 10 bd 46 00 f1 3d
       0.105768 0.052344803 -0.03532167 0.1176763
0000d0 7d 85 0f be b2 b9 3b be 78 f8 8c bd a4 f8 f9 bb
       -0.14015765 -0.18332556 -0.06883329 -0.007628517
0000e0 66 9e 5d bd e6 4b bc 3d 9e 4c a4 3c 1f 39 ed bd
       -0.05410614 0.09194164 0.020056065 -0.115831606
0000f0 99 ca 30 3e d4 c3 90 bd 09 1f dc 3d df 20 1d 3e
       0.17264785 -0.07068601 0.10748107 0.1534457
000100 c5 b8 72 be fa ac 01 be 3a 6f 8e 3e 6b 81 0a 3d
       -0.23703296 -0.12663642 0.27819234 0.03381483
000110 77 67 3f 3e 53 b7 05 3e 12 62 d5 3d 63 3a 21 3d
       0.18691812 0.13058214 0.10419096 0.039362323
000120 70 e2 38 bc 1a 80 29 3e 27 b0 0f bd 4f 03 2f be
       -0.011284456 0.16552773 -0.0350801 -0.17091106
000130 4d f8 d8 bc 79 b9 2c 3c 5b 30 34 3c da 41 aa 3d
       -0.026485587 0.010542267 0.010997857 0.083133414
000140 41 25 57 3d a3 61 c3 bd 6f 4a ea 3c bd 18 f8 3b
       0.052525762 -0.09540107 0.028599946 0.0075713084
000150 1b b0 a6 3d b5 f5 66 bd e4 11 ab bd 97 cc 1d 3e
       0.08139058 -0.05638667 -0.08353022 0.15410076
000160 8f a2 c2 3d 28 c7 80 3d ea 1e 0d be 63 83 60 be
       0.09503662 0.06287986 -0.13781324 -0.2192512
000170 6a ef 4c 3e 66 23 25 bd 1a d8 09 be 6d 35 9a bd
       0.20013204 -0.04031696 -0.13461342 -0.075297214
000180 78 eb b5 3d 43 95 e6 bd c3 f7 2b 3e 15 9e 17 be
       0.08882803 -0.11258938 0.16793732 -0.14806397
000190 7f 6f 05 3d c9 9f fe 3d 16 7a 0b 3e 04 3a 71 3d
       0.032577034 0.1243282 0.13620791 0.05889322
0001a0 1a 3d 2b 3d 29 6e 95 bd f0 aa 12 bd a9 69 27 3e
       0.041806318 -0.07296402 -0.03580755 0.163489
0001b0 23 a7 e6 3b 80 81 ad 3b a4 c3 0f 3d be a4 93 3c
       0.007038967 0.0052949786 0.035098687 0.018022891
0001c0 ea 8a 23 bd 40 07 c5 3d 16 7d 91 3b 8b 2c e4 3c
       -0.0399274 0.096205235 0.0044399602 0.027853271
0001d0 96 2f 59 3d 69 3f 0b 3e d2 0b 0b bd 95 2b 18 bc
       0.053023897 0.13598408 -0.03394682 -0.0092877345
0001e0 da b3 ac 3d 91 fd 08 be 74 2a 29 3c 75 1b 03 be
       0.084327415 -0.13377978 0.010325063 -0.12803443
0001f0 8d 1e 25 be c3 a0 cb 3a 59 d1 0a 3d 5c e1 f5 ba
       -0.16124935 0.0015535582 0.033891056 -0.0018759179
000200 2b 91 e5 bc 85 33 82 bd 28 b7 a9 bb ee 07 24 bc
       -0.028023323 -0.06357483 -0.0051793046 -0.010011656
000210 f5 f2 89 bd 1c 2a 51 3d cc 42 81 3d 9a a2 5a bc
       -0.067357935 0.05106555 0.063115686 -0.013344431
000220 da 39 34 bc e2 e5 da 3c 07 a4 15 3e 2f af 83 bd
       -0.011000121 0.026720945 0.14613353 -0.06429898
000230 00 9e f6 bd 7a 33 09 be 41 0b be bc 61 49 ba bd
       -0.12041855 -0.13398543 -0.023198726 -0.09096027
000240 e6 f9 ed bd 2c db 3e bd 0d f2 f4 bc a0 99 e3 bb
       -0.1161993 -0.046595737 -0.029900575 -0.0069458038
000250 93 31 14 bc 99 b1 98 3d a3 57 11 3e ed 1c 8d bb
       -0.009045023 0.07455749 0.14193587 -0.0043064267
000260 87 f0 13 be 61 62 11 3e b9 c6 bd 3d 99 70 16 3e
       -0.14447223 0.14197685 0.09266419 0.1469139
000270 25 6c f9 3d 29 3d a9 3d 52 38 0f bc 80 ce b2 bd
       0.1217883 0.082636185 -0.008741455 -0.08730793
000280 b0 68 2e be e3 f7 9f bd 02 2e fd 3c db f0 d7 bd
       -0.17032123 -0.078109525 0.030905727 -0.105439864
000290 bc 9f c3 3c 05 ba 8c 3d ba 1a 03 be ed 25 de 3c
       0.023879878 0.06871418 -0.12803164 0.027117694
0002a0 01 e3 3b 3e 80 63 d7 3d 2e bb 5a 3d 0e 20 4f bd
       0.18348314 0.10517025 0.053401165 -0.05056768
0002b0 53 2f b0 bd 7a 2c 0e bb b9 f3 b1 bd 8f 11 32 3e
       -0.086027764 -0.002169399 -0.086890645 0.1738951
0002c0 05 9c ce bc 61 d7 0e bd 64 62 97 bd 74 2c 2b bd
       -0.02522088 -0.03487337 -0.073918134 -0.04179044
0002d0 6c f3 ab bd 15 aa 14 bd f7 f1 11 be 7a 3b 02 3e
       -0.083960384 -0.036295015 -0.14252459 0.12718001
0002e0 df 2d 95 bd dd f4 b9 3d 27 59 87 bd 00 7c 90 bd
       -0.0728414 0.09079907 -0.06608801 -0.07054901
0002f0 87 a4 14 be 51 de db bc fd 3a e9 bd 77 72 c7 bd
       -0.14515887 -0.026839407 -0.11388204 -0.09738629
000300 8e 32 b0 3c 33 cf 88 bd 1d c0 06 3e bb e6 26 3e
       0.021508481 -0.06680145 0.13159223 0.16298954
000310 21 87 c1 3d 3a 4d 18 3e 66 77 e7 bc 79 a4 69 3c
       0.09449602 0.1487321 -0.028255176 0.014260405
000320 96 b6 f9 3c 85 85 11 3e 99 d0 22 be 50 f0 f9 bc
       0.030482572 0.1421109 -0.15899886 -0.030510098
000330 7e 0d a7 3d e0 e9 94 3d 91 43 07 be a7 0d f2 3d
       0.0815687 0.072711706 -0.13209368 0.1181901
000340 a6 2b d0 3d 72 15 4e 3d a0 2a 48 bd 7d 60 9e bd
       0.10164575 0.05031342 -0.048868775 -0.077332474
000350 77 ba 66 bc 2a e0 18 3e 58 c7 d1 3d b7 5e df bd
       -0.014082543 0.14929262 0.102431 -0.10906737
000360 6c 0e 01 3e 66 ea ae 3c 36 10 a7 bd 6e 7c 0d 3e
       0.12603158 0.021352004 -0.08157389 0.13816997
000370 7e ce e5 3d 6c 58 b3 3b 1c 67 76 bd c5 f0 eb 3d
       0.11221026 0.005473187 -0.060156927 0.115205325
000380 4e 5f 85 bd a2 bf 83 bc 6c c2 2d bd fe 3a c1 bd
       -0.065123186 -0.016082589 -0.042421743 -0.0943508
000390 27 f4 4d 3b 89 18 1c 3e 39 8b 86 3c 5f 6c 35 bd
       0.0031426044 0.15243734 0.016423808 -0.044292804
0003a0 87 b3 21 3e bb 8f 35 bd 99 1f 22 be 4d dd 1e bd
       0.1579114 -0.044326525 -0.15832366 -0.038785268
0003b0 51 19 a3 bd a7 3d 89 3d 39 4d 00 3e a8 40 52 bc
       -0.07963813 0.067012124 0.12529458 -0.012832798
0003c0 f5 f0 10 3e d6 14 d3 3d 7d e5 47 3d 6c 42 c7 3d
       0.14154418 0.103067085 0.04880284 0.09729466
0003d0 c7 6b c8 3d 29 21 36 3d 66 79 12 3e 41 52 3c bd
       0.09786182 0.044465218 0.14304122 -0.04597688
0003e0 be 1a e8 bd cb 71 17 be c0 9d ef 3d 98 79 25 be
       -0.11333226 -0.14789502 0.1170001 -0.16159666
0003f0 ab 95 22 3d b3 95 63 bd 7e ea 1c be 5a 26 f8 bc
       0.039693516 -0.055562686 -0.15323827 -0.030291725

mid_part.0.0.bias f4 [12]
000000 47 98 05 be c2 f0 3f 3d 5c f5 a3 bc 1b 41 fc 3c
       -0.1304637 0.046860464 -0.020014457 0.030792763
000010 c5 c3 d2 3d 5c 3f 45 bd bf 29 b9 3a 15 2d cb bd
       0.10291246 -0.048156127 0.0014126821 -0.09920708
000020 1f ea 4f 3d 39 d7 a5 bc c8 e7 1d bd b4 78 7d 3c
       0.050760385 -0.020244228 -0.038551122 0.015470672

mid_part.1.weight f4 [12, 12, 3, 3]
000000 cd 37 a5 3b 6c 85 e8 3c 68 8c 8a 3d 60 0c 91 3d
       0.0050420524 0.028383933 0.067650616 0.070824385
000010 11 69 dc 3d 96 c3 5b bd bd 0e f2 bd ca a4 95 3d
       0.10762227 -0.053653322 -0.11819217 0.07306822
000020 50 5e 96 3d 3b 05 04 3d 24 2a a2 bd b2 c1 e9 bc
       0.073422074 0.03223155 -0.07918194 -0.028534744
000030 3b d1 aa 3d 27 b7 f1 bc 73 26 c2 bc 13 3a da bb
       0.08340689 -0.02950628 -0.023699975 -0.006659755
000040 c9 12 88 3d fd cc 23 bd 5a 64 37 bd f3 e6 5c bd
       0.06644208 -0.039990414 -0.044773437 -0.053931188
000050 e4 43 31 bd 23 f9 01 bd 90 79 6a bd 5f 14 8e 3c
       -0.043277636 -0.031731736 -0.057244837 0.017343698
000060 52 d4 ad bd 4d 71 72 bd 12 ef d9 bd ae 22 d0 bd
       -0.084877625 -0.059190083 -0.10641302 -0.101628646
000070 99 ad 84 3d ea d0 2b 3c b7 2c 34 bd b6 55 8b 3d
       0.064784236 0.010486821 -0.043987956 0.068034574
000080 18 0b 90 3d c8 f3 a3 3d 74 c6 b3 3d ac d1 cf bd
       0.07033366 0.08005482 0.08778086 -0.101474136
000090 12 02 3e 3c da 65 06 be 3f 0f 42 3d 80 9a 2b 3d
       0.011597173 -0.13124791 0.04737782 0.04189539
0000a0 b5 e5 0c be 51 54 0e bd d5 a8 ef 3c 93 de c2 bc
       -0.13759501 -0.03474838 0.02925531 -0.023787772
0000b0 fc e5 ca bd 2c 26 e4 3d 2b a9 fc bc 4b f2 c7 3c
       -0.09907147 0.11140093 -0.030842384 0.024407526
0000c0 27 9d a9 3d 06 a7 ad bd ad b7 0f bd 0b e7 bc bc
       0.082819276 -0.08479123 -0.035087276 -0.023059389
0000d0 e4 37 e5 3d 13 3c 2a bd 73 54 97 bd 5d 3e 91 bd
       0.11192301 -0.041561197 -0.07389154 -0.07091973
0000e0 85 54 d6 bb 4f 82 a2 3d 23 b4 9b bd a2 fc ac bd
       -0.006540837 0.07935011 -0.07602718 -0.084466234
0000f0 18 f4 c2 bd 18 dd b7 3d 82 ed 54 3d 51 2a 57 3d
       -0.095192134 0.08977717 0.051984318 0.05253059
000100 c0 63 d9 3d 28 fe 1e 3d 3a 61 c1 3d b5 b7 cb 3c
       0.10614729 0.0388166 0.094423726 0.024867872
000110 8e 92 33 3d 0a 12 3b bd cb f9 75 ba 28 51 98 3c
       0.043840937 -0.0456715 -0.00093832304 0.018593386
000120 72 84 50 bd 12 56 0f bd da ad f6 bc 97 ba 78 3d
       -0.05090756 -0.034994192 -0.030112196 0.06072482
000130 30 9d 96 3d ed 84 64 bc 30 a0 26 bc 92 eb 4a bd
       0.073542 -0.013947708 -0.010170028 -0.049541064
000140 fb 04 61 3d 45 5d 21 bd f7 3c 1d bd 21 27 88 3d
       0.05493639 -0.03939559 -0.03838822 0.06648088
000150 42 d3 5a bd d2 55 d7 bb 3f 0a 62 3d b9 c6 92 bc
       -0.053424127 -0.00657151 0.055185553 -0.017917024
000160 10 9c b4 bc 77 a9 a4 3d ea 74 fb bc 05 00 85 3d
       -0.022047073 0.08040135 -0.030695397 0.06494144
000170 cc 26 fc bc ba f7 ab bd 94 a7 06 3d ef 4e b7 bd
       -0.030780219 -0.083968595 0.03287466 -0.08950602
000180 ce 05 ab bd 24 f2 d7 3c c3 0c 92 bd e4 4b 9e 3c
       -0.083507165 0.026360579 -0.0713134 0.019323297
000190 54 13 d5 bd 15 ce a0 3d e1 4b 8c bb 3b 79 e7 3c
       -0.10404077 0.07851807 -0.0042815064 0.02825605
0001a0 32 0f fa bd db ff 94 3c 0e bb 26 bd d0 0e da 3c
       -0.122099295 0.018188408 -0.040705733 0.026618391
0001b0 64 29 20 bc 13 19 c7 3d 1d 0e 14 3e ae bf 89 3d
       -0.009775493 0.097215794 0.14458509 0.06726013
0001c0 1e 4c 83 bd 5b 40 d3 3d 69 b3 7f bd bd 48 74 3d
       -0.064110026 0.10315009 -0.06242696 0.05963968
0001d0 9f 26 98 3d ac 8a 11 3d ae 2e 0a 3b 0b 44 92 3d
       0.074292414 0.03553264 0.0021084952 0.071418844
0001e0 ec ac 84 bd 23 e0 e9 3c 72 13 9a 3c d1 6c 83 3c
       -0.06478295 0.02854926 0.0188081 0.016043099
0001f0 a4 f5 1d 3d 5c 6d 10 3c 9b cf a8 3d 5c 3a b2 38
       0.03856434 0.008815136 0.082427226 8.498572e-05
000200 6c 5c e7 3c b2 2d d1 3d 25 79 52 3d 9f 01 09 3b
       0.028242312 0.10213794 0.051385064 0.0020905507
000210 63 b6 02 bc 1a 30 88 bd 5f 90 9a bd d1 83 35 3d
       -0.007978055 -0.066498 -0.07547068 0.044315163
000220 78 d2 25 3c 51 25 51 3c 96 24 cc bd 94 0a 39 3d
       0.01012098 0.012765245 -0.09967916 0.045176104
000230 db 4f 09 bd ed 1b 8a 3d cb bf 35 bc 7c 8c 07 3d
       -0.03352342 0.06743608 -0.01109309 0.03309296
000240 36 50 79 3d e3 88 37 bd 83 68 a7 3b 9e e4 e2 bc
       0.06086751 -0.04480828 0.0051088943 -0.027696904
000250 d7 56 e4 3d e2 18 5c bc 6f f3 8b bd bc 25 5c bd
       0.11149376 -0.013433667 -0.06833541 -0.053746924
000260 b7 fa 98 bc 1a ad 21 3d 40 21 7f 3d 09 b8 d1 3d
       -0.018674238 0.039471723 0.06228757 0.1024018
000270 51 81 ae 3d 5a c0 f8 3c c4 d8 c3 3c 52 c8 19 bd
       0.08520759 0.030365158 0.023907073 -0.037544556
000280 10 d3 b2 3c 3a 4f 6c 3d 9b 03 64 bb 16 69 82 3c
       0.021829158 0.057692744 -0.0034792188 0.01591925
000290 5b ea 1d bd 91 c6 a5 3d 5a 19 c0 3d b9 85 02 3e
       -0.038553577 0.08094514 0.093798354 0.12746324
0002a0 68 be 66 3d 8e 15 3d bd e7 ce ca 3b b2 df 46 bd
       0.05633393 -0.046163134 0.0061892155 -0.048553176
0002b0 0e 04 5f bd 7c 4f cc 3d a3 f0 0d bc 6d f3 b6 bd
       -0.054447226 0.09976098 -0.008663329 -0.089331485
0002c0 bd 80 d5 bc 31 6e 54 3d ea 41 64 bc 1e 44 8a 3d
       -0.026062364 0.0518629 -0.013931731 0.067512736
0002d0 78 4d e2 3c 76 5a e6 bd 0b ff 13 bd cc 21 29 3b
       0.02762483 -0.11247723 -0.0361319 0.0025807498
0002e0 ad 77 3b bd f7 45 5d 3d 78 be 45 3d a3 68 63 bd
       -0.04576843 0.0540218 0.04827735 -0.05551971
0002f0 a3 8d ac 3c 38 8b 6f bd a3 81 a1 bd 45 1a 9f bd
       0.021063631 -0.05848238 -0.07886054 -0.077686824
000300 ce b6 ab bb f0 c7 b9 3c 3e e4 af bc 22 2c 22 bc
       -0.005240298 0.022678345 -0.021471139 -0.009898217
000310 42 d1 af 3d bf 8b d9 3d 26 1c ea bb ff e1 ad bc
       0.08584835 0.106223576 -0.007144469 -0.021225927
000320 fc 0f 92 3d 80 2c c8 3a 6c 64 e4 3d f1 2c 66 3d
       0.07131955 0.0015272051 0.111519665 0.056195203
000330 5f 95 1c 3d 39 a4 4b 3b a3 99 0c 3d c3 82 0a 3c
       0.03822839 0.0031073226 0.034326207 0.008454028
000340 e6 78 c4 3d f9 d4 66 ba e3 8d b3 3d 84 15 32 bd
       0.09593372 -0.0008805539 0.08767297 -0.04347755
000350 a8 f8 7b 3d 9e a3 3a 3d ef 17 65 bd 3e af 14 3d
       0.061516434 0.045566194 -0.055931028 0.036299936
000360 27 f7 31 be e3 b2 0b bd 9e 1a 07 be 07 3e a1 bd
       -0.17379437 -0.034106147 -0.13193747 -0.07873159
000370 97 7e b2 3c 58 c2 b6 be f1 8e 4d be 1f 96 08 3e
       0.021788878 -0.35695148 -0.20074059 0.13338517
000380 b7 05 07 be fa a7 94 3e 35 00 a8 3e 43 5d 26 be
       -0.13185774 0.29034406 0.32812658 -0.16246514
000390 63 46 a2 3e 25 1d 2c be b7 30 1a bf 53 7e 2f bd
       0.31694326 -0.16807993 -0.6023058 -0.04284508
0003a0 11 43 51 3d cf 99 8c be ad 14 a7 3d e7 4e 8c bd
       0.05108935 -0.27461097 0.081582405 -0.06850987
0003b0 93 24 af bc 70 76 e3 bd 68 3e e7 3d 77 80 b2 3d
       -0.021379745 -0.111065745 0.112912 0.08715909
0003c0 1b c2 bc bc 05 57 4c 3b 3d 9b 0d 3e d1 c1 94 3e
       -0.023041775 0.0031179797 0.1382875 0.2905412
0003d0 3c c9 90 bd 4a 70 c5 bc 83 5d ff bd 72 69 93 be
       -0.070696324 -0.024101395 -0.12469008 -0.28791386
0003e0 9e 1f f1 bb fd 70 55 3d a0 59 6e bc ee 2f a6 3e
       -0.0073585054 0.052109707 -0.014547735 0.32458442
0003f0 5c 47 38 bd 5f 25 68 3d 2f f9 93 3d 14 24 fb bd
       -0.04498993 0.056676265 0.072252624 -0.12262741

mid_part.1.bias f4 [12]
000000 8f a2 96 bc e8 3e 7a 3d 5c bf 3b bb 95 4e bb 3b
       -0.01838806 0.06109515 -0.0028647995 0.005716155
000010 d8 a7 74 3b d1 78 c8 bd 50 02 ca bc 40 c3 f7 bc
       0.0037331488 -0.09788669 -0.024659306 -0.03024447
000020 01 8c a8 3c 8f e7 97 bb 47 34 53 bd 62 69 92 bd
       0.020574572 -0.004635758 -0.051563527 -0.071490064

mid_part.2.weight f4 [12, 12, 3, 3]
000000 70 e8 1d 3d 4e d4 9d bb a4 9e 9b 3d db 88 d9 bd
       0.038551748 -0.0048165685 0.07598618 -0.10621806
000010 09 1f 82 bd d4 d5 8b 3d 12 7b 21 bd 00 77 95 bd
       -0.06353576 0.06827894 -0.03942401 -0.07298088
000020 0d 5e 02 bd a4 6a be bd 08 ab 9f bd b9 3f a7 3b
       -0.031827975 -0.09297684 -0.077962935 0.005104032
000030 0d b0 ad bd d4 bd ae 3d 92 f5 84 3d 9b d3 9c 3c
       -0.08480845 0.085323006 0.06492151 0.01914387
000040 a1 49 fa bc 13 61 03 3d aa 9c 1a 3c 25 3e ef bd
       -0.030552687 0.032075 0.009436766 -0.11681775
000050 00 10 42 be ed 35 1c 3e 5d 3a 2c bd 73 d1 89 be
       -0.18951416 0.15254946 -0.042047847 -0.2691761
000060 09 a2 e6 3b cd 8e 46 3d db 52 b2 bd d2 cd 17 bc
       0.007038359 0.04847603 -0.0870721 -0.00926538
000070 1a 2d 2f 3c e1 33 19 be 10 df d9 3d 4a cc b0 3d
       0.010691905 -0.14961196 0.10638249 0.08632715
000080 6b da 9d bb 86 df 06 be 2b 56 42 3c c0 ee 69 bd
       -0.004817297 -0.13171205 0.011861364 -0.057112455
000090 4b ba ba 3d 03 ee f8 bb 25 ae 9d 3c 38 2a 70 bd
       0.09117564 -0.0075967326 0.019248078 -0.058634013
0000a0 53 e3 3b bd 29 6e 15 3d 34 bb ea bc b9 e2 5c 3d
       -0.04587109 0.03648201 -0.028653719 0.053927157
0000b0 42 c6 c0 3d 46 5e 3f bc d2 a4 43 3c aa 80 cb 3d
       0.09412815 -0.011680191 0.011941152 0.0993665
0000c0 7b b8 61 3c 4a ab 56 3d 52 c6 78 bd f9 b5 29 3d
       0.013776894 0.052409448 -0.060736008 0.04143331
0000d0 02 5e 4b bd 5f 67 e9 3d 69 e1 88 3c 67 62 89 3d
       -0.0496502 0.113966696 0.016709046 0.06708222
0000e0 2e 26 fe 3d af e4 22 be 65 08 2a be d1 a6 0b 3e
       0.12409626 -0.15907548 -0.16604765 0.13637854
0000f0 41 5b ee 3c a9 7c 93 3d 33 25 4c 3e ed 46 a1 bc
       0.029096248 0.072015114 0.19936065 -0.01968714
000100 b1 eb 75 3d 4e 08 70 3d 31 c1 ad bd 33 03 d6 bc
       0.060039226 0.05860167 -0.08484114 -0.026124572
000110 88 62 9f bd 8b ba e7 3d 00 2d 5f 3e 05 96 7c bd
       -0.07782465 0.11314877 0.2179451 -0.061666507
000120 ed 74 6d 3d f0 b7 29 3d 3f e2 fa bd fa 66 e7 b6
       0.057972837 0.041435182 -0.12250184 -6.8963245e-06
000130 7b f7 cc 3d 29 65 80 bc d3 a6 b7 bd b1 d8 de bc
       0.10008141 -0.015673237 -0.08967366 -0.027202936
000140 4d 51 89 3d d9 ad 91 bd 01 da 9c bd 94 30 55 3d
       0.0670496 -0.07113237 -0.076587684 0.05204828
000150 0a 05 b7 bd b0 23 ae ba 54 6b b3 bd ca 95 6a bd
       -0.08936508 -0.0013285782 -0.087607056 -0.057271756
000160 26 55 ac bd 56 0e b2 bd fd c8 d0 3d cd dd c0 3d
       -0.08414678 -0.086941406 0.101945855 0.09417305
000170 15 d5 11 bd c4 06 7f bd 62 69 a6 bd 43 bc 72 3c
       -0.0356036 -0.06226231 -0.08125569 0.014815393
000180 63 40 81 3d a8 71 14 bd 71 2e 86 3d 9e 1a 01 3e
       0.06311109 -0.036241204 0.06551827 0.1260781
000190 99 2f 1f 3d 71 5c 65 bc 56 fb 18 3e 5e 4c f0 bc
       0.038863752 -0.0139990905 0.14939627 -0.02933329
0001a0 fa 8e 91 bd 50 7b 6c ba 77 25 e2 bc 11 2b 28 3c
       -0.07107349 -0.00090210605 -0.027605755 0.010264174
0001b0 9e 83 c5 3d 70 d6 b2 bc 54 c0 05 3d c2 26 45 bd
       0.096442446 -0.021830767 0.03265412 -0.048132665
0001c0 10 76 4c 3c 04 a5 b4 bd 57 96 e0 bb 2c fd 70 bd
       0.01247932 -0.08820537 -0.0068538594 -0.058835194
0001d0 e7 71 df 3b 7d 10 21 3c 34 5f 31 bd 99 e4 cb 3c
       0.006818998 0.009830591 -0.043303683 0.024889277
0001e0 da de be 3b c5 97 3f bd 57 16 78 3c cf ab 10 bd
       0.005824906 -0.046775598 0.015142045 -0.0353201
0001f0 f8 55 1a 3d a9 d6 0a 3d 4d bd 89 bd 5c 22 58 bc
       0.037679642 0.033896122 -0.067255594 -0.013191786
000200 2e cf 24 be 96 c3 8a 3d a1 27 e7 3d 71 41 1c bd
       -0.16094658 0.06775586 0.112868555 -0.038148347
000210 5f ab ec 3c 38 19 1d 3b 51 e9 11 be 98 9e 91 bd
       0.02889031 0.002397133 -0.1424916 -0.071103275
000220 b8 a5 9c 3d 1b 3a 1f bd 25 70 a0 bd 40 e8 b5 3d
       0.07648796 -0.038873773 -0.0783389 0.08882189
000230 0a bd aa 3d 53 92 09 bc 20 6b 8d bd cc 75 1d bc
       0.083368376 -0.008396703 -0.06905198 -0.0096106045
000240 73 b5 cb 3d 6b 42 60 3d 73 2c c7 bc 53 8e 17 3c
       0.09946718 0.05475084 -0.024313187 0.009250241
000250 dc c0 31 bd 11 74 0a 3c af ce 84 bc 28 11 fa bb
       -0.043396816 0.008450524 -0.016211836 -0.0076314397
000260 eb 4c a1 bd af 48 63 3d ca b7 95 3d 6e 19 ea 3c
       -0.07875999 0.05548924 0.073104456 0.028576579
000270 e6 b4 93 3d bc 5d 52 bd 59 6a 0a bd 00 89 f6 bd
       0.07212238 -0.051358923 -0.033792827 -0.120378494
000280 81 a7 ff 3c f1 72 83 bc 1f 3a 98 bb 58 9f f5 bb
       0.031207802 -0.01604602 -0.0046456004 -0.007495802
000290 d0 a9 23 3e 09 6f 27 3c 34 6a e7 bd 00 28 91 3d
       0.15982747 0.010219344 -0.112995535 0.070877075
0002a0 92 48 e9 3d 57 0b 36 3d ea 0b b4 3d fb 91 98 3d
       0.11390795 0.04444441 0.08791335 0.074497186
0002b0 8f 6d 40 3d 7b 66 e6 bc 24 cd a8 3b c3 e5 a2 bc
       0.046979483 -0.028125038 0.005151408 -0.01988495
0002c0 11 29 f4 bd 42 73 22 3c 22 f3 9a 3b ae 49 52 3c
       -0.11921895 0.009915175 0.0047286907 0.012834949
0002d0 2e 28 35 3d 82 46 55 3d 78 bb 1d bd a3 73 b8 3d
       0.04422777 0.052069195 -0.038508862 0.09006431
0002e0 24 1e 6e 3b 64 ba 3e 3d fd 6e 5c 3d 3d d5 57 3d
       0.0036333883 0.046564475 0.053816784 0.052693594
0002f0 7a f4 44 3c 2a 75 14 bd fc 94 b7 3c cb de 60 bd
       0.012021178 -0.03624455 0.022409908 -0.054899972
000300 ca 30 18 bd 8f b4 37 3d cf 5e 9c 3d d6 68 10 bd
       -0.037155904 0.04484993 0.07635271 -0.03525623
000310 fc 68 bc bd 77 d7 b7 3d 0f a3 2b 3d fc 78 83 bd
       -0.09199712 0.089766435 0.04190355 -0.0641956
000320 54 4d ff bc b5 d6 72 bc 6c 11 ba bc 64 da 0a bb
       -0.031164803 -0.014821698 -0.022713386 -0.00211873
000330 9a 6d 7c bd bc 81 a6 3b 4f 2c 83 bd 86 41 f1 bd
       -0.06162796 0.0050813835 -0.064049356 -0.11780076
000340 15 62 37 bd 85 e1 f5 3b 50 1d a7 bc 08 4f 5a 3c
       -0.044771273 0.0075036907 -0.02039972 0.013324507
000350 a9 59 e4 3b 3f db 9b 3b fe 98 63 3d ab 3e 7b 3d
       0.006968696 0.004756361 0.055565827 0.06133906
000360 9e 36 a3 3d 3e 6a f0 bc 1a 93 a9 bc 94 06 b0 3a
       0.07969402 -0.029347535 -0.020700026 0.0013429695
000370 80 cc 02 bd e9 6a b7 3b c7 b2 85 3d 25 2a 01 3d
       -0.031933308 0.0055974615 0.0652824 0.031534333
000380 0e 22 b8 3c b2 a5 95 3b 56 27 dc 3c 93 84 90 3a
       0.022477176 0.0045668716 0.026874226 0.0011025838
000390 58 b7 db bd 95 79 3c 3d 77 6f c1 bd 2d 9b 71 bd
       -0.107283294 0.046014387 -0.09445088 -0.058985878
0003a0 07 c7 18 bd 18 09 c7 bc 99 0f 3b be 6c 26 83 bd
       -0.037299182 -0.024296328 -0.18267669 -0.06403813
0003b0 c0 40 30 bc 4f f6 2a bc 33 8b 2b 3d d9 2c e8 3d
       -0.010757625 -0.010434701 0.041880798 0.11336679
0003c0 19 65 69 3b 02 b5 b3 3d 32 f6 88 39 7b 01 75 bd
       0.0035613237 0.08774759 0.0002612337 -0.059815865
0003d0 1b 1d 3c 3b 58 15 1c 3d 24 a1 7c bb 16 f0 87 3d
       0.0028703872 0.038106292 -0.0038548196 0.0663759
0003e0 f4 22 4c 3c 43 9b b9 3d 74 7b 61 bd ec 62 e6 3c
       0.012459505 0.09062817 -0.055049375 0.028123342
0003f0 8f 95 18 3b de be c2 3d f5 dd 04 bd 31 d1 40 bd
       0.0023282503 0.09509061 -0.032438237 -0.0470745

mid_part.2.bias f4 [12]
000000 a9 d5 cc 3d 5b 02 ff 3d c4 67 93 3c 50 64 03 be
       0.1000169 0.12451621 0.017993815 -0.12831235
000010 18 1a f7 bd 23 25 ba bd 0e 30 65 bd 60 9f 68 bc
       -0.12065524 -0.090891145 -0.05595403 -0.014198154
000020 7b a9 73 3d c1 d9 e8 3b ee 79 94 3d d0 fa be bd
       0.0594878 0.0071060364 0.07249819 -0.093251824

mid_part.3.weight f4 [12, 12, 3, 3]
000000 3a f5 de 3d a3 28 87 3d 7c df 4d 3a 5d 5c 63 3d
       0.10886617 0.06599548 0.0007853431 0.055508006
000010 d3 ba bb 3d 11 83 01 bd d4 39 cb 3d ac 18 88 bd
       0.09166493 -0.031619135 0.09923139 -0.06645331
000020 b8 d6 1e bd c5 4e a8 3c c9 99 b8 bb b8 0b 56 bb
       -0.03877899 0.020545373 -0.005633567 -0.0032660794
000030 28 5a ef 3c 0b 70 89 3d b4 98 25 3d fc 05 7e 3d
       0.029217795 0.067108236 0.040428832 0.062017426
000040 bb 0b 0b 3d 17 db 6c 3d 33 42 cf bc fd ed 30 bc
       0.033946734 0.057826128 -0.025300121 -0.010798928
000050 c8 25 5a bd 0d d9 da 3b c0 a7 6e bd 39 17 1c bb
       -0.053258687 0.0066787065 -0.058265448 -0.0023817553
000060 6f 6f d1 3d 3e 93 04 3c 55 53 04 3d 41 b3 84 bd
       0.102263324 0.008091746 0.032306034 -0.064795025
000070 d4 69 70 bd 8c 9c 93 3d b4 fa 3b bc 17 a4 98 bd
       -0.058694676 0.07207593 -0.0114733465 -0.07453173
000080 04 c2 91 bd f6 9c 27 3d 75 a9 fe bd 92 fb 81 3d
       -0.07117084 0.040921174 -0.12434665 0.06346811
000090 a7 85 82 3c 24 f3 be bd e2 52 9e 3d 09 94 f1 bd
       0.015932871 -0.09323719 0.077306524 -0.117958136
0000a0 32 a6 40 bd ca 17 9f bc 3e 34 a3 bd 07 fb ef 3c
       -0.047033496 -0.019420523 -0.07968949 0.029294504
0000b0 9b 66 f8 bc 4d 80 31 3d df 0d 89 bc 90 e2 75 3d
       -0.030322364 0.043335248 -0.016730247 0.06003052
0000c0 86 1e 2e 3d 62 1d b8 3c dc 9b 8d 3c f3 7d 78 3d
       0.04250958 0.022474948 0.017286234 0.06066699
0000d0 53 36 59 bd 48 ef cf bd b7 fe a6 bd 85 62 40 bc
       -0.053030323 -0.10153061 -0.08154052 -0.011742239
0000e0 73 5f 4b 3d dc da ff 3c b4 dc 6c bc ef eb da 3c
       0.049651574 0.03123229 -0.014456917 0.02672383
0000f0 f4 4c 1c 3d 89 92 3c bd 97 de 9b bc 67 15 e8 bd
       0.038159326 -0.046038184 -0.019027038 -0.11332207
000100 1f 5f 68 bd dd 1f 8e bd 17 c9 6d bd d8 45 9b 3d
       -0.05673134 -0.06939671 -0.058053102 0.07581681
000110 48 8c ef 3d 95 cb 9d bb dd 86 12 3d 77 92 75 3c
       0.116966784 -0.0048155286 0.035773147 0.014988533
000120 3c 93 83 3d 52 15 cf 3c 8d 10 c8 bc 7f d6 9c 3d
       0.06424567 0.025278721 -0.024421955 0.076580994
000130 06 f4 d3 3c 66 23 04 bd 17 0e 78 bd 3d d3 e3 bc
       0.025873195 -0.03226032 -0.060560312 -0.027810687
000140 f9 a8 8f bd 84 5b a0 bd 3d 18 a3 bd d6 0e ab bd
       -0.07014651 -0.07829955 -0.079636075 -0.08352439
000150 26 66 5a 3d 04 60 b8 bc 53 45 8c 3c c2 e1 86 3d
       0.053320073 -0.022506721 0.0171229 0.06586029
000160 50 1c 95 bd c7 fb 72 bd cd 41 c7 3d 9e 7c ab 3d
       -0.07280791 -0.059322145 0.097293474 0.08373378
000170 48 ee 30 3d 74 0e 62 3d a4 ca 3d 3d 90 de 94 3b
       0.043195993 0.055189565 0.04633583 0.004543133
000180 6a 39 94 bb 27 8a e6 3d 7c 31 00 3d b7 c5 01 bd
       -0.004523446 0.11256819 0.031297192 -0.031682696
000190 e9 f5 8b bd b3 3c 9a 3d 81 96 c3 bd d4 fb 0e 3c
       -0.06834013 0.07531109 -0.09550191 0.008727033
0001a0 ca ec b3 3d ae 19 b9 bd b2 7a 6c 3d f6 b4 1c 3d
       0.08785398 -0.09038101 0.0577342 0.038258515
0001b0 da 4c 61 bd 7d 70 e1 ba 5a 40 a3 3b c6 48 38 bd
       -0.055004932 -0.0017199662 0.0049820365 -0.044991277
0001c0 8c c7 24 bd b9 f9 da 3d 9d e7 17 ba 03 a8 65 bd
       -0.040229365 0.10692162 -0.0005794706 -0.05606843
0001d0 15 77 5c 3c 0a d7 24 3c b8 91 f0 3d 8b 13 af 3d
       0.013456126 0.010061035 0.11746544 0.085486494
0001e0 aa c9 79 3d 20 3e 5d bd 8d a3 5a 3d 25 87 81 bd
       0.060983337 -0.054014325 0.05337863 -0.06324605
0001f0 98 6e b4 39 d8 e7 68 3d eb 05 34 bc 71 45 91 3d
       0.00034414674 0.05686173 -0.010987739 0.07093323
000200 b4 04 88 3c f7 b9 4a bd e1 c3 81 bd 60 25 91 bd
       0.016603805 -0.049493756 -0.06336189 -0.07087207
000210 45 a8 07 3d 01 1d b6 3a 3d bd 3f bd 5b be 3f 3d
       0.03311946 0.0013894142 -0.04681133 0.046812396
000220 60 3c 3d bc 7e 01 10 bd ea e1 c6 bd 42 ab 79 bd
       -0.011550039 -0.035157673 -0.097110584 -0.06095434
000230 dc eb 9f 3d 96 38 c6 bd dd 9c f0 bd b0 33 59 3d
       0.078086585 -0.09678762 -0.11748669 0.05302781
000240 15 be 2c be 5e 1f 44 bd de 73 bb bd 00 dd 91 bd
       -0.16869386 -0.047881477 -0.09152959 -0.071222305
000250 65 e9 ee bb 54 b4 bf 3d eb e4 4a bc 7d 4f 81 3d
       -0.0072910064 0.09360567 -0.01238368 0.06313989
000260 70 f0 92 bd 2c 48 a2 3d 84 e8 5c 3d b6 8d 4f bd
       -0.07174766 0.07923922 0.05393268 -0.050672255
000270 ff 34 71 3d d4 ee ba 3d 7e 89 0e bd 0f cf e5 3c
       0.05888843 0.09127584 -0.03479909 0.028052835
000280 6c 41 83 bd f7 10 90 3d f9 6d 4b 3d 07 b5 8d 3d
       -0.064089626 0.07034486 0.049665425 0.06919294
000290 76 ee 31 3d 45 19 cd 3d ad ad d9 3d ca 30 b8 3d
       0.043440305 0.100145854 0.10628829 0.08993681
0002a0 0e 7a 2c 3c 05 8a 4d bd 1a b7 9a bd 10 8d 17 bd
       0.010527147 -0.050180454 -0.07554455 -0.036999762
0002b0 84 d9 b1 3d 22 60 e0 3d cd 52 70 3c d3 8b ab 3c
       0.08684066 0.10955836 0.014668179 0.020940697
0002c0 5b 28 8c bd 09 17 9c bc 73 d3 38 3d e8 16 0e bd
       -0.06843635 -0.019053953 0.04512353 -0.034689814
0002d0 52 d3 44 3c df 86 b7 3c d8 bc a1 bd 41 ce 90 3b
       0.012013273 0.022403179 -0.07897347 0.0044191186
0002e0 40 6e 17 be 94 30 53 bd 9c f4 87 bd ea d8 05 be
       -0.14788151 -0.05156 -0.066384524 -0.13071027
0002f0 dd 9a aa bd 24 a6 57 bd 8c 69 f6 3d 40 af 61 bb
       -0.08330319 -0.05264868 0.1203185 -0.0034436733
000300 04 fb ff 3c 70 e3 f1 3d 64 12 b1 3d c0 7f 90 bd
       0.031247623 0.118109584 0.08646086 -0.070556164
000310 79 c5 d0 3d 49 99 6a bd 92 e7 12 3c b7 2f 72 bd
       0.10193915 -0.05727509 0.0089663435 -0.059127536
000320 52 b6 0b be b6 d5 74 3d e6 d6 e9 3d 6b b3 f4 bc
       -0.13643768 0.059774123 0.11417942 -0.02987071
000330 85 56 b2 3d 59 9e d2 bc 54 3a 1e 3c 27 11 88 bc
       0.087079085 -0.025710272 0.009657461 -0.016609741
000340 d5 0a 2c 3b 88 6d 6e 3d ce 3b df bc fa 4c e8 bd
       0.0026251574 0.058209926 -0.027250197 -0.11342807
000350 40 cf 6d bd bd 40 34 3c 8c a0 65 bd 3b 5d 5f 3d
       -0.058058977 0.011001763 -0.056061313 0.05453227
000360 ae 1b e8 bc 1c dd 9b bd 34 e1 1c 3e 9a ff 74 bd
       -0.028333511 -0.07610533 0.15320283 -0.059814073
000370 eb fc a7 3b 52 14 6a 3d 1b fd 58 ba 26 60 6b bc
       0.0051265857 0.057148285 -0.0008277462 -0.014366185
000380 51 15 a2 3d f5 72 99 bc b8 1d eb bc 5a ed 13 3c
       0.07914222 -0.018731574 -0.028700694 0.009028757
000390 c8 7a 8d bd 47 66 68 3d f8 70 7c 3d b7 df 52 bc
       -0.06908184 0.056738164 0.061631173 -0.012870721
0003a0 b2 ee 80 3d 60 9c 22 3d b2 e2 96 bd 26 f5 3c bd
       0.062955275 0.039699912 -0.073674574 -0.04613223
0003b0 19 a3 a3 bd 54 65 fb bc 51 1b d6 bd d3 11 75 3c
       -0.07990093 -0.030687965 -0.10454429 0.014957863
0003c0 55 a3 95 3c 4e fc 31 bd 18 d3 92 bd 3c 4a 6a bc
       0.01826636 -0.043453507 -0.07169169 -0.014299925
0003d0 8a f4 61 3d bc 37 f7 3d 4b 4a 90 bd 00 9e df bb
       0.05516485 0.12071177 -0.0704542 -0.006824255
0003e0 2e dc a1 bd 11 18 97 3d 58 b2 8a 3d 27 dc 08 3d
       -0.07903324 0.07377637 0.067722976 0.03341308
0003f0 94 c4 58 bd f5 b8 61 3d d5 93 94 bd 20 14 86 3d
       -0.052921847 0.05510803 -0.07254759 0.06546807

mid_part.3.bias f4 [12]
000000 e2 05 ae 3d 4b e7 9d 3d a2 63 83 bd 77 fc d8 bd
       0.08497216 0.07710131 -0.06415488 -0.10595029
000010 be ba 46 3d c6 a8 58 3d 2c f7 9d bc 22 98 ab bc
       0.048517935 0.05289533 -0.0192829 -0.020946566
000020 de 79 ae 3d 78 23 24 3d 53 86 1d bd 14 dd 31 bd
       0.08519338 0.040072888 -0.03845818 -0.043423727

mid_part.4.weight f4 [12, 12, 3, 3]
000000 01 fb 9f bd e4 61 ad bd d7 54 92 bc cb e3 3f bd
       -0.07811547 -0.08465937 -0.01786272 -0.0468481
000010 76 db 97 bc 39 ac ce 3c 47 42 c3 bd 3a 63 13 3d
       -0.018537264 0.025228607 -0.09534126 0.0359833
000020 7b ef 7c bd 31 68 19 3d d8 7a b0 bd de e1 ba bd
       -0.061751824 0.03745288 -0.086171806 -0.09125112
000030 6f 29 f7 bd ca 90 0d be 96 aa a7 bd 91 35 71 bd
       -0.1206845 -0.13824764 -0.081868336 -0.058888976
000040 9d 75 c8 bd 98 6b 9b bd 20 37 98 bc 0f b8 76 3d
       -0.09788058 -0.07588881 -0.018580973 0.060234126
000050 26 90 f5 3d a5 1f 56 3d 3d 63 d4 bd 87 28 93 3d
       0.11990385 0.052276272 -0.10370491 0.07185464
000060 2c 13 07 bd 48 55 46 3c ea 3a 92 3d df 34 05 3e
       -0.032977268 0.012105294 0.07140143 0.1300845
000070 28 ed 0a 3d ae a5 d3 3d 7a cc 5e 3d 80 05 d4 bc
       0.033917576 0.10334335 0.054394223 -0.025881529
000080 93 22 5e 3d 6f 73 60 bd 05 63 89 bb 1d ec f3 3c
       0.05423219 -0.054797586 -0.0041927123 0.029775674
000090 ac 41 e0 3d 67 d2 59 3d 37 f4 2e bd ee 2f ab 3b
       0.10950026 0.05317917 -0.04271337 0.0052242195
0000a0 c1 3c c9 bc 2d 36 be 3d 3b 66 31 be 07 7f 7e bd
       -0.024565103 0.09287677 -0.17324154 -0.06213286
0000b0 a9 2a 40 bd 03 dc 52 bc bf bd 46 bd 65 52 ce bd
       -0.046915684 -0.012869838 -0.0485208 -0.10074309
0000c0 b4 17 5e bd 67 6a d5 bb 8e fb db bd ab b2 d9 bd
       -0.054221824 -0.0065129283 -0.107413396 -0.10629781
0000d0 35 4a dd bd 07 fe cf bd 4e b9 9b bd a5 76 8b 3d
       -0.108051695 -0.10155874 -0.076037034 0.06809739
0000e0 e4 af 9d 3d c7 55 e3 3d 06 2a 0a 3e cd b6 ff 3c
       0.07699564 0.11100345 0.13492593 0.031215096
0000f0 1b e6 24 bd 14 a8 d9 3d 5d 52 84 3b 25 fe 92 3c
       -0.04025851 0.106277615 0.004038139 0.017943451
000100 b9 80 69 be 5e 69 ae bd 5e c4 a3 3a 08 da 6f bd
       -0.2280301 -0.08516191 0.0012494435 -0.05855754
000110 ca 9d 8d bd 74 b7 47 3d 6b 35 f9 3c c8 9a 02 be
       -0.069148615 0.04875894 0.03042098 -0.12754357
000120 19 d7 e5 3c 5a e8 c3 3c 74 be e0 bd 62 f1 17 bd
       0.028056668 0.023914505 -0.10973826 -0.037095435
000130 54 d9 c4 bc 82 e1 83 3d c9 bc 4e 3d c3 79 c0 bd
       -0.024029411 0.064394966 0.05047301 -0.09398224
000140 aa 55 a6 bd 40 d8 14 3d ff a9 49 bd 27 a0 9b 3d
       -0.08121808 0.036339045 -0.049234387 0.07598906
000150 71 b3 1a bd 92 81 81 bd 19 c0 83 bc b5 36 a8 bd
       -0.037768785 -0.06323542 -0.01608281 -0.082135595
000160 66 71 7c 3d a1 c0 8a 3d 22 08 89 bc 71 a6 8a 3a
       0.061631583 0.06775022 -0.01672751 0.0010578168
000170 dc 46 27 be 3c 20 9a 3d 96 2f dc 3d 40 f5 57 3d
       -0.16335624 0.075256795 0.10751264 0.052724123
000180 12 38 2e 3d bd 38 ff 3d f3 4c f1 bc 0f f0 03 3d
       0.04253394 0.12461994 -0.029455638 0.03221136
000190 d6 6c 45 3d a0 36 a0 bd ce 10 b7 b9 ff f2 c1 bc
       0.048199497 -0.07822919 -0.00034917 -0.02367544
0001a0 b6 c1 8b bc 4e b4 b3 3d f7 b0 8f 3d 5c a5 73 bc
       -0.017060142 0.08774625 0.07016175 -0.014870968
0001b0 a9 db ec 3d 7f 39 82 bb 6f 93 1c 3d 12 ab 45 bd
       0.11565334 -0.003974139 0.03822654 -0.04825885
0001c0 59 65 5e ba 29 47 c8 3d c5 9e 76 3d e9 ab c9 3d
       -0.000848373 0.09779198 0.06021001 0.098472424
0001d0 9a b5 ed bc 6f dc 39 bc 1d 55 8d 3d 3d bd be bc
       -0.029017258 -0.011344059 0.06901 -0.023283595
0001e0 bb b5 6a ba 6f 60 ab bc 5b 47 85 3d 7e 4c c4 3d
       -0.00089534716 -0.020920007 0.065077506 0.09584902
0001f0 53 f1 3e 3b 97 01 84 3d f8 7b 8a bc 02 7d 98 bd
       0.002913554 0.06445616 -0.016904816 -0.07445718
000200 a8 5c 84 3d 38 5a 1b bd f3 14 79 3d ae 55 b3 3c
       0.06462985 -0.037927836 0.060810994 0.021891441
000210 6f d3 84 bd a8 81 92 bc d3 e4 3c bd d0 c1 7c bd
       -0.0648564 -0.01788409 -0.04611666 -0.06170827
000220 3c b9 fb bc 05 50 98 3b 50 6c 22 bd 4a 1e a3 3d
       -0.030727975 0.004648211 -0.039654076 0.079647616
000230 c7 2e 7c 3a 2d 21 7a 3d cb 63 6a 3d 79 b4 e7 bd
       0.00096200075 0.061066795 0.057224076 -0.11313719
000240 48 e4 6f 3c 57 d4 31 3b 48 e9 ab 3c 5c 69 28 bd
       0.014641829 0.002713462 0.02098526 -0.041116104
000250 be 8a 23 3d bd 92 25 3e fe 73 93 3b a5 53 1e be
       0.039927237 0.16169257 0.0044999113 -0.15461595
000260 ec 67 d1 3c 87 0b b7 3d 85 bd 9f 3d ab f8 71 bd
       0.02556225 0.089377455 0.0779982 -0.05907504
000270 06 0d c2 3d 49 d6 c7 bc e2 b4 9d 3d 49 3d 76 bd
       0.0947514 -0.024394171 0.07700516 -0.06011704
000280 f1 ff 98 bd 85 1b 92 bb d5 d1 b9 bd 8e 59 c6 bb
       -0.07470692 -0.004458847 -0.090732254 -0.006053156
000290 63 d2 bd 3b 81 92 da 3c 96 21 0a 3d ac e1 a6 3c
       0.0057929023 0.026681187 0.033723436 0.02037128
0002a0 e3 29 37 3b da 08 6f 3d 85 08 8c 3c 4d 90 17 3e
       0.002794855 0.05835805 0.017093906 0.1480114
0002b0 2a 8b 03 be bd 60 37 3d 20 91 c6 3d 7f 6b 12 be
       -0.12846056 0.04476999 0.09695649 -0.14298819
0002c0 b7 de b0 3c bb a4 00 3c 7e fe 74 bc a5 19 86 bc
       0.021590574 0.007851775 -0.014953254 -0.01636965
0002d0 66 ea 87 3d 54 c0 08 3e dd 38 0f bd da 5e 5b bd
       0.06636505 0.13354617 -0.03496634 -0.053557254
0002e0 23 0e 37 3d 9b 6b 78 bd 08 53 cc 3d a7 f7 68 bb
       0.044691216 -0.060649496 0.099767745 -0.0035548003
0002f0 d3 8a cc bc 8d d8 c5 bb 24 90 27 3d 71 d0 8e bd
       -0.02496854 -0.0060377778 0.040908948 -0.06973351
000300 38 05 51 bd 5a aa 25 3d 11 ad b3 3d f4 70 3d 3d
       -0.051030368 0.040445663 0.08773244 0.0462503
000310 79 b1 44 bc d0 9d a4 3d 0d 2d cb bd b6 22 2c bd
       -0.012005203 0.08037913 -0.09920702 -0.04202529
000320 b6 d0 87 3d 2e 6b 03 3d 29 7e 01 3e 65 32 c0 bc
       0.06631605 0.032084636 0.12645783 -0.02346153
000330 2f 44 7d 3d 09 15 60 3d cb 9a 3e bd 7b c0 2d bd
       0.061832603 0.05470756 -0.04653434 -0.04241989
000340 29 5a 86 3d 86 1e 1a bd f1 33 5c 3d 33 1e af 3d
       0.065601654 -0.037626766 0.053760473 0.08550682
000350 fc 57 a4 3d ad 96 e5 bd 3c 56 fd 3c 53 fd b2 3d
       0.08024594 -0.1121038 0.030924909 0.08739724
000360 b4 88 0f bd 9f 69 af bc 93 88 b8 3d a6 87 b3 bc
       -0.03504248 -0.021412669 0.090104245 -0.021915268
000370 8a e6 b5 3d 1d e8 2a 3c 47 fd c0 bd f0 90 b6 3d
       0.088818625 0.010431317 -0.09423309 0.089143634
000380 48 40 a6 bb 84 94 18 3d 50 6f b6 bc 2e 9e a3 3c
       -0.005073581 0.03725101 -0.022269875 0.019972887
000390 3a 64 35 3d c3 5a d0 3c 7c 43 85 bd 8c bb ad 3d
       0.044285037 0.025433904 -0.06507012 0.08483037
0003a0 50 1d c0 bc 77 c6 5e bc fd 92 f8 bc d9 06 49 3d
       -0.023451477 -0.013597122 -0.030343527 0.049078796
0003b0 0f e8 f3 3b cb a5 9e bc f9 8c bb 3c 27 eb 40 bc
       0.007443435 -0.019366166 0.02289437 -0.011774815
0003c0 e8 d2 37 bd b3 64 d6 3d ad f8 f4 3c bd 42 ff bc
       -0.04487887 0.104684256 0.029903734 -0.031159753
0003d0 d4 4a 01 3d fa 77 6d bd 9f b3 c1 bd 34 4c 65 3d
       0.031565502 -0.057975747 -0.09458088 0.055980876
0003e0 c8 88 80 bd 83 94 06 3c 65 18 f9 3c f0 1b 9d 3d
       -0.06276089 0.008214119 0.03040714 0.07671344
0003f0 34 21 a9 3d cd 08 6c 3c be 2e 5d bd 1d a4 9a bd
       0.08258286 0.014406395 -0.053999655 -0.075508334

mid_part.4.bias f4 [12]
000000 db f8 a7 3b 9e cc 51 3d 45 24 5e bd e4 b7 4a 3d
       0.0051261014 0.05122053 -0.054233808 0.049491778
000010 03 87 a8 bd 8c 8c 35 be 95 d8 54 bd cb b8 23 be
       -0.082288764 -0.17729396 -0.05196436 -0.15988462
000020 dd 9a 26 3d c7 b8 44 3c 9f 99 9f 3c 5d cf 58 3d
       0.040675033 0.012006945 0.019482432 0.052932132
