checkpoints/model_up_3_epoch_150.pth (torch_old, 46727 bytes, 15 tensors)

first_part.0.weight f4 [56, 1, 5, 5]
0	0xbbf92bb0	-0.007604085
1	0x3d927670	0.071514964
2	0xbd546d47	-0.051862027
3	0x3e167d39	0.14696206
4	0xbda858af	-0.0822004
5	0x3e4c4945	0.19949825
6	0xbe138806	-0.14407358
7	0xbe3ca91c	-0.18423885
8	0xbdd257d5	-0.10270659
9	0x3e27a729	0.1637236
10	0xbd2b9741	-0.041892294
11	0x3d4ae662	0.049536116
12	0xbe8014b0	-0.25015783
13	0xbe08efc0	-0.13372707
14	0xbca32e11	-0.019919427
15	0x3c675354	0.014118988
16	0xbe15dffb	-0.14636223
17	0x3db1f1a8	0.086886704
18	0xbd0737f5	-0.03301235
19	0x3dfa194f	0.122118585
20	0x3e5c2911	0.2150004
21	0x3db5cbb0	0.08876741
22	0x3d9b72cc	0.07590255
23	0x3e6e2015	0.23254426
24	0xbd1e4d6f	-0.038648065
25	0x3d420381	0.047366623
26	0xbd9933a3	-0.07480552
27	0x3e0ebd41	0.13939382
28	0x3e23ec06	0.16008005
29	0xbe58af8c	-0.21160716
30	0x3e395a4d	0.18100853
31	0x3db78cd3	0.08962407
32	0x3d5ab806	0.053398155
33	0x3d881bff	0.06645965
34	0x3e23b62d	0.15987463
35	0x3c48e98a	0.012262711
36	0xbe5a8736	-0.21340641
37	0xbe3d7a48	-0.18503678
38	0xbe2961d0	-0.16541219
39	0x3ca12cf8	0.019674763
40	0x39d90172	0.00041390542
41	0xbd9f3843	-0.07774403
42	0xbd606f0b	-0.0547934
43	0x3e5de845	0.21670635
44	0xbc0c8652	-0.008576946
45	0x3ccf28ad	0.02528795
46	0x3c458d2c	0.012057584
47	0x3d1066cb	0.03525428
48	0x3e263ac6	0.16233358
49	0x3da6bdff	0.08141708
50	0x3d811526	0.06302862
51	0x3e02e6b0	0.12783313
52	0x3d4f8428	0.050663143
53	0x3d8dd6f8	0.06925768
54	0xbc90dda8	-0.017683819
55	0xbd6e7842	-0.058220156
56	0xbde51c4c	-0.11187038
57	0x3e7615d0	0.24031758
58	0x3da49b40	0.08037424
59	0xbdc63d21	-0.09679628
60	0x3d9cd46a	0.07657702
61	0x3e67695e	0.22598788
62	0xbe4454a7	-0.19172917
63	0xbdded378	-0.10880178
64	0xbd14f9d8	-0.036371082
65	0x3c54c346	0.01298601
66	0xba93591a	-0.0011241764
67	0x3a84ced0	0.0010132436
68	0xbdf2064c	-0.11817607
69	0x3ddc796e	0.107653484
70	0x3e415614	0.18880492
71	0x3e356bee	0.17716953
72	0xbdc1108e	-0.09426986
73	0xbe095bf1	-0.13413979
74	0x3d847cfa	0.0646915
75	0xbcb6949d	-0.022287661
76	0x3c2f0b4c	0.010683846
77	0xbe84cea4	-0.25938904
78	0xbccd2950	-0.025044113
79	0x3e117ed4	0.14208537
80	0x3d337c6f	0.04381984
81	0x3d443a15	0.047906954
82	0x3d559d42	0.052151926
83	0x393ff275	0.00018305502
84	0xbdf124d3	-0.11774602
85	0xbdb68f88	-0.08914095
86	0xbdb8bd37	-0.09020465
87	0x3e88325b	0.26600918
88	0x3e3258c8	0.1741668
89	0x3d8d44ce	0.06897889
90	0xbe166bb9	-0.1468953
91	0x3e2b54a3	0.16731505
92	0x3d9e8ab5	0.077413
93	0x3dd81750	0.105513215
94	0xbdd35c49	-0.10320336
95	0x3c579b7a	0.013159627
96	0x3e2f67b0	0.17129397
97	0x3e00c431	0.12574841
98	0x3e122838	0.14273155
99	0xbd49141f	-0.049091455
100	0x3e10d7f5	0.14144881
101	0xbe2134f2	-0.15742853
102	0x3cdfc717	0.027316613
103	0xbdfa54b7	-0.12223189
104	0xbd985295	-0.07437626
105	0xbd313447	-0.043262746
106	0x3d32ddb7	0.043668475
107	0x3e721366	0.23640212
108	0x3df2f767	0.118635945
109	0xbc8bc1fd	-0.017060274
110	0x3e2586aa	0.16164652
111	0xbda3955f	-0.07987475
112	0x3e30cdf7	0.1726607
113	0x3cc53f85	0.02407814
114	0xbd12fc34	-0.03588505
115	0x3cac1b4e	0.021009114
116	0xbe0d8046	-0.13818464
117	0x3daa3690	0.08311188
118	0x3dcd45da	0.10023089
119	0x3e241a26	0.160256
120	0xbda270e0	-0.079316854
121	0x3d916dfc	0.07101056
122	0x3e594f1d	0.21221586
123	0xbdb27a54	-0.087147385
124	0x3e33a627	0.17543851
125	0xbe111243	-0.14167123
126	0x3d54d6e7	0.05196276
127	0x3d97bde8	0.074092686
128	0x3d0d42ef	0.03448766
129	0x3e01050c	0.12599581
130	0xbdff28fb	-0.12458988
131	0x3d84e28b	0.06488522
132	0x3d273d6f	0.040830072
133	0xbe154615	-0.14577515
134	0xbd8fa6c5	-0.07014231
135	0xbe222641	-0.15834905
136	0x3e043383	0.12910275
137	0x3de05496	0.109536335
138	0x3d6ebff4	0.05828853
139	0xbd885b5b	-0.0665805
140	0xbd1a1c23	-0.03762449
141	0xbd7382ce	-0.059450917
142	0x3dd6950e	0.10477649
143	0x3e4d257a	0.20033827
144	0x3cb1ac07	0.021688474
145	0xbe11945b	-0.1421675
146	0xbe1f431d	-0.15552945
147	0x3cdae8c3	0.026722318
148	0xbe149ff2	-0.1451414
149	0xbe14d130	-0.14532924
150	0xbe14561c	-0.14485973
151	0xbd8dcdfb	-0.06924053
152	0x3cbef86f	0.023311822
153	0x3de989ec	0.1140326
154	0x3d24dfe0	0.040252566
155	0x3e24fecf	0.16112827
156	0xbde3e776	-0.11128132
157	0x3d909d89	0.070612974
158	0xbe1e4350	-0.15455365
159	0x3dc6fdba	0.09716363
160	0x3d819613	0.063274525
161	0x3e75e20d	0.24012013
162	0xbd3ae97c	-0.045632824
163	0x3e593423	0.21211295
164	0x3e2eae1d	0.17058606
165	0x3e22707e	0.15863225
166	0x3d46e3b4	0.048557
167	0x3e7f1aa1	0.24912502
168	0x3e1b1a45	0.1514674
169	0x3e0b9983	0.13632779
170	0xbcf13d6b	-0.029448232
171	0xbe1fb777	-0.1559733
172	0x3c1f2a29	0.009714642
173	0x3ccec836	0.025241952
174	0xbe19af4c	-0.15008277
175	0x3abd4853	0.001444111
176	0xbdd65a55	-0.10466448
177	0xb90ab7d0	-0.00013229181
178	0x3e49c419	0.19703712
179	0x3d8da576	0.06916325
180	0x3d553e40	0.05206132
181	0x3e01672d	0.12637015
182	0x3e0613ef	0.13093542
183	0xbe784226	-0.24243984
184	0xbe2d1528	-0.16902602
185	0xbd0ab774	-0.03386636
186	0xbe6b6bf9	-0.22990407
187	0x3c1c025e	0.009522049
188	0x3e0e951d	0.1392407
189	0xbe52b6a8	-0.2057749
190	0xbd5c38ce	-0.05376511
191	0xbe45433d	-0.1926393
192	0x3de6ec62	0.11275555
193	0x3e8aa922	0.27082163
194	0xbda15c9a	-0.078789905
195	0xbaf4223b	-0.0018625924
196	0x3e00fb51	0.1259587
197	0xbd91b9c8	-0.07115513
198	0x3e8068aa	0.25079852
199	0x3dd92f65	0.10604743
200	0xbd0bc337	-0.03412172
201	0x3b3ae415	0.0028517295
202	0x3d6741ac	0.056459114
203	0xbd25dd81	-0.040494446
204	0xbe04ce28	-0.12969267
205	0xbbacbe5e	-0.005271717
206	0xbc96df82	-0.018417124
207	0x3d8e94e4	0.069619924
208	0x3d39d088	0.045364887
209	0x3e1bb7c8	0.15206826
210	0xbd5516d6	-0.05202373
211	0x3de43871	0.11143578
212	0x3e740535	0.23830111
213	0xbd9f39c0	-0.07774687
214	0x3dce84c7	0.10083919
215	0xbd76a506	-0.060215972
216	0x3e0a7054	0.13519412
217	0xbd897b06	-0.06712918
218	0x3c75c309	0.015000113
219	0x3d67e4b3	0.05661459
220	0xbdf5af38	-0.11996311
221	0xbe112285	-0.14173324
222	0x3dd119a2	0.10209967
223	0x3b546795	0.0032410373
224	0x3e302653	0.1720212
225	0xbe39d15b	-0.18146269
226	0xbdcacdbe	-0.099025235
227	0xbe311d50	-0.17296338
228	0x3dbdd0c9	0.09268338
229	0x3cc5380d	0.024074579
230	0xbd287198	-0.041123956
231	0xbd7eca14	-0.062204435
232	0xbe5ea31b	-0.21741907
233	0x3d2687a2	0.040656693
234	0x3cdc8aa2	0.026921574
235	0xbe14cefd	-0.14532085
236	0x3d16af8c	0.03678851
237	0xbda572f4	-0.08078566
238	0xbe679731	-0.22616269
239	0x3df70f50	0.120634675
240	0x3dfd5502	0.123697296
241	0xbd2c739b	-0.042102437
242	0xbe34f63f	-0.1767206
243	0x3b39a843	0.0028329052
244	0x3e36e6a1	0.17861415
245	0x3e510ccf	0.20415042
246	0xbe0c4e0e	-0.1370165
247	0xbdbe8e3a	-0.09304471
248	0x3e2d52ce	0.16926119
249	0x3df61c37	0.120171
250	0x3bfac1fd	0.0076525197
251	0x3d1e4dc0	0.038648367
252	0x3eab3fb6	0.33447045
253	0xbe3e4f27	-0.18584882
254	0xbe1ec6b3	-0.15505485
255	0x3df37a3c	0.11888549

first_part.0.bias f4 [56]
0	0x3e53266b	0.20620124
1	0x3c85e0ff	0.016342638
2	0xbe0735d1	-0.13204123
3	0x3dc18a9d	0.094502665
4	0xbe18e7f1	-0.14932229
5	0xbd01285a	-0.031532623
6	0x3e03a73f	0.12856768
7	0x3e36bf0c	0.17846316
8	0xbdfbc530	-0.1229347
9	0xbd91432f	-0.070928924
10	0xbd0e6c2d	-0.034771133
11	0xbe0d24ef	-0.1378362
12	0x3dc54d1e	0.096338496
13	0x3d33ec20	0.04392636
14	0x3d1da136	0.03848382
15	0x3e0b71ec	0.13617676
16	0xbd460ecd	-0.04835396
17	0x3dadcf1f	0.08486771
18	0x3d201eec	0.03909199
19	0xbe02e9a2	-0.12784436
20	0xbda20c3f	-0.07912492
21	0xbdd93c7a	-0.10607238
22	0x3dee47ff	0.11634826
23	0xbe0297df	-0.12753247
24	0xbe4d1345	-0.20026882
25	0xbd12ce6c	-0.03584139
26	0xbdceb802	-0.100936905
27	0xbd4405df	-0.04785716
28	0xbe26ae69	-0.1627747
29	0x3e4ef7dc	0.20211738
30	0x3e39ae15	0.18132813
31	0xbc1704c7	-0.009217448
32	0xbe0b41f7	-0.13599382
33	0xbabc8aa9	-0.0014384586
34	0xbe018e0e	-0.12651846
35	0xbd10f54c	-0.035390183
36	0xbdedd909	-0.11613662
37	0xbd7ff8c8	-0.062493116
38	0x3e3f8e7a	0.18706694
39	0x3e36a618	0.17836797
40	0xbe2071e2	-0.15668443
41	0xbe270f10	-0.1631434
42	0xbdbac20c	-0.09119043
43	0x3deebfce	0.116576776
44	0xbe07e7cf	-0.13272022
45	0x3e2c973b	0.16854565
46	0x3ad07813	0.0015904926
47	0x3dad499e	0.08461307
48	0x3ddc1590	0.107463
49	0x3e05fdfa	0.13085166
50	0x3dd322e1	0.10309387
51	0x3e45693d	0.19278426
52	0xbc91890d	-0.017765546
53	0xbdd1082e	-0.10206638
54	0x3da7f7b6	0.08201544
55	0x3e305e65	0.17223509

mid_part.0.0.weight f4 [12, 56, 1, 1]
0	0x387c963a	6.022139e-05
1	0x3e083636	0.1330193
2	0x3df28882	0.11842443
3	0x3cf7dbef	0.03025624
4	0x3dcac529	0.099008866
5	0xbe7962e8	-0.24354136
6	0x3d884226	0.06653242
7	0xbe25c5c7	-0.16188727
8	0x3ca42000	0.02003479
9	0xbd02a76f	-0.03189796
10	0x3daaa4ea	0.08332236
11	0x3d199ba2	0.03750194
12	0xbcb4effc	-0.02208709
13	0x3df4f6f9	0.11961169
14	0x3df53bda	0.119743064
15	0xbc066255	-0.008202155
16	0xbd5f4404	-0.054508224
17	0x3dd8815d	0.10571549
18	0x3db35198	0.08755797
19	0xbcf74537	-0.030184371
20	0x3d8d68f4	0.06904784
21	0xbe12df10	-0.14342904
22	0xbdd2950a	-0.10282333
23	0x3d9a9645	0.07548193
24	0x3dc8638d	0.09784613
25	0x3de0f5ee	0.10984407
26	0xbd81c893	-0.063370846
27	0x3de75dd4	0.11297193
28	0xbd4e9a87	-0.050440338
29	0xbd04333d	-0.032275427
30	0x3e5b239e	0.21400306
31	0xbda996bb	-0.08280703
32	0x3d1f314d	0.038865376
33	0x3d27c1f1	0.04095644
34	0x3cd5fa28	0.02612026
35	0x3c956ea0	0.018241227
36	0x3e0ee786	0.13955507
37	0xbdfc7217	-0.123264484
38	0x3c58f232	0.013241338
39	0xbe294a16	-0.16532168
40	0xbdc6a8c6	-0.0970016
41	0xbcc6e633	-0.02427969
42	0xbd805c55	-0.06267611
43	0xbdabf949	-0.08397157
44	0xbea5e875	-0.32403913
45	0x3d4f1230	0.050554454
46	0x3e5d788c	0.21628016
47	0xbc955ccb	-0.018232724
48	0x3def733b	0.116919
49	0x3d6f1687	0.058371093
50	0xbcea8eab	-0.028632483
51	0x3ddb1530	0.106974006
52	0xbe1fa07b	-0.15588562
53	0xbe532960	-0.20621252
54	0xbd91e322	-0.071234
55	0xbc4ccc3e	-0.012499867
56	0xbd72a58c	-0.05923991
57	0x3db2d43d	0.087318875
58	0x3c843cda	0.016142298
59	0xbdeae525	-0.11469487
60	0x3e379ca6	0.1793085
61	0xbdba012c	-0.09082255
62	0x3dd90b1f	0.10597824
63	0x3e22801c	0.15869182
64	0xbe6981d8	-0.22803438
65	0xbdeedc8c	-0.1166316
66	0x3e8d9643	0.27653703
67	0x3d0eb3b4	0.034839347
68	0x3e3aff60	0.1826148
69	0x3e04660b	0.12929551
70	0x3dd54374	0.10413256
71	0x3cddfe5f	0.027098833
72	0xbc32c498	-0.010911129
73	0x3e1d7a94	0.15378791
74	0xbd182324	-0.037142888
75	0xbe1e984e	-0.15487787
76	0xbc3580bd	-0.011078057
77	0x3c35b868	0.011091329
78	0x3c10a7d5	0.008829077
79	0x3db553ca	0.08853872
80	0x3d6837bf	0.05669379
81	0xbdd1c796	-0.10243146
82	0x3cfe1a5a	0.031018425
83	0x3becd968	0.0072280653
84	0x3da81a38	0.08208126
85	0xbd63d8fc	-0.055626854
86	0xbdf62548	-0.120188296
87	0x3e1837ad	0.14864989
88	0x3dc6a3a7	0.09699183
89	0x3d7d683a	0.061866976
90	0xbe0613ec	-0.13093537
91	0xbe68967d	-0.22713657
92	0x3e489bbc	0.19590658
93	0xbd1780c4	-0.036988035
94	0xbe0c9b61	-0.13731147
95	0xbd9f3c40	-0.07775164
96	0x3d9e3b4d	0.077261545
97	0xbdd4f4f6	-0.10398285
98	0x3e2b6ad2	0.16739967
99	0xbe1930b9	-0.14959992
100	0x3aee13f5	0.0018163907
101	0x3dfe3808	0.12413031
102	0x3e04a885	0.1295491
103	0x3d8486d1	0.06471027
104	0x3d1d3ea8	0.03838983
105	0xbdaac078	-0.08337492
106	0xbd1a3248	-0.03764561
107	0x3e1dc6db	0.15407889
108	0x3b67526b	0.0035296928
109	0x3c2a87f0	0.010408387
110	0x3d027cb3	0.031857204
111	0x3c9309d0	0.017949015
112	0xbd327db9	-0.04357693
113	0x3dc34b1f	0.095358126
114	0x3bbe0732	0.0057991976
115	0x3cebb21b	0.02877145
116	0x3d62c619	0.055364702
117	0x3e112c47	0.14177047
118	0xbd0a5113	-0.033768725
119	0xbc394679	-0.011308306
120	0x3db57e70	0.08862007
121	0xbe052c41	-0.13005163
122	0x3c2eca79	0.01066839
123	0xbe018e9a	-0.12652054
124	0xbe273cbd	-0.16331764
125	0x3a5a1090	0.0008318508
126	0x3d0d72e0	0.03453338
127	0xbba039d2	-0.004889705
128	0xbcda0d0d	-0.026617551
129	0xbd82e10e	-0.06390582
130	0xbbb1ff70	-0.005432062
131	0xbbed2ad0	-0.0072377697
132	0xbd833c65	-0.06408004
133	0x3d55705e	0.052109115
134	0x3d7f28de	0.062294833
135	0xbc52bef1	-0.012862907
136	0xbc29862a	-0.010346929
137	0x3cdcbab1	0.02694449
138	0x3e1b7601	0.15181734
139	0xbd85b4e3	-0.06528642
140	0xbdf5e9b0	-0.12007463
141	0xbe0c3ee1	-0.13695861
142	0xbcda4f3d	-0.026649112
143	0xbdbcc1d2	-0.09216656
144	0xbdeded89	-0.11617572
145	0xbd3e2ca6	-0.0464293
146	0xbcdf1d5b	-0.027235677
147	0xbb0bf372	-0.0021354822
148	0xbc017cea	-0.007903317
149	0x3d9b0ee6	0.07571201
150	0x3e104d16	0.14091906
151	0xbbbc6666	-0.0057495115
152	0xbe11950c	-0.14217013
153	0x3e134fbf	0.1438589
154	0x3dbfd443	0.093666576
155	0x3e15eedf	0.14641903
156	0x3e18c2bc	0.14918035
157	0x3da6acff	0.08138465
158	0xbc133989	-0.008985885
159	0xbdb56bd9	-0.08858461
160	0xbe30eafb	-0.17277138
161	0xbda170f1	-0.0788287
162	0x3cf4bc75	0.02987502
163	0xbdde0e9b	-0.108426295
164	0x3cba8ac5	0.022771249
165	0x3d91835b	0.07105132
166	0xbe04781d	-0.12936445
167	0x3ce04df3	0.02738092
168	0x3e3e956e	0.1861169
169	0x3dd5c0be	0.10437153
170	0x3d7e71e2	0.062120326
171	0xbd53288a	-0.051552333
172	0xbdbd6c77	-0.09249204
173	0x3b0eca1b	0.0021787945
174	0xbdb0e484	-0.08637336
175	0x3e338315	0.17530473
176	0xbcd78eaa	-0.026313145
177	0xbcc87ca2	-0.024473492
178	0xbd9e84e5	-0.07740191
179	0xbd39913e	-0.04530453
180	0xbda8cb70	-0.082419276
181	0xbd1bf40c	-0.038074538
182	0xbe149ee4	-0.14513737
183	0x3e0ddcec	0.13853806
184	0xbd968ac1	-0.07350684
185	0x3dbd4d93	0.09243312
186	0xbd887cec	-0.06664452
187	0xbd82b648	-0.06382424
188	0xbe16c9d3	-0.14725427
189	0xbce54f9d	-0.027992064
190	0xbde93147	-0.11386352
191	0xbdc4ebb2	-0.09615268
192	0x3cbd7512	0.023127113
193	0xbd891916	-0.06694238
194	0x3e0b7f85	0.13622864
195	0x3e218d5c	0.1577658
196	0x3dc0d79c	0.09416124
197	0x3e29c240	0.16578007
198	0xbc10ebc9	-0.008845278
199	0x3c0cd702	0.008596184
200	0x3d03f00e	0.032211356
201	0x3e17ac2f	0.14811777
202	0xbe1f67f7	-0.15567003
203	0xbc9e805f	-0.019348321
204	0x3da3d8a7	0.080003075
205	0x3d9ba91e	0.07600616
206	0xbe05699a	-0.13028565
207	0x3df36f7f	0.118865006
208	0x3dbfdc33	0.093681715
209	0x3d3f4fd1	0.04670698
210	0xbd4f184f	-0.05056029
211	0xbda117b5	-0.0786585
212	0xbc31e65b	-0.010858144
213	0x3e225295	0.15851815
214	0x3ddb119f	0.1069672
215	0xbde6710e	-0.11252032
216	0x3e044178	0.129156
217	0x3cd46b9c	0.025930218
218	0xbda770ba	-0.08175798
219	0x3e0df149	0.13861574
220	0x3de81e03	0.11333849
221	0x3bfdfdc5	0.007751199
222	0xbd764b68	-0.060130507
223	0x3de8dfbb	0.11370798
224	0xbd86d31b	-0.06583234
225	0xbc89d487	-0.016824974
226	0xbd214fcc	-0.03938274
227	0xbdbdc705	-0.092664756
228	0x3b34c122	0.0027580936
229	0x3e300adf	0.17191647
230	0x3c8e95e2	0.017405454
231	0xbd319ed1	-0.04336435
232	0x3e2215ff	0.15828703
233	0xbd407aec	-0.046992227
234	0xbe249497	-0.16072308
235	0xbd21ba0b	-0.039484065
236	0xbda72c9e	-0.08162807
237	0x3d7f6e15	0.06236084
238	0x3e01c746	0.12673673
239	0xbc5c7c29	-0.013457336
240	0x3e11ac61	0.14225914
241	0x3dda658d	0.106639005
242	0x3d5e9c25	0.05434813
243	0x3dc23d5a	0.09484358
244	0x3dc5ce48	0.09658486
245	0x3d3b63e1	0.04574955
246	0x3e14317b	0.14472
247	0xbd432368	-0.047641188
248	0xbde8f86c	-0.11375508
249	0xbe14f69a	-0.14547196
250	0x3dea2141	0.11432124
251	0xbe26fa78	-0.16306484
252	0x3d1da4cc	0.03848724
253	0xbd571c19	-0.05251703
254	0xbe1690b1	-0.14703633
255	0xbcccadbf	-0.024985192

mid_part.0.0.bias f4 [12]
0	0xbe020e49	-0.12700762
1	0x3d2a76dd	0.041617263
2	0xbcc097fc	-0.023509972
3	0x3d0803b0	0.03320664
4	0x3dd71493	0.10501971
5	0xbd28f5f1	-0.041250173
6	0x3b06a143	0.0020542897
7	0xbdc8fcaf	-0.098138206
8	0x3d5d4b07	0.05402663
9	0xbca0528b	-0.01957061
10	0xbd1f0d2a	-0.038830914
11	0x3c8883f8	0.01666449

mid_part.1.weight f4 [12, 12, 3, 3]
0	0xbb2e4be5	-0.002659553
1	0x3d184c2e	0.037182026
2	0x3d923a4e	0.07140027
3	0x3d4a8c56	0.04945024
4	0x3de81c7f	0.1133356
5	0xbd746f28	-0.05967632
6	0xbe0504e8	-0.12990153
7	0x3da223d7	0.07916992
8	0x3d8b1449	0.067909785
9	0x3d0200d3	0.031739067
10	0xbd9ac7c3	-0.07557633
11	0xbccf06f6	-0.025271874
12	0x3dab9567	0.083781056
13	0xbce6607c	-0.02812218
14	0xbcb58860	-0.022159755
15	0xbb9ebb75	-0.004844124
16	0x3d893292	0.06699099
17	0xbd2297d2	-0.03969557
18	0xbd38d13e	-0.045121424
19	0xbd583594	-0.05278547
20	0xbd3363e9	-0.043796454
21	0xbd05fdd1	-0.03271276
22	0xbd6eb54b	-0.058278363
23	0x3c843eda	0.016143251
24	0xbdb1d665	-0.08683471
25	0xbd78c69a	-0.060736276
26	0xbddac320	-0.106817484
27	0xbdc5630a	-0.09638031
28	0x3d98d610	0.07462704
29	0x3cf880b8	0.030334815
30	0xbcb28f6e	-0.021796908
31	0x3daf6aea	0.08565314
32	0x3daf58aa	0.08561833
33	0x3db52df0	0.088466525
34	0x3db47f88	0.08813387
35	0xbdd3f747	-0.10349899
36	0x3c7b7567	0.015347815
37	0xbe0775cf	-0.13228534
38	0x3d3bf93d	0.04589199
39	0x3d360447	0.044437673
40	0xbe0fa8fd	-0.14029308
41	0xbd0e02d9	-0.034670684
42	0x3cf1fbb4	0.029538967
43	0xbccd4747	-0.025058402
44	0xbdc61e64	-0.09673765
45	0x3ddd4d43	0.10805752
46	0xbd043655	-0.032278378
47	0x3cc47b30	0.023984522
48	0x3daa57de	0.083175406
49	0xbdb6521e	-0.08902381
50	0xbd21c5fe	-0.03949546
51	0xbcb39665	-0.0219223
52	0x3ddfe1de	0.109317526
53	0xbd47ba93	-0.048761915
54	0xbd99253f	-0.07477807
55	0xbd929a71	-0.071583636
56	0x3b5a733c	0.0033332845
57	0x3d9f4e7c	0.077786416
58	0xbd9a02e0	-0.075200796
59	0xbdb70b4f	-0.08937704
60	0xbdc8daff	-0.09807395
61	0x3db504c1	0.08838797
62	0x3d4ecf46	0.05049064
63	0x3d549e6b	0.05190889
64	0x3de951d3	0.1139256
65	0x3d4a6779	0.049415085
66	0x3dc8eb2c	0.098104805
67	0x3d0a2e22	0.033735402
68	0x3d57515b	0.05256782
69	0xbd46e3a1	-0.048556928
70	0xba6e7c87	-0.00090975355
71	0x3c9f61cc	0.019455813
72	0xbd4f9b53	-0.050685238
73	0xbd094cb9	-0.033520434
74	0xbcf95983	-0.03043819
75	0x3d7c4a6a	0.061594404
76	0x3d99ba53	0.07506242
77	0xbc5be430	-0.013421103
78	0xbc0c60d6	-0.008568009
79	0xbd4ec6e9	-0.050482664
80	0x3d5dcc41	0.05414987
81	0xbd2b06f1	-0.041754667
82	0xbd1ca377	-0.03824183
83	0x3d896408	0.067085326
84	0xbd5aac7b	-0.053387146
85	0xbb9cacbc	-0.0047813337
86	0x3d632708	0.055457145
87	0xbca2a8a1	-0.0198558
88	0xbcb56284	-0.022141702
89	0x3da2a4e3	0.07941606
90	0xbce64034	-0.028106786
91	0x3d858f32	0.06521453
92	0xbd0116b0	-0.031515777
93	0xbdac79c2	-0.08421661
94	0x3d014fe0	0.031570315
95	0xbdb92d2a	-0.090418175
96	0xbdac886f	-0.0842446
97	0x3cd0cfc8	0.025489703
98	0xbd91a837	-0.071121626
99	0x3ca007ef	0.019535033
100	0xbdd63f5f	-0.10461306
101	0x3d9f802c	0.07788119
102	0xbb9242fc	-0.0044635516
103	0x3cd3e225	0.02586467
104	0xbdfc53be	-0.1232066
105	0x3c9b1233	0.018929577
106	0xbd2c213c	-0.042023882
107	0x3cd5c259	0.026093649
108	0x3b4957cb	0.0030722495
109	0x3dc1a9a0	0.094561815
110	0x3e1ad76a	0.15121236
111	0x3d909d14	0.0706121
112	0xbd77ee06	-0.06052973
113	0x3deaaf68	0.11459237
114	0xbd86e7bc	-0.065871686
115	0x3d7539d3	0.0598696
116	0x3dba4f03	0.090971015
117	0x3d04bddd	0.03240763
118	0xb97ab86b	-0.00023910559
119	0x3d8ebd85	0.06969742
120	0xbd8a6f88	-0.06759554
121	0x3cdbce0f	0.026831655
122	0x3c9162fd	0.017747397
123	0x3c5c2b64	0.0134380795
124	0x3d1a9208	0.037736923
125	0x3bf43193	0.007452199
126	0x3da06f06	0.07833676
127	0xba10bd72	-0.00055213936
128	0x3d09081c	0.033455
129	0x3dcdf175	0.1005582
130	0x3d53ce67	0.051710512
131	0x3bc2ff0e	0.005950815
132	0xbc373abf	-0.01118344
133	0xbd8d0ed7	-0.06887596
134	0xbd98fc9d	-0.07470057
135	0x3d439b77	0.047755685
136	0x3c651a46	0.013983315
137	0x3c84520a	0.0161524
138	0xbdbf9c5e	-0.093559965
139	0x3d6259c7	0.0552614
140	0xbca0a7b4	-0.019611217
141	0x3dcd4e9f	0.100247614
142	0x3ced15f5	0.028941134
143	0x3d97cbb6	0.07411902
144	0x3d6f7e66	0.058470152
145	0xbd296d41	-0.04136396
146	0x3c306403	0.010766032
147	0xbce38e8d	-0.027777934
148	0x3de7e5fa	0.113231614
149	0xbc42b7ba	-0.011884624
150	0xbd8d74d8	-0.06907052
151	0xbd63169b	-0.05544148
152	0xbca6fc99	-0.02038412
153	0x3d1d622f	0.038423713
154	0x3d83fc85	0.06444649
155	0x3dc792c3	0.097447895
156	0x3db43c11	0.08800519
157	0x3d15a999	0.036538694
158	0x3cc59697	0.024119658
159	0xbd08b04d	-0.03337126
160	0x3cde81e6	0.02716155
161	0x3d7aecd2	0.061261006
162	0xbb2730fd	-0.0025511377
163	0x3c1c8c43	0.009554925
164	0xbd17b1e5	-0.037034888
165	0x3da8aaeb	0.08235725
166	0x3dc7572a	0.09733422
167	0x3e05f8ee	0.1308324
168	0x3d5fa246	0.054598115
169	0xbd345a9e	-0.04403173
170	0x3ba80ef4	0.0051287357
171	0xbd37639b	-0.044772726
172	0xbd6f2f2f	-0.058394607
173	0x3dd06d17	0.10177057
174	0xbc6c25e1	-0.014413328
175	0xbdcdac8c	-0.10042676
176	0xbd014e7c	-0.03156899
177	0x3d6a478c	0.05719714
178	0xbc424a29	-0.0118585015
179	0x3d960f62	0.07327153
180	0x3d02472f	0.031806167
181	0xbde1a758	-0.110182464
182	0xbd19777c	-0.037467465
183	0x3b8a1a7b	0.0042145825
184	0xbd36d4cd	-0.044636536
185	0x3d4d68e8	0.050148875
186	0x3d572843	0.05252863
187	0xbd49d8d7	-0.04927906
188	0x3caeabf4	0.021322228
189	0xbd6bf607	-0.057607677
190	0xbda24494	-0.079232365
191	0xbd9b054a	-0.07569368
192	0xbb954252	-0.004555025
193	0x3cc17ec8	0.023620024
194	0xbc95a89b	-0.018268874
195	0xbbfea7a1	-0.0077714478
196	0x3db42d14	0.087976605
197	0x3de19d29	0.11016304
198	0xbc1855fd	-0.009297845
199	0xbca8a0e2	-0.020584527
200	0x3d95a2c9	0.073064394
201	0x3a8d7468	0.0010792138
202	0x3de50e20	0.11184335
203	0x3d693e7d	0.05694436
204	0x3d129ee3	0.035796057
205	0x3aa569b4	0.0012620003
206	0x3d046153	0.032319378
207	0x3bc6b9b9	0.0060646203
208	0x3dc519f3	0.0962409
209	0x38ed2188	0.00011307286
210	0x3db24250	0.08704054
211	0xbd2f0fb8	-0.0427396
212	0x3d802e9a	0.062588885
213	0x3d34863a	0.04407332
214	0xbd6a9d71	-0.057279054
215	0x3d10d555	0.0353597
216	0xbe8c9e9f	-0.27464768
217	0xbcbf491e	-0.023350295
218	0xbe64a12c	-0.22327107
219	0xbd80b005	-0.06283573
220	0xbcc677e0	-0.024227083
221	0xbec7f240	-0.3905201
222	0xbdb96513	-0.090524815
223	0x3d052690	0.03250748
224	0xbd9e6172	-0.0773343
225	0x3e82a0b0	0.2551322
226	0x3ea9564c	0.33073652
227	0xbe38c283	-0.1804295
228	0x3e9a6fee	0.3016352
229	0xbe34988e	-0.1763632
230	0xbf16884a	-0.5880171
231	0xbd132f17	-0.03593358
232	0x3d83af97	0.064299755
233	0xbe98beb9	-0.2983301
234	0x3ddf98b0	0.10917795
235	0xbdbb4637	-0.09144252
236	0xbbd71252	-0.0065634632
237	0xbe008ffd	-0.12554927
238	0x3dfe7e5b	0.12426444
239	0x3da642b8	0.08118194
240	0xbca46547	-0.020067824
241	0xbc90f2d6	-0.017693918
242	0x3e0287ba	0.12747088
243	0x3e99b8b5	0.30023733
244	0xbd967337	-0.07346194
245	0x3cbc9af4	0.023023106
246	0xbe0d84d6	-0.13820204
247	0xbe8a4010	-0.27002
248	0x3bf03980	0.0073310733
249	0x3b1e301d	0.0024137564
250	0x3d85f51e	0.06540893
251	0x3e99287a	0.29913694
252	0x3ca1cac9	0.019750016
253	0x3da23c7c	0.07921693
254	0x3dc9b348	0.09848648
255	0xbdf74d1c	-0.12075254

mid_part.1.bias f4 [12]
0	0xbc87ae8c	-0.016562723
1	0x3d733775	0.05937906
2	0x3b1fce67	0.00243845
3	0x3bfd0756	0.007721822
4	0x3b640672	0.003479388
5	0xbdc6865a	-0.09693594
6	0xbce00683	-0.027346855
7	0xbd231fe8	-0.03982535
8	0x3cac97c8	0.021068469
9	0xbb8369af	-0.004010401
10	0xbd56d753	-0.052451443
11	0xbd90c620	-0.07069039

mid_part.2.weight f4 [12, 12, 3, 3]
0	0x3d206129	0.03915516
1	0xbbb6e2ff	-0.0055812593
2	0x3d8767ec	0.066116184
3	0xbde8230b	-0.11334809
4	0xbd89e695	-0.06733433
5	0x3d963ad9	0.07335443
6	0xbd0fedd9	-0.03513894
7	0xbd950d8f	-0.07277977
8	0xbd2ff6c0	-0.04295993
9	0xbdc1fe9e	-0.094723925
10	0xbda39f38	-0.07989353
11	0x3bd24cc2	0.0064178417
12	0xbda8c502	-0.08240701
13	0x3db7bc52	0.08971466
14	0x3d86689d	0.06562922
15	0x3c849f44	0.016189225
16	0xbce29159	-0.027657198
17	0x3d1deb7a	0.038554646
18	0x39cf0dec	0.0003949249
19	0xbdd76e07	-0.10519033
20	0xbe3ca054	-0.18420535
21	0x3e280371	0.16407563
22	0xbd3d78a0	-0.046257615
23	0xbe7b999b	-0.24570315
24	0xbb2d3e69	-0.0026434904
25	0x3d2bf082	0.041977413
26	0xbdb42c34	-0.087974936
27	0xbca295b9	-0.019846784
28	0x3b94664f	0.0045287977
29	0xbe0a18da	-0.13486043
30	0x3dbe01b1	0.09277666
31	0x3d97cc0e	0.07411967
32	0xbcc4aedb	-0.024009159
33	0xbe234452	-0.15944031
34	0x3c21b823	0.009870562
35	0xbd3f9949	-0.046777043
36	0x3db91fd4	0.09039274
37	0xbc36bd44	-0.011153523
38	0x3ca298c6	0.019848239
39	0xbd75f07f	-0.060043808
40	0xbd491d3b	-0.049100142
41	0x3d0f6fac	0.035018608
42	0xbcfc8844	-0.030826695
43	0x3d3ceb9e	0.04612314
44	0x3db070f3	0.08615293
45	0xbc325cd8	-0.0108863935
46	0x3c27853c	0.010224637
47	0x3dc6003e	0.09668015
48	0x3c4e085f	0.012575238
49	0x3d567500	0.052357674
50	0xbd858816	-0.06520097
51	0x3d2ec4bd	0.042668093
52	0xbd5a20fb	-0.05325411
53	0x3de9f737	0.114241056
54	0x3bf8a58a	0.007588093
55	0x3da1320e	0.07870875
56	0x3e0223c6	0.12708959
57	0xbe171f3b	-0.14758007
58	0xbe1bd0e7	-0.15216409
59	0x3e1d6b09	0.15372862
60	0x3d82c7fa	0.06385799
61	0x3d9b0ff4	0.07571402
62	0x3e674447	0.2258464
63	0xbcb87e2d	-0.022521103
64	0x3dac5de5	0.084163465
65	0x3cf265ff	0.029589651
66	0xbdab4022	-0.08361842
67	0xbd4209c9	-0.047372613
68	0xbd03d6b1	-0.032187168
69	0x3ded45a3	0.11585548
70	0x3e80990f	0.25116774
71	0xbdd085ac	-0.10181746
72	0x3d2fa4b0	0.042881668
73	0x3cf60c94	0.030035295
74	0xbde29327	-0.11063223
75	0x3c0bab75	0.008524765
76	0x3de2e5dd	0.11078999
77	0xbcbf1318	-0.023324534
78	0xbda9ba17	-0.08287447
79	0xbd18c731	-0.03729934
80	0x3dac1fce	0.08404504
81	0xbda73a40	-0.08165407
82	0xbda7e655	-0.08198229
83	0x3d6372e0	0.055529475
84	0xbdbf10de	-0.09329389
85	0xbb8becb0	-0.0042701587
86	0xbdc4137d	-0.095740296
87	0xbd829f74	-0.063780695
88	0xbdc75c4b	-0.097344
89	0xbdbb4cc5	-0.09145502
90	0x3ddfb883	0.10923865
91	0x3dbc9249	0.09207589
92	0xbd00708c	-0.031357333
93	0xbd606cd8	-0.0547913
94	0xbda829bc	-0.08211085
95	0x3c1b7f74	0.009490836
96	0x3d6f21a2	0.058381684
97	0xbcec6c03	-0.028860098
98	0x3d88bf36	0.066770956
99	0x3e16d136	0.14728245
100	0x3d881749	0.06645066
101	0x3bec8a0b	0.0072186044
102	0x3e21b939	0.15793313
103	0xbd2ace41	-0.041700605
104	0xbda43f63	-0.080199026
105	0xbd237874	-0.039909795
106	0xbb219887	-0.0024657564
107	0x3c34e8bb	0.011041815
108	0x3dcb9d0d	0.099420644
109	0xbc768cac	-0.015048187
110	0x3d21255f	0.03934228
111	0xbd3f3b0b	-0.046687167
112	0x3c6dfb55	0.014525254
113	0xbdb4a049	-0.088196345
114	0xbb95ed53	-0.0045754104
115	0xbd61c926	-0.05512347
116	0x3c220dd0	0.0098909885
117	0x3c2e82ea	0.0106513295
118	0xbd3fca43	-0.04682375
119	0x3caad9af	0.020855753
120	0x3b18c621	0.0023311453
121	0xbd4dd412	-0.050251074
122	0x3c44949d	0.011998323
123	0xbd141072	-0.036148496
124	0x3d0b244b	0.03397016
125	0x3cfa328c	0.03054168
126	0xbda3381e	-0.07969688
127	0x3aabe8fa	0.0013115697
128	0xbe1c286b	-0.15249793
129	0x3da53919	0.08067531
130	0x3df30aff	0.11867332
131	0xbcf75c9b	-0.030195525
132	0x3c9be492	0.01902989
133	0xba1a06f0	-0.00058756676
134	0xbe2948ab	-0.16531627
135	0xbd9d0093	-0.07666125
136	0x3d8e7113	0.06955161
137	0xbd1c6d25	-0.038190026
138	0xbdc173f1	-0.09445942
139	0x3da8a23c	0.08234069
140	0x3d959387	0.07303529
141	0xbc5cb6f8	-0.0134713575
142	0xbd970917	-0.073747806
143	0xbca2ab47	-0.019857062
144	0x3dd9bcc8	0.1063171
145	0x3d7984cc	0.06091766
146	0xbc8b3912	-0.016994987
147	0x3c471638	0.012151293
148	0xbd29fe09	-0.041502032
149	0x3c46363d	0.012097892
150	0xbc53bd90	-0.012923613
151	0xbbb5e892	-0.005551406
152	0xbd96ccb3	-0.07363262
153	0x3d6c53b5	0.057697017
154	0x3d9a28d1	0.07527316
155	0x3ce76b9e	0.028249558
156	0x3d95aeb1	0.0730871
157	0xbd4bbc57	-0.04974016
158	0xbd05be81	-0.03265238
159	0xbdf51519	-0.11966915
160	0x3d05caf8	0.03266427
161	0xbc4c0d33	-0.012454319
162	0x388e2bda	6.779256e-05
163	0x3b97925e	0.0046256026
164	0x3e217694	0.1576789
165	0x3cabef23	0.020988053
166	0xbdd8422c	-0.10559496
167	0x3d98567b	0.0743837
168	0x3e08e6a6	0.13369235
169	0x3d6b2b0b	0.057414096
170	0x3dd8c8b5	0.10585157
171	0x3d8772a1	0.066136606
172	0x3d3f2283	0.046663772
173	0x3abe0630	0.0014497694
174	0x3cb90503	0.022585398
175	0xbc83a84f	-0.016071467
176	0xbdf3b59d	-0.11899874
177	0x3c175b85	0.009238129
178	0x3cb2e9da	0.021840025
179	0x3d0c94b9	0.03432152
180	0x3d1cf308	0.03831771
181	0x3d4cdc74	0.050014928
182	0xbd31c25d	-0.04339825
183	0x3db1b9cd	0.08678017
184	0x3b8ea8f4	0.004353637
185	0x3d39b6da	0.045340396
186	0x3d58de2f	0.052946266
187	0x3d566dac	0.052350685
188	0x3c2a6f19	0.010402464
189	0xbcfd6cd3	-0.03093568
190	0x3cddb9eb	0.027066192
191	0xbd4a5508	-0.0493975
192	0xbd0d1371	-0.03444237
193	0x3d42dcb0	0.047573745
194	0x3da23082	0.079194084
195	0xbd097e5a	-0.033567764
196	0xbdbb59a7	-0.09147959
197	0x3dbed365	0.09317664
198	0x3d597ccb	0.053097527
199	0xbd8449a3	-0.064593576
200	0xbcd44ddc	-0.025916032
201	0xbc756e3f	-0.014979898
202	0xbc52609d	-0.012840417
203	0x3b0c27d6	0.0021386049
204	0xbd7535c9	-0.059865747
205	0x3bf63ac3	0.007514329
206	0xbd75c22d	-0.059999634
207	0xbe00ba7b	-0.12571137
208	0xbd8e98cb	-0.06962737
209	0x3bfed6db	0.0077770776
210	0xbd145662	-0.036215194
211	0x3c7f07f5	0.015565862
212	0x3c3029e4	0.010752175
213	0xbc23d5d4	-0.009999711
214	0x3d2c9a9f	0.042139646
215	0x3d4db082	0.05021716
216	0x3da04b81	0.07826901
217	0xbcec861b	-0.02887254
218	0xbccdc4c3	-0.025118237
219	0x3ae789e9	0.0017665002
220	0xbd0a369b	-0.033743482
221	0x3b70b254	0.0036727386
222	0x3d81dc73	0.063408755
223	0x3d0171e5	0.03160276
224	0x3c9a8381	0.018861534
225	0x3bbf1283	0.005831064
226	0x3ce1aae4	0.027547307
227	0x3b95d5b2	0.0045725936
228	0xbddb364b	-0.10703715
229	0x3d3ac3db	0.04559694
230	0xbdc0a3a0	-0.09406209
231	0xbd6bdd6e	-0.05758422
232	0xbd198822	-0.037483342
233	0xbcbc34e2	-0.022974435
234	0xbe33fd0b	-0.17576997
235	0xbd70550a	-0.05867485
236	0xbc321f88	-0.010871775
237	0xbbc6a057	-0.0060615945
238	0x3d22f183	0.039781105
239	0x3defa7e1	0.11701942
240	0xb9e47356	-0.0004357348
241	0x3daf9b3f	0.08574533
242	0xba9dcd70	-0.0012039375
243	0xbd590260	-0.05298078
244	0x3bcba019	0.0062141535
245	0x3d4e151b	0.050313096
246	0xb9f06c47	-0.0004585704
247	0x3d89ebc7	0.06734424
248	0x3c51539c	0.012776282
249	0x3dbd4211	0.09241117
250	0xbd69cec7	-0.057081964
251	0x3d0e1863	0.034691226
252	0x3b0c3cae	0.0021398473
253	0x3dc31832	0.09526099
254	0xbd0b410c	-0.03399758
255	0xbd41ef90	-0.047347605

mid_part.2.bias f4 [12]
0	0x3ddb8bc2	0.10720016
1	0x3e060523	0.13087897
2	0x3cb64b20	0.02225262
3	0xbe0143d4	-0.1262353
4	0xbdec8cc2	-0.11550285
5	0xbdbb13c3	-0.091346286
6	0xbd6336d6	-0.055472218
7	0xbcb67171	-0.02227089
8	0x3d732dff	0.059370037
9	0x3c0543d9	0.008133852
10	0x3d9f28be	0.07771443
11	0xbdc5a849	-0.096512385

mid_part.3.weight f4 [12, 12, 3, 3]
0	0x3e068915	0.1313823
1	0x3d8978e9	0.06712515
2	0xba053a10	-0.00050821993
3	0x3d0127f5	0.031532247
4	0x3da535eb	0.08066925
5	0xbd654b5b	-0.055980068
6	0x3de304c1	0.11084891
7	0xbda7de74	-0.081967264
8	0xbd0eb8df	-0.034844276
9	0x3c385498	0.0112506375
10	0xbbd144cd	-0.0063863755
11	0xbad2cfdc	-0.0016083675
12	0x3cec5dcd	0.028853321
13	0x3d854fde	0.06509374
14	0x3d24e50d	0.040257502
15	0x3d91480c	0.0709382
16	0x3d34f03f	0.04417443
17	0x3d6b3410	0.057422698
18	0xbcd6e683	-0.026232963
19	0xbbfc84b8	-0.007706251
20	0xbd5ab61f	-0.05339634
21	0x3aefca7d	0.0018294599
22	0xbd660eed	-0.056166578
23	0xbabee672	-0.0014564528
24	0x3dd4c692	0.10389437
25	0x3b3667ca	0.002783286
26	0x3ccf1dcb	0.025282761
27	0xbd8f3a8d	-0.069935896
28	0xbd769830	-0.06020373
29	0x3db0047a	0.08594604
30	0xbc1bc978	-0.009508483
31	0xbd9c67d7	-0.076369934
32	0xbd9eba5f	-0.07750391
33	0x3d306123	0.043061387
34	0xbe032b99	-0.128096
35	0x3d79df4e	0.061003976
36	0x3cacc8b6	0.0210918
37	0xbddc9453	-0.10770478
38	0x3dc2cc82	0.09511663
39	0xbde7caaf	-0.11317956
40	0xbdd0225a	-0.10162802
41	0xbc965bcc	-0.018354319
42	0xbd9f8257	-0.07788532
43	0x3d4a1862	0.04933966
44	0xbc6d0980	-0.014467597
45	0x3d028858	0.03186831
46	0xbc237c5a	-0.009978378
47	0x3dbb21c0	0.09137297
48	0x3d1109aa	0.035409607
49	0x3c7f11b3	0.015568185
50	0x3d1271e5	0.03575315
51	0x3d9ec880	0.07753086
52	0xbcf59b34	-0.029981233
53	0xbdcb0554	-0.09913126
54	0xbda9d20d	-0.08292017
55	0xbc97ea98	-0.01854448
56	0x3d3ae10e	0.045624785
57	0x3cbb4021	0.022857727
58	0xbca10317	-0.019654794
59	0x3cbabae0	0.022794187
60	0x3d10faa1	0.03539527
61	0xbd3dd00e	-0.046340995
62	0xbc76ef99	-0.015071773
63	0xbdde5438	-0.10855907
64	0xbd85ace9	-0.065271206
65	0xbdc563e6	-0.09638195
66	0xbdb897fa	-0.09013362
67	0x3daf8136	0.08569567
68	0x3e037319	0.12836875
69	0xbc94a152	-0.01814333
70	0x3cdbbd4e	0.026823666
71	0x3c9b8ba1	0.018987479
72	0x3d790fa1	0.06080592
73	0x3cfa08c2	0.030521754
74	0xbca74ea6	-0.020423245
75	0x3daf7588	0.08567339
76	0x3cecb499	0.02889471
77	0xbcf9b5f1	-0.030482264
78	0xbd7c4462	-0.061588652
79	0xbcf51584	-0.029917486
80	0xbd99e4c2	-0.07514335
81	0xbda2c3c2	-0.07947494
82	0xbdabc8ca	-0.08387907
83	0xbdaa77f2	-0.08323659
84	0x3d425ae4	0.04744996
85	0xbce20448	-0.027589932
86	0x3c242e9a	0.010020876
87	0x3d91247a	0.070870355
88	0xbd853d3f	-0.065058224
89	0xbd5ffe9f	-0.054686185
90	0x3de3c92e	0.11122356
91	0x3db0673b	0.0861344
92	0x3d8fbe68	0.07018739
93	0x3d3d27a3	0.04618038
94	0x3d864c4e	0.06557523
95	0x3ce0990f	0.027416734
96	0x3cd5406d	0.026031697
97	0x3e04cf72	0.12969759
98	0x3cdf98d0	0.027294546
99	0xbd18f7fb	-0.037345868
100	0xbd8c989f	-0.06865048
101	0x3daeb04c	0.0852972
102	0xbdb99b07	-0.09062772
103	0x3c2a14bb	0.010380919
104	0x3dad8ec6	0.084744975
105	0xbdb093fe	-0.08621977
106	0x3d7ede9b	0.062224012
107	0x3d359852	0.044334717
108	0xbd0a3db3	-0.033750247
109	0x3ad9ef61	0.0016627127
110	0x3b8bda8c	0.004267996
111	0xbd0c9e7f	-0.03433084
112	0xbd065f9d	-0.032806028
113	0x3de7ac7e	0.11312197
114	0xbb071cd2	-0.0020616543
115	0xbd62803a	-0.055298068
116	0x3c2dee11	0.0106158415
117	0x3bc43653	0.0059879213
118	0x3de5e01f	0.11224388
119	0x3da26d60	0.07931018
120	0x3d63ee6e	0.055647306
121	0xbd664e26	-0.056226872
122	0x3d492b21	0.049113397
123	0xbd86851d	-0.06568358
124	0x3a6f3cee	0.00091262057
125	0x3d7014bb	0.05861352
126	0xbbab0cf0	-0.005220048
127	0x3d97db11	0.074148305
128	0x3caac333	0.020845031
129	0xbd4f94dd	-0.050679076
130	0xbd7ce7a7	-0.06174436
131	0xbd8c8954	-0.06862131
132	0x3d04fb02	0.032465942
133	0x3ae09a28	0.0017135786
134	0xbd3929d5	-0.04520591
135	0x3d4796db	0.04872785
136	0xbc4cb697	-0.012494705
137	0xbd1782db	-0.036990028
138	0xbdc90057	-0.09814518
139	0xbd8385dd	-0.06422017
140	0x3d9b610f	0.07586872
141	0xbdca23b0	-0.09870088
142	0xbdf86bf6	-0.12129967
143	0x3d511b17	0.051051226
144	0xbe2e108a	-0.16998497
145	0xbd50df47	-0.050994184
146	0xbdc9d14d	-0.09854374
147	0xbd7768da	-0.06040273
148	0xbc2b328e	-0.010449065
149	0x3dc89023	0.09793117
150	0xbc9208be	-0.017826434
151	0x3d912f3d	0.07089088
152	0xbd801dbc	-0.062556714
153	0x3dac3688	0.084088385
154	0x3d741554	0.059590653
155	0xbd01cf30	-0.03169173
156	0x3d7c8e8a	0.061659373
157	0x3dd35c2d	0.103203155
158	0xbcbf0f12	-0.023322616
159	0x3bed4191	0.007240482
160	0xbd9fe9de	-0.078082785
161	0x3d7517e4	0.059837237
162	0x3d413a7a	0.04717491
163	0x3d87f4ff	0.06638526
164	0x3d27d465	0.04097404
165	0x3dce5e9c	0.10076639
166	0x3ddc580b	0.1075898
167	0x3db9a278	0.090641916
168	0x3c23a97d	0.00998914
169	0xbd50ac7e	-0.05094575
170	0xbd9d0a95	-0.07668034
171	0xbd041165	-0.03224315
172	0x3db99d5e	0.090632185
173	0x3dddebff	0.10836028
174	0x3b25a396	0.0025274507
175	0x3cdb1299	0.026742266
176	0xbd865af7	-0.06560319
177	0xbcbf8bd6	-0.023382109
178	0x3cfe298e	0.031025674
179	0xbd1ce2e6	-0.038302325
180	0x3c5487c8	0.012971826
181	0x3cc295c4	0.023753054
182	0xbd9ef14a	-0.07760866
183	0x3b5a1964	0.0033279294
184	0xbe1973aa	-0.14985529
185	0xbd59d973	-0.05318589
186	0xbd8635fe	-0.06553267
187	0xbe0514d5	-0.12996228
188	0xbda7c995	-0.081927456
189	0xbd5bdc82	-0.05367709
190	0x3df3b337	0.11899417
191	0xbbf21caa	-0.007388671
192	0x3d07e21b	0.033174615
193	0x3df5aba6	0.1199563
194	0x3db2bcce	0.08727418
195	0xbd95cc7d	-0.07314394
196	0x3dcf0105	0.10107616
197	0xbd76a311	-0.060214106
198	0xba81214e	-0.0009851845
199	0xbd59b167	-0.0531477
200	0xbe0b232c	-0.13587636
201	0x3d54a0a5	0.051911015
202	0x3deaa5f0	0.11457431
203	0xbcb742e0	-0.022370756
204	0x3db02fcb	0.08602866
205	0x3a1be6ee	0.0005947192
206	0x3c171971	0.009222374
207	0xbc7ec434	-0.015549708
208	0x3b63b2ea	0.0034744092
209	0x3d6e784a	0.058220185
210	0xbce1d073	-0.027565217
211	0xbdeca4c3	-0.11554863
212	0xbd6e2d3c	-0.058148608
213	0x3c3d0734	0.011537362
214	0xbd710d4a	-0.058850564
215	0x3d600bf3	0.054698896
216	0xbd3892dd	-0.045061935
217	0xbd90b473	-0.07065668
218	0x3e0efd77	0.13963877
219	0xbd975d4f	-0.07390844
220	0x3a8c3ed5	0.0010699878
221	0x3d00cb6e	0.031444006
222	0xbc4e7fa9	-0.012603679
223	0xbcdc71d9	-0.026909756
224	0x3d86f1a6	0.065890595
225	0xbcb0ac9e	-0.021566685
226	0xbcb94656	-0.022616547
227	0x381e67f7	3.776696e-05
228	0xbd91c519	-0.071176715
229	0x3d75f0a9	0.060043965
230	0x3d63f957	0.05565771
231	0xbc672548	-0.01410801
232	0x3d7a6732	0.06113357
233	0x3ccb2287	0.024796737
234	0xbd963293	-0.07333865
235	0xbd35a28c	-0.04434447
236	0xbd9c819b	-0.07641908
237	0xbcc3356c	-0.023829184
238	0xbdd0de84	-0.101986915
239	0x3c951569	0.018198686
240	0x3ce71ead	0.02821287
241	0xbd1aa2a1	-0.03775275
242	0xbd81c3e8	-0.06336194
243	0xbc88cab8	-0.016698226
244	0x3d574a81	0.052561287
245	0x3dfb027b	0.122563325
246	0xbd939cda	-0.072076514
247	0xbc34ce9b	-0.011035587
248	0xbd9c4d4b	-0.0763193
249	0x3da096c4	0.07841256
250	0x3d8e8b00	0.06960106
251	0x3d1328b5	0.035927493
252	0xbdad1b55	-0.08452479
253	0x3d1db356	0.038501106
254	0xbdc1b904	-0.09459117
255	0x3d824c16	0.063621685

mid_part.3.bias f4 [12]
0	0x3dbefca5	0.09325532
1	0x3dab7dcd	0.08373604
2	0xbd789305	-0.060687084
3	0xbdbe94c6	-0.0930572
4	0x3d3e4ae0	0.046458125
5	0x3d605b1a	0.05477438
6	0xbcab1169	-0.020882325
7	0xbc2d1a83	-0.010565403
8	0x3dc54518	0.09632319
9	0x3cf74fdd	0.030189449
10	0xbd27ae22	-0.04093755
11	0xbd24f6d2	-0.04027445

mid_part.4.weight f4 [12, 12, 3, 3]
0	0xbdb10f71	-0.08645523
1	0xbdc57570	-0.0964154
2	0xbcebc9f7	-0.028782828
3	0xbd4b9b5a	-0.0497087
4	0xbce7d8da	-0.028301645
5	0x3ccb64b4	0.024828292
6	0xbda1648e	-0.078805074
7	0x3cfeabb8	0.031087741
8	0xbd6f6cb7	-0.058453288
9	0x3d2ac21e	0.04168903
10	0xbdadcdd6	-0.08486526
11	0xbdbbe3f2	-0.091743365
12	0xbdf10968	-0.11769372
13	0xbe0f5699	-0.13997878
14	0xbdabdce9	-0.08391745
15	0xbd75f3d7	-0.060046997
16	0xbdcdab4a	-0.100424364
17	0xbd9ecc69	-0.07753832
18	0xbc5666cf	-0.013086035
19	0x3d85c455	0.06531588
20	0x3df466a7	0.11933642
21	0x3d6484dd	0.05579077
22	0xbdd6dc96	-0.10491292
23	0x3d942083	0.072327636
24	0xbd0235f0	-0.03178972
25	0x3c173634	0.009229232
26	0x3d87fa51	0.06639541
27	0x3e06a3f7	0.13148485
28	0x3d0fd338	0.035113543
29	0x3dd317da	0.10307284
30	0x3d615b54	0.055018738
31	0xbca7aa84	-0.02046705
32	0x3d6c6631	0.057714645
33	0xbd55da3b	-0.052210074
34	0xbb80e3aa	-0.0039333897
35	0x3cbc1b76	0.022962313
36	0x3d9337a0	0.07188344
37	0x3d6283df	0.055301543
38	0xbd464b5d	-0.048411716
39	0x3cad5645	0.0211593
40	0xba586517	-0.00082548097
41	0x3e0336aa	0.12813821
42	0xbe4f0de7	-0.20220147
43	0xbda5b580	-0.08091259
44	0xbd8bac77	-0.068200044
45	0xbc3a6d38	-0.011378579
46	0xbd414819	-0.0471879
47	0xbdce8a97	-0.10085028
48	0xbd55ff43	-0.05224539
49	0xbbc4dfc5	-0.0060081207
50	0xbde069fb	-0.10957714
51	0xbdde9de5	-0.1086996
52	0xbde3aeab	-0.111173
53	0xbdd0497b	-0.10170265
54	0xbda4b35c	-0.080420226
55	0x3d863fd0	0.0655514
56	0x3d9bf96f	0.07615935
57	0x3ddc8e83	0.107693695
58	0x3e0a505a	0.13507214
59	0x3d025071	0.031814996
60	0xbd25b15d	-0.04045235
61	0x3ddd5fca	0.10809286
62	0x3ba37269	0.004988004
63	0x3d5d91d5	0.054094154
64	0xbe4dcbe6	-0.20097312
65	0xbda1cded	-0.07900605
66	0x3d36b426	0.044605397
67	0xbda9966a	-0.08280642
68	0xbd888e82	-0.06667806
69	0x3dd4c41b	0.10388967
70	0x3cf9bc33	0.030485248
71	0xbd5fb6ac	-0.05461757
72	0x3cd13388	0.025537267
73	0x3ce25a23	0.027630871
74	0xbdcea08f	-0.10089218
75	0xbcc076e0	-0.023494184
76	0xbcafe88c	-0.021473192
77	0x3d88db58	0.066824615
78	0x3d904889	0.07045085
79	0xbdb22b36	-0.08699648
80	0xbd96d520	-0.07364869
81	0x3d1a16b1	0.037619296
82	0xbd486568	-0.048924834
83	0x3d997df0	0.07494724
84	0xbd18a50c	-0.037266776
85	0xbd8218f4	-0.06352416
86	0xbcb07d6a	-0.021544177
87	0xbd9f9e1a	-0.07793827
88	0x3d7ef613	0.062246393
89	0x3d87e552	0.06635536
90	0xbc9d3d63	-0.01919431
91	0xbc83c363	-0.016084379
92	0xbe295bf1	-0.16538979
93	0x3d81a3cf	0.06330072
94	0x3de36f7f	0.111052506
95	0x3d36d3cf	0.04463559
96	0x3d2d4f60	0.042312026
97	0x3e159c17	0.14610325
98	0xbce0514d	-0.027382517
99	0x3cdce842	0.026966218
100	0x3d2ccf55	0.042189915
101	0xbdade3ae	-0.08490692
102	0xbc0408e8	-0.008058764
103	0xbceb3407	-0.028711332
104	0xbc97fa1a	-0.018551875
105	0x3da8bd2c	0.08239207
106	0x3d832de0	0.06405234
107	0xbc911eb9	-0.017714845
108	0x3db6e30c	0.089300245
109	0x3b9008c9	0.0043955785
110	0x3cdbb0a9	0.026817637
111	0xbd6701c7	-0.05639818
112	0xbabbdca6	-0.0014332726
113	0x3dd1df87	0.102477126
114	0x3d6eba53	0.05828316
115	0x3df9cf2b	0.12197717
116	0xbcd76087	-0.026291145
117	0xbc1ab4b4	-0.009442497
118	0x3d8db9f2	0.06920232
119	0xbcb34f9f	-0.021888552
120	0x3a75157e	0.0009349211
121	0xbca9b78c	-0.020717405
122	0x3d81db96	0.06340711
123	0x3dc98197	0.098391704
124	0x3b8853a2	0.0041603604
125	0x3d84bd8a	0.06481464
126	0xbc358d35	-0.01108103
127	0xbd926433	-0.07148018
128	0x3d937eeb	0.07201942
129	0xbd15beb0	-0.036558807
130	0x3d7ed979	0.062219117
131	0x3ca67b87	0.020322574
132	0xbd82e84f	-0.063919656
133	0xbca1d5be	-0.01975524
134	0xbd3629a2	-0.044473298
135	0xbd7e06df	-0.06201827
136	0xbd081de5	-0.033231635
137	0x3bee0b00	0.007264495
138	0xbd3c31d0	-0.045945942
139	0x3da53703	0.08067133
140	0xba12cb14	-0.0005599719
141	0x3d64b5bf	0.05583739
142	0x3d474404	0.04864885
143	0xbde9856f	-0.114024036
144	0xbcbb01e9	-0.02282806
145	0xbcfe81fe	-0.031067844
146	0x3cb1fc6a	0.021726806
147	0xbc5a0eef	-0.0133092245
148	0x3d7c0f85	0.061538238
149	0x3dedb513	0.11606803
150	0x3cdf1a1c	0.02723413
151	0xbe329923	-0.1744123
152	0x3d61d0d0	0.05513078
153	0x3db5ade4	0.08871058
154	0x3d9d7d3e	0.07689904
155	0xbd7570af	-0.059921917
156	0x3dc65dbf	0.096858494
157	0xbccf23d7	-0.025285644
158	0x3da196da	0.07890101
159	0xbd73b907	-0.059502628
160	0xbd97d321	-0.074133165
161	0xbbe6c135	-0.007042075
162	0xbdc3aae3	-0.095540784
163	0xbc133379	-0.00898444
164	0x3b3e0428	0.0028994177
165	0x3cbaf731	0.022822948
166	0x3d05db74	0.03267999
167	0x3ca4e0bc	0.020126693
168	0xbad6b8f0	-0.001638202
169	0x3d66ab97	0.056315985
170	0x3c83396e	0.016018596
171	0x3e0ef5fb	0.13961022
172	0xbdde03fa	-0.10840602
173	0x3d0a63a2	0.033786424
174	0x3de56992	0.112017766
175	0xbe319dfe	-0.17345425
176	0x3ccccbdb	0.02499955
177	0xbadce9ed	-0.0016854383
178	0x3c96a31d	0.018388325
179	0xbd01f8fd	-0.031731594
180	0x3d812b0c	0.06307039
181	0x3e0b9a13	0.13632993
182	0xbd229dfe	-0.039701454
183	0xbd61916c	-0.055070326
184	0x3d737d37	0.059445586
185	0xbd881682	-0.06644918
186	0x3dbff2f1	0.09372509
187	0x3b9a41fa	0.004707572
188	0xbc562319	-0.013069891
189	0x3a4aad47	0.0007731509
190	0x3d3324da	0.043736316
191	0xbd8b7fe0	-0.068114996
192	0xbd42311b	-0.047410112
193	0x3d29993e	0.04140591
194	0x3db81309	0.08988006
195	0x3d4e986f	0.05043834
196	0xbc27b2f8	-0.010235541
197	0x3da1f783	0.07908537
198	0xbdc06c28	-0.09395629
199	0xbd06bcd4	-0.032894924
200	0x3d868515	0.06568352
201	0x3d111539	0.03542063
202	0x3e041f62	0.12902597
203	0xbc608be5	-0.013705228
204	0x3d87c167	0.066286854
205	0x3d7a46cb	0.06110267
206	0xbd419798	-0.04726371
207	0xbd44fdd0	-0.048093617
208	0x3d814f9c	0.063140124
209	0xbd2f2ea4	-0.04276909
210	0x3d58f05c	0.0529636
211	0x3dab806d	0.08374105
212	0x3da2e7ac	0.07954344
213	0xbdeb5343	-0.1149049
214	0x3cfee65e	0.031115707
215	0x3dafaa09	0.085773535
216	0xbd550731	-0.05200881
217	0xbd31669c	-0.043310747
218	0x3dcd35dd	0.10020039
219	0xbc026ecb	-0.007960985
220	0x3dd27014	0.102752835
221	0x3ae06dd0	0.001712257
222	0xbdc50b16	-0.09621255
223	0x3daf7c6a	0.08568652
224	0x3c18d93e	0.009329138
225	0x3d0bd0ea	0.034134783
226	0xbcc0de67	-0.02354355
227	0x3c9f77ce	0.019466307
228	0x3d318b8f	0.043345984
229	0x3cef2e7b	0.029196968
230	0xbd7140a0	-0.05889952
231	0x3daab6cf	0.08335649
232	0xbcae87e2	-0.021305028
233	0xbc26cbf4	-0.010180462
234	0xbd104702	-0.03522397
235	0x3d3239d1	0.04351217
236	0x3b7c3d46	0.003848867
237	0xbccf1835	-0.025280097
238	0x3cbaa4a3	0.022783583
239	0xbc86009c	-0.016357712
240	0xbd530aac	-0.05152385
241	0x3dccd8dd	0.10002301
242	0x3cff1e31	0.031142326
243	0xbc9f2e84	-0.01943136
244	0x3d0833f1	0.03325266
245	0xbd5980cf	-0.053101357
246	0xbdbbb2ff	-0.09165
247	0x3d6995e1	0.0570277
248	0xbd8e3f8c	-0.06945714
249	0x3c023580	0.007947326
250	0x3cc95c56	0.024580162
251	0x3d9f2861	0.077713735
252	0x3d667c04	0.056270614
253	0x3d3b29e5	0.04569425
254	0xbc9c78cc	-0.01910057
255	0xbda909ae	-0.082537994

mid_part.4.bias f4 [12]
0	0x3a9e2a89	0.001206712
1	0x3d6b7560	0.057484984
2	0xbd4d46d1	-0.050116364
3	0x3d1c54bd	0.03816675
4	0xbdae6a02	-0.08516313
5	0xbe453bb6	-0.19261059
6	0xbd69136b	-0.056903284
7	0xbe3bccde	-0.1833987
8	0x3d363458	0.044483513
9	0x3c850ce0	0.01624149
10	0x3bd8ec8e	0.0066199964
11	0x3d5164de	0.051121585
