checkpoints/model_up_4_epoch150.pth (torch_old, 49967 bytes, 15 tensors)

first_part.0.weight f4 [56, 1, 5, 5]
00000000: bfa4 d4bc 59f2 573d 3aee 8cbd ecc3 f83d
00000010: edf2 ecbd cc03 463e f85f f8bd d995 24be
00000020: 845b eabd 3c97 0c3e 3f11 69bd d679 323d
00000030: d851 73be 63c0 1abe 4dda 36bd 1db0 aebc
00000040: 0ff4 2dbe b342 c23d 3640 0abd 9403 de3d
00000050: 54e3 253e 2890 413d 02a0 693d 0906 623e
00000060: 42a6 48bd b695 353d 307c cebd a330 b93d
00000070: 641b 123e 5c1f 6abe 655b 413e f04c 063e
00000080: 6076 5b3e 690e 183e 89b7 1a3e 33cf 103d
00000090: 49f1 09be 4ec5 98bc fb40 e5bd 84d6 6f3c
000000a0: bb35 01bd 6c6b efbd 11e5 8dbd f009 963e
000000b0: b2a2 96bc d683 adbb e731 04bd 0607 b13d
000000c0: e1ce 0c3e 6c56 cb3d 27d6 0a3e dc1e 963d
000000d0: 625c 5d3d 9317 e73d 4d63 9b3c fb95 14be
000000e0: 6cfd f2bd 8a46 163e d6e7 273d 3b78 01be
000000f0: d1b9 ff3c a0cf d93d a3e7 98be 6b62 24be
00000100: 5198 90bd 4045 f33b 315c b0bd f0c1 cbbd
00000110: ce32 60be 44a1 e43d 09e1 403e 4792 d63d
00000120: 1d38 2cbe 85a7 1abe d783 d23d 7dc2 833d
00000130: 3ce7 df3d 6f06 20be 5035 38bb 44ec 693e
00000140: b2c2 a23d fea4 d4bc 555a 93bd cbbc f1bd
00000150: 7fc7 efbd f2f1 15be c4be 16be f554 323e
00000160: f516 123e 1376 4a3d 31dc 5abe 7165 0a3e
00000170: 14d1 af3d dd0e 653d 8481 bfbd aa60 8cbc
00000180: 70e9 133e 69ca 983d 181c 153e 0a7c 6cbd
00000190: da8c 143e 44a2 1dbe 4bdc f83c bfd5 e8bd
000001a0: 978d 4abd 4826 56bd 8f8d b13c d979 5d3e
000001b0: 9405 013e 89ba 0dbc aaae 1f3e 6227 8fbd
000001c0: ae38 2d3e 20ae e33c 8587 16bd 4f12 023d
000001d0: 0a39 05be 643c 733d d927 ae3d 2636 2e3e
000001e0: 037f 88bd e3c8 a23d f524 613e de15 b4bd
000001f0: 8c6b 333e 69e6 3fbd 18ae de3d 2a37 be3d
00000200: 3061 b23d bd69 6a3e 283b acbd 37d1 6d3d
00000210: 59b7 3cbc 60a1 39be 4401 abbd bf98 2abe
00000220: 4a26 d03d 14b3 713d b8b1 6f3d 75b9 f2bd
00000230: f4b4 30bb e8a6 10bd d020 ad3d 821a 3e3e
00000240: 56ef a1bb d44a eabd 64fb 05be 2608 b2bc
00000250: 23ac 25be de3e 1fbe 147a 17be d627 92bd
00000260: 77fc bf3c 644a 0a3e 056b 7f3d 8bcf 083e
00000270: 1149 e6bd 51fe d73c ecc1 2bbe 31e9 ac3d
00000280: ca1b 143d 363b 6c3e 8c68 c2bd d81a 653e
00000290: 36c1 1a3e f6a7 213e 9fc3 863d 55be 5f3e
000002a0: 7d2a 033e 1373 f63d 778f a7bc 61dd 13be
000002b0: 5176 1dbb dcc1 143d 912d 24be 1082 58bd
000002c0: db05 13be 8480 02bd 3560 4d3e f92c c43d
000002d0: 5a45 403c 66e6 ae3c 1ffb f53d 95de 70be
000002e0: e2e0 21be 3be8 c5bc 59d8 6ebd f201 2c3e
000002f0: 44b8 d13d 6c29 4dbe 793d c5bd a18b e9bd
00000300: 59eb 393e bf7f 4e3e 5785 dcbd 24b3 b9bc
00000310: 6c0f 083e 48df 91bd 7016 513e a71a d53d
00000320: 11ed e4bd db45 0c3c ac54 c5bc e4a5 ddbd
00000330: 3011 60be b29d 7e3d ad6c 043e d003 a23d
00000340: c7a4 c03d 2725 3b3e d435 263d bdb1 be3d
00000350: 5042 923d 1c6d 89bd 0c46 163e 7cbd d5bc
00000360: cde8 093e 98f3 3dbe a44a 4e3d a015 8f3c
00000370: 6e3d d5bd 0b84 bfbd 397d d33d ed27 fbbc
00000380: e9f4 263e 9e2f 3dbe c251 ccbd 57dc 2ebe
00000390: 97ea bf3d e70d 513c 724b f6bc 6523 51bd
000003a0: 028e 3abe 5f53 623d e13b e63c 788b 17be
000003b0: a81c fb3c 3bfc 88bd bd52 63be 1213 e43d
000003c0: 4556 e93d 80c2 5dbd 89fe 2bbe f138 143c
000003d0: 6159 273e d18d 4f3e 34cd 0dbe 5918 b0bd
000003e0: fd78 3a3e ca07 023e f984 f73d d39e afbd
000003f0: b159 4a3e 2b7d 20be eead 58bc 5e25 113b
-0.025957463 0.052721355 -0.068813756 0.12146744 -0.11569772 0.19337386 -0.121276796 -0.16072787
-0.114432365 0.13729566 -0.056901213 0.043573223 -0.2376169 -0.15112452 -0.04464178 -0.021324212
-0.16987632 0.09485378 -0.033752643 0.10840526 0.162 0.04725662 0.05703736 0.22072615
-0.04898668 0.04433223 -0.10082281 0.0904248 0.14268261 -0.22863525 0.1888252 0.13115287
0.21431875 0.14849247 0.15109076 0.03535385 -0.13470949 -0.01864877 -0.11194035 0.014638547
-0.031545382 -0.11690411 -0.069284566 0.29304457 -0.018388126 -0.005295257 -0.032274153 0.08643918
0.13750793 0.09928593 0.13558255 0.07330105 0.05404318 0.11283793 0.018968249 -0.14510338
-0.11864743 0.14675346 0.04099258 -0.1264352 0.031216534 0.106353045 -0.29864225 -0.16053168
-0.07060302 0.0074240267 -0.08611334 -0.099491 -0.2189438 0.111635715 0.18835844 0.10477119
-0.1681828 -0.15102966 0.10279053 0.0643358 0.10932776 -0.15627454 -0.0028107949 0.22844034
0.079472914 -0.02595758 -0.07194964 -0.118035875 -0.11707973 -0.14643076 -0.14721209 0.17415221
0.1426657 0.04942901 -0.21373059 0.1351526 0.085848 0.055922378 -0.09350875 -0.017135937
0.14444518 0.07460482 0.14561498 -0.05773548 0.14506856 -0.1539393 0.030378481 -0.11368894
-0.049451437 -0.0522826 0.021673946 0.21628512 0.12599784 -0.0086504305 0.15593973 -0.069899336
0.16916153 0.02779299 -0.036750335 0.03175574 -0.1301004 0.059383765 0.08503694 0.17012843
-0.066648506 0.07948472 0.21986754 -0.08793233 0.17521495 -0.046850596 0.108730495 0.092878655
0.08709943 0.22891898 -0.08409721 0.05806085 -0.011518323 -0.18127966 -0.08349851 -0.1665983
0.10163553 0.059008673 0.058519095 -0.11851779 -0.0026963325 -0.035315424 0.08453524 0.185648
-0.004941861 -0.114400536 -0.13084179 -0.021732401 -0.16178946 -0.15551326 -0.14792663 -0.07136504
0.023435814 0.1350494 0.06235792 0.13360421 -0.11244405 0.026366385 -0.16773194 0.08442915
0.036159314 0.23069462 -0.09492597 0.22373521 0.15112767 0.15786728 0.065802805 0.2184995
0.12809177 0.120336674 -0.020454152 -0.14439918 -0.002402682 0.03631769 -0.16033007 -0.052858412
-0.14357702 -0.031860843 0.20056231 0.0957889 0.011735285 0.021350097 0.12010788 -0.23522408
-0.15808442 -0.024158588 -0.058311794 0.16797617 0.10240224 -0.20035332 -0.096308656 -0.11403585
0.18156184 0.20165919 -0.1076762 -0.022668429 0.13287133 -0.07122666 0.20418715 0.10405474
-0.11178029 0.008561577 -0.024088226 -0.10822657 -0.21881557 0.06216211 0.12932082 0.079108834
0.09406429 0.18275891 0.04057868 0.09311245 0.07141554 -0.06710264 0.14675158 -0.02609133
0.13467713 -0.18549955 0.05036415 0.017466366 -0.104121074 -0.09351357 0.10326619 -0.030658687
0.16304363 -0.18475196 -0.099765316 -0.1707624 0.09370916 0.012759662 -0.030065272 -0.051059145
-0.18218234 0.05525529 0.028104724 -0.14799297 0.030653313 -0.06688734 -0.22199531 0.1113645
0.11393408 -0.054140568 -0.16796316 0.009046779 0.16342689 0.20268942 -0.1384781 -0.08598394
0.18210216 0.12698284 0.120859094 -0.08575215 0.19760777 -0.15672748 -0.013225062 0.0022147517

first_part.0.bias f4 [56]
00000000: 1f96 6b3e 92b5 243d 98a2 69bd 0f63 b73d
00000010: ad95 29be 9411 92bc 55ee e23d 16e8 1f3e
00000020: 6d0d c5bd ed52 6fbd 3cfb 3bbd 0635 0ebe
00000030: 0ade a83d 8e59 8a3c 259f 093d ad8e 2f3e
00000040: 81df b1bd 893e ad3d 0228 b93d acd0 f1bd
00000050: 7533 b5bd 0db4 f3bd 5854 ca3d 8027 02be
00000060: 0ce7 46be b5bc 2abd 15bb a3bd 4edc 56bd
00000070: b59d f0bd b615 573e d905 613e bbfe 30be
00000080: 3745 e0bd 18d1 db3c 5d41 1abe cbdc 76bd
00000090: 4843 aebd 9a5a 84bc 2332 6d3e 40b0 2c3e
000000a0: 3851 32be cb17 3ebe dc5d 8dbc 0a1c ae3d
000000b0: b124 1ebe 08ee fc3d 66f3 d1bb 392c b53d
000000c0: b6a6 063e ed39 1a3e 7092 133e 4cba 3b3e
000000d0: 418b eabb b014 b8bd 32eb e13d 9c4e 033e
0.23006485 0.04021222 -0.057039827 0.08954441 -0.16561003 -0.017830648 0.110806145 0.15615878
-0.096217014 -0.058428694 -0.045893893 -0.13887414 0.082454756 0.016888406 0.033599038 0.1714427
-0.08685208 0.08459193 0.09040834 -0.11807379 -0.08847705 -0.11899576 0.098793685 -0.1271038
-0.19424075 -0.04168387 -0.079946674 -0.052456193 -0.1174883 0.21004376 0.21974887 -0.17284672
-0.10950702 0.026833102 -0.15063997 -0.06026916 -0.08508927 -0.016156483 0.23163657 0.16864109
-0.17413795 -0.18563764 -0.01725667 0.08501442 -0.15443684 0.12350088 -0.006407189 0.088463254
0.13149533 0.1506116 0.1441133 0.18332785 -0.0071577136 -0.08988321 0.11031188 0.12822956

mid_part.0.0.weight f4 [12, 56, 1, 1]
00000000: 06da b2bd 98a6 a73d 3c6e ec3d 5ee3 693d
00000010: 2f51 ac3d 92db 813d dd68 753d 9c26 e3bd
00000020: abee a93d 5233 f63c 16d2 4f3d 3cf9 313d
00000030: 41f1 a6bd 0397 403e 808e 013e 23eb c5bd
00000040: fd01 bfbc 7e94 ba3d a918 393d 9e80 49bd
00000050: 795e b73c 7794 07be 1d78 b0bd 88e3 e03b
00000060: 6458 f03d 1895 c7bc 4b69 823d f351 713d
00000070: cf09 c0bd 9a89 9b3b d673 e83d a643 733d
00000080: 2368 bd3d db36 67bd 5092 9e3c b037 a63d
00000090: bfce c43d 8a7b 00be b13f 9ebc ddc9 d5bd
000000a0: 6d29 c9bc dbb6 0b3d f144 d9bc be86 1cbd
000000b0: 5943 edbd 97ca b93d a3c5 933d 6b98 283d
000000c0: d4a5 dd3c 960d 5a3d 1eeb 35bc 663f 463d
000000d0: 5906 8abe fbc5 14be d710 15be d3cd 023c
000000e0: 6663 40be d458 c83b 5d63 90bc 1c18 d6bd
000000f0: 8aaf 1e3e 84ed d4bb aa9a dc3d 27c8 d43d
00000100: 781e 20bd 5e7d 87bd 4448 123e 4e49 e93c
00000110: a0c8 db3d 0a87 cdbb 259f bc3d 2a52 2fbe
00000120: 8cb2 943c 2cd4 a73d e36e 05bd d7bd f4bd
00000130: 7a92 873c 7b5e 213d ab29 163c 9d52 5b3d
00000140: dbce 643d 561e 83bd 7096 aa3c a8c4 e2bd
00000150: 5c97 7e3d 2190 06be 116f bfbd 1fa3 033d
00000160: b109 b53d d355 f03d 8b9a 94bd 76b4 08be
00000170: def8 ba3d 4349 9cbd 7d27 14be bb40 9a3c
00000180: 5d4f 0c3e c5cb 433d 3122 f3ba 91e3 0bbe
00000190: e31c 133e 9201 ab3d a948 ef3d c874 d03d
000001a0: da68 06be 8893 0ebe 9724 1dbd fbd5 3d3d
000001b0: 8f74 d9bd 4ebc fa3d d982 6abd 72cb 3f3b
000001c0: e507 20bd a206 c53d 8cab 383b 5a12 0e3d
000001d0: 26ae 433d d542 ed3c 45ed 08bd ccf2 aebb
000001e0: f569 583d 492c 04be 0a27 813c 99a1 eebd
000001f0: 2c4e fcbd 7b35 a0bc ff15 073d 37bf d8bc
00000200: 02c8 583c c832 5cbd d336 44bd dabc 263b
00000210: 3556 b1bd a503 3a3d 17b5 4f3d 84c0 aebc
00000220: 016d c439 b28e 4a3d 3f28 333e c978 ecbc
00000230: 551d f9bd 312a 10be 85cc 3ebd 2417 e3bd
00000240: a624 e5bd c926 55bd fc21 b4bc 92ef 93bc
00000250: 12fe 683c 9559 b43d 6b1a 093e db1c 39bd
00000260: 3481 ccbd 26a8 0f3e 6988 0b3e 87b4 fd3d
00000270: 05b3 753d 1dff a13d 26da 9e3c 389f a1bd
00000280: 5983 46be e5bb c7bd e8f0 2ebc b5a5 70bd
00000290: 97be 36bd eb59 383d ce28 03be 1ae9 d23c
000002a0: 54c2 183e c88b 183e e2ce f93b 1021 67bd
000002b0: 4238 07bd 7a46 c73d 1755 8abd caf9 1d3e
000002c0: 712a 063d 4768 36bd 592e b9bd 4986 82bd
000002d0: 29df bfbd ffbe e3bd b779 11be 6b70 b43d
000002e0: fd91 abbd ed2d c63c 065a 53bb f6be b2bd
000002f0: 094c b1bd f733 60bb 1d93 b4bd 524d 89bd
00000300: a271 743c fed4 25bd e605 f53d 3f67 f23d
00000310: 0a28 c13d 4e62 023e 4d04 1bbd 2177 653d
00000320: 97db 01bd fde0 453e 0a29 60be 7cf2 38bd
00000330: 25ae 993d a645 4d3d 0b06 ffbd 64f4 2c3e
00000340: 7070 833d 0ecb cf3d 49ba 08be 1c95 9fbc
00000350: f7a5 903c ba7d 0a3e 6dd2 b63d 2a7b 07be
00000360: 9a18 033e 8afb 09bc c2f3 37bd 13b4 d53d
00000370: cd4a 2f3e 60bf 5e3d aa38 18bd 6ea2 ee3d
00000380: f0d5 88bd 945b 64bc 7e48 56bd 903b cfbd
00000390: 4a06 a3ba b4fb fb3c b711 e03c 6c26 4bbd
000003a0: b0a9 fd3d d880 9ebc 4fd8 d3bd 6bcd f5bc
000003b0: bdd3 44bd 0a98 633d 2507 ff3d 2052 f3bc
000003c0: 4a69 173e 39f5 253e f31a 9abb 739e aa3d
000003d0: 1d43 633d df3a 4b3d 5acc 0d3e e0f2 01bd
000003e0: 05ed 06be c2e6 a3bd 1871 003e 71fd f4bd
000003f0: 595c 9a3d 6aac 69bd 569b c8bd 12cb 93bd
-0.08732991 0.08186072 0.11544463 0.0571016 0.08413922 0.06340708 0.05991446 -0.110913485
0.082974754 0.030053768 0.050737463 0.04345058 -0.08151484 0.18807606 0.12652016 -0.096639894
-0.023316378 0.09110354 0.045189533 -0.049194925 0.022383915 -0.13240229 -0.0861666 0.0068630613
0.11735609 -0.024363086 0.06367739 0.058916043 -0.09376871 0.004746628 0.11350219 0.059390686
0.09248378 -0.0564488 0.019356877 0.0811609 0.09609746 -0.12547126 -0.01931748 -0.10438893
-0.024555886 0.03410993 -0.026522132 -0.038214438 -0.11585111 0.09071844 0.072154306 0.041160982
0.027056612 0.053235613 -0.01110342 0.048400305 -0.26957968 -0.14528649 -0.14557205 0.007983643
-0.18787917 0.0061141048 -0.017625505 -0.10453817 0.1549665 -0.0064980406 0.10771687 0.103897385
-0.039091557 -0.06615709 0.1428538 0.028477337 0.107316256 -0.0062722014 0.09210042 -0.17121187
0.018151544 0.081947654 -0.032576453 -0.119502716 0.016549338 0.039396744 0.009165208 0.053545583
0.055861335 -0.064022705 0.020823687 -0.110726655 0.062156066 -0.13140918 -0.09347356 0.032137986
0.08839739 0.1173512 -0.07256039 -0.1335009 0.09129499 -0.07631161 -0.14468189 0.018829694
0.1370215 0.04780175 -0.0018549619 -0.13661028 0.14366488 0.08349909 0.11683781 0.10178524
-0.13125935 -0.13923466 -0.038364973 0.046346646 -0.10617935 0.122429475 -0.057253692 0.002926555
-0.03907003 0.09620406 0.0028178422 0.03468547 0.047773503 0.028962532 -0.033429403 -0.0053390022
0.052835423 -0.12907518 0.015765686 -0.11651916 -0.123195976 -0.019556751 0.03297996 -0.026458366
0.013231279 -0.053759366 -0.047903847 0.0025442154 -0.08659021 0.045413632 0.05070981 -0.021332033
0.00037465247 0.04945249 0.17495821 -0.028866189 -0.12163798 -0.14078595 -0.046581764 -0.11088398
-0.11188631 -0.05203894 -0.021988861 -0.018058572 0.014220731 0.08806149 0.13388984 -0.045193534
-0.09985581 0.14028987 0.13626255 0.123879485 0.05998518 0.07909987 0.01939113 -0.07891697
-0.19386043 -0.09752635 -0.010677554 -0.05875178 -0.044615354 0.045007627 -0.12808535 0.025745917
0.1491788 0.14897072 0.0076235393 -0.056428015 -0.033012636 0.09730239 -0.06754511 0.15427318
0.03275532 -0.04453304 -0.09042043 -0.06373269 -0.09368736 -0.11120414 -0.14206587 0.088105045
-0.083774544 0.024191821 -0.0032249703 -0.08727829 -0.08657081 -0.003421066 -0.08817122 -0.06704201
0.01491967 -0.04048633 0.11964016 0.11836099 0.09431465 0.12732813 -0.0378459 0.056021813
-0.031703558 0.19324107 -0.21890655 -0.045153126 0.075039186 0.05011525 -0.124523245 0.16890103
0.0641793 0.101461515 -0.13352312 -0.01948028 0.017657263 0.13524523 0.08926854 -0.13230577
0.12802354 -0.008421788 -0.0449102 0.10434737 0.17118378 0.05438173 -0.037163414 0.11652075
-0.0668143 -0.01393785 -0.052315228 -0.101187825 -0.0012437787 0.03075967 0.027352197 -0.04959719
0.12385881 -0.019348547 -0.10343992 -0.030005177 -0.04805349 0.055564918 0.124525346 -0.029702246
0.14786258 0.16206826 -0.0047029196 0.08331003 0.055483926 0.04961669 0.13847485 -0.031725764
-0.13176353 -0.08002998 0.12543142 -0.119624026 0.07537145 -0.057049192 -0.09795253 -0.07216467

mid_part.0.0.bias f4 [12]
00000000: e2e5 0fbe 6279 113d 597b 03bd 1878 363d
00000010: b932 cf3d f585 7fbc eed8 9b3c ef51 8ebd
00000020: a46e 583d 3d7c 83bc dec3 1ebd 55c1 4b3c
-0.14052537 0.03551615 -0.032100055 0.044548124 0.101170965 -0.015595903 0.019024339 -0.06949221
0.05283989 -0.016050452 -0.038761012 0.012436231

mid_part.1.weight f4 [12, 12, 3, 3]
00000000: 62d7 5ebd d264 febc 0df9 953d 3a96 af3d
00000010: 2def bb3d b568 1bbe 722a c4bd f000 443d
00000020: 7a27 c83d 4552 c43d 9022 1abd 5feb 57bc
00000030: ccb9 963d a06f b2bd b985 c4bd 7e0c 083c
00000040: 0fde 163d ea50 eebc 315f ce3c 9ddc 01bb
00000050: cf59 b0bd cd2c 653d 6cf6 823d 60d7 b83d
00000060: 05e2 c4bd d84e e6bd fa71 24be 344c b5bc
00000070: d58c 8d3d 2688 273d 5a1f bfbd 9441 97bd
00000080: 3aa4 8e3e b6af 003e 0810 1f3e 27a7 fcbd
00000090: 1e37 e43d 0874 69bc 897e da3d 196a 9a3d
000000a0: fa9e 30be ebe5 96bd 0afd 4a3d e60c 333d
000000b0: a848 afbd ef31 6d3e ab6e 3a3d 5f48 bc3d
000000c0: ee7d 09bb e3ac 77be acfb 2cbe bced d43b
000000d0: e04b 063e f4e3 c8bb 70e0 2fbe 7ee9 afbd
000000e0: aca8 c7ba 23fb 473d 7b25 a33c dee3 85bd
000000f0: 6a6e b1bd 6100 083e 35ec 963d 28d6 063d
00000100: ffeb 1c3e e1e8 f6bd 1085 043e c7e4 c4be
00000110: 82a5 d03d 14d7 0abe 1316 cd3d 5a05 e3bd
00000120: 8c02 e5bd 2e4a 40bd 25a7 ffbd c5d3 313d
00000130: aa33 833d 9009 e33d ed0f dabc d965 b4bc
00000140: 6ddc c3bc 9be0 a1bd ff74 cfbd b220 26bd
00000150: daec e0bd b278 a1bd 497a 953c 9e02 a63c
00000160: 9f05 253d f6ef 8d3d d6ff b1bc a4f8 073e
00000170: 74aa 7bbd 4cfc 16be 673f a33e 7ee6 b0be
00000180: 5b0d 7dbe 53ed dd3d 8e90 2d3c 71f2 2e3d
00000190: 1ff2 8abd 25c0 183e 6fcd d73d 7f6f bebd
000001a0: 2dab 4cbd fd01 383d 46ca b63d a35f 373e
000001b0: efbd 76bc 6b27 f13d b0f4 e53d 2362 823d
000001c0: cd93 e3bc 3c1a aa3d ca01 93bd a921 a73d
000001d0: c639 663d 7dbf 2d3d 0a23 623d c6ec ce3d
000001e0: 668f 49bd 9c5a e73d 0725 893d 03ae 1bbb
000001f0: b12c 793d 3af7 993b d164 6f3d 77cc 613c
00000200: 99a1 033d 7a7d d03d 5d68 b53d f996 823c
00000210: c807 8bbc f4e8 57bd 97b8 8cbd 50aa 733d
00000220: 95b5 823b 6957 28bc bb28 fdbd 25d9 91bc
00000230: 6dea 6fbc ace7 003c 3cd8 b6bd 2972 9d3d
00000240: 6b6e 453c 9aac 93bd e1bc 463d 2707 5fbd
00000250: 11a9 ac3d add3 f73c 3360 88bd c469 38bd
00000260: 9ace e33c 5a3c a63c 03cc 993d 9436 293e
00000270: 2292 233d 0440 303d 04b3 ea3d 3756 c3bd
00000280: e98e 813c cfb0 d43d 5133 0cbc 5eb0 6dbd
00000290: 21c0 00be f933 1f3d ba43 893a 6c81 063d
000002a0: 63f5 363d 6327 a9bd ead9 b1bc 2ae4 bdbb
000002b0: 398e 54bd df5a 083e 005a c63c 37b0 27be
000002c0: a23b 973c 915a 6b3d 649c b9bd d5c0 063e
000002d0: e6b2 823d d8f1 ecbd 2f5d 55bd 1648 af3c
000002e0: a501 9dbd 39f5 3c3d b53d 1c3d bf13 cabd
000002f0: a6b0 ac3c 5417 0ebd 569e a1bd 33c1 5dbd
00000300: 9d8d d1bb d8b9 42bc 3480 47bc 57df 42ba
00000310: 169e a13d e7de f83d bdd8 e73c 5f64 b5bd
00000320: 019c cd3d 4f4c 6f3d dbda 8e3b 6c26 32bb
00000330: 555e 943d af1f 7cbd f1af 943c e293 ba3c
00000340: 5f44 f03d 4c4b 5d3d a8bf 9b3d f32d bbbd
00000350: 3cb0 883d 4eb1 6e3d db4e 57bd 6078 433d
00000360: 6b15 673c e358 4ebd e263 99bd 16a9 c93b
00000370: 4855 213c 9822 45bd 0353 a9bd 16e5 f1bc
00000380: 5213 1a3d 3d98 973d b77e 163d b9d9 51bd
00000390: 52a5 ab3d 658c bfbd 07e4 d9bd a4c1 8ebd
000003a0: acab 5c3c 09c0 4cbd 324e 553d 82d9 b5bd
000003b0: 4033 0e3c c9c9 e3bd 0136 513c 3137 97bc
000003c0: 7253 873d 422b d2bd ee1b 923c 45da ca3d
000003d0: ca38 0f3d 6713 7dbd 571c f5bc 99ab d1bd
000003e0: a85a b2bb 7b0a e93d 6af4 e43c b63d b9ba
000003f0: ff8d efbc ac12 8ebc 77c6 a2bd 68aa 9bbd
-0.054404624 -0.031053934 0.07322893 0.08573575 0.091764785 -0.15176661 -0.09578408 0.047852457
0.097731546 0.09586004 -0.037630618 -0.013178675 0.07359657 -0.08712697 -0.09595818 0.00830376
0.036832865 -0.029091317 0.025191875 -0.0019815334 -0.0861088 0.05595093 0.063946575 0.090254545
-0.09613422 -0.11245507 -0.16059104 -0.022131063 0.06911627 0.040901326 -0.09332152 -0.07385555
0.2785967 0.12567028 0.15533459 -0.12336569 0.11143325 -0.014248855 0.10668666 0.07539768
-0.17248145 -0.07368072 0.049557723 0.043713473 -0.0855878 0.2316358 0.045515697 0.09193491
-0.00209796 -0.24187045 -0.1689288 0.0064980667 0.13114882 -0.0061306898 -0.1717546 -0.08589457
-0.0015232763 0.048823487 0.019915333 -0.06537603 -0.08663638 0.13281395 0.07369272 0.03291908
0.153244 -0.12056137 0.12941384 -0.38455793 0.10187818 -0.13558608 0.10013976 -0.11085005
-0.111821264 -0.046945743 -0.12483052 0.04341485 0.064063385 0.11085808 -0.026618922 -0.022021221
-0.023908818 -0.07904168 -0.10129737 -0.040558524 -0.10982676 -0.07884349 0.018246787 0.02026492
0.040288564 0.069305345 -0.021728437 0.13278443 -0.061441854 -0.14744681 0.3188431 -0.34550852
-0.24712126 0.108362816 0.010593547 0.04271168 -0.06784462 0.14917047 0.1053723 -0.0929861
-0.049967933 0.04492377 0.08925299 0.17907576 -0.015059932 0.117750965 0.11228311 0.06366374
-0.027780438 0.08305785 -0.071780756 0.08160717 0.05620744 0.042418946 0.055209197 0.10103755
-0.04920902 0.11296579 0.066965155 -0.0023754842 0.060833637 0.004698661 0.058445755 0.013781658
0.032136533 0.10180183 0.08857796 0.01594113 -0.016971484 -0.052712396 -0.06871145 0.059488595
0.0039889314 -0.010274746 -0.12361284 -0.017803738 -0.014643294 0.007867735 -0.08927962 0.0768779
0.0120502515 -0.072106555 0.048519973 -0.05445018 0.08430684 0.030252302 -0.066589735 -0.04502274
0.027808476 0.02029245 0.07509615 0.16524726 0.039934285 0.0430298 0.11459926 -0.095379286
0.015815215 0.10385286 -0.008557157 -0.058029525 -0.12573291 0.038867924 0.0010472455 0.03283827
0.044667613 -0.082594655 -0.021710355 -0.0057950215 -0.051893447 0.13315915 0.024212837 -0.16375814
0.018461052 0.057459418 -0.09063032 0.13159497 0.063817784 -0.115695655 -0.05209082 0.021396678
-0.07666329 0.0461323 0.038144786 -0.098670475 0.021080326 -0.034690216 -0.07891528 -0.054139327
-0.0063950554 -0.011885129 -0.012176562 -0.0007433793 0.078914806 0.1215189 0.028301591 -0.08857035
0.10039521 0.058422383 0.0043595857 -0.0027183546 0.07244555 -0.061553653 0.018150302 0.022775594
0.11731791 0.054026887 0.07604915 -0.091396235 0.06674239 0.05827456 -0.052565437 0.04772222
0.014104228 -0.050377738 -0.07489754 0.00615419 0.009846993 -0.048128694 -0.08267786 -0.029528182
0.03761608 0.07402084 0.03674194 -0.051233027 0.08381142 -0.0935295 -0.10639196 -0.06970528
0.013468664 -0.049987826 0.052076526 -0.08879377 0.008679211 -0.11122472 0.012769223 -0.018458935
0.06607713 -0.10262157 0.017835584 0.09904913 0.034966268 -0.06178608 -0.02992074 -0.10237808
-0.005442936 0.11378952 0.027948577 -0.0014132771 -0.029242514 -0.017342888 -0.079480104 -0.07600862

mid_part.1.bias f4 [12]
00000000: 12d9 a43b be47 d03c 25be 803d e9ca 1d3c
00000010: 718f 273d 4df3 30bd 5564 23bd 5917 4cbc
00000020: cbbb a6bb 99b6 14bc 0c5d 07bd 975c a2bd
0.0050307596 0.025424834 0.06286267 0.009630897 0.04090828 -0.04320078 -0.039890606 -0.012456738
-0.0050883046 -0.009076738 -0.03304772 -0.07927816

mid_part.2.weight f4 [12, 12, 3, 3]
00000000: 85bc d63d 5b63 b23d d696 22bd 348a e8bd
00000010: 60ba 8d3c 05f5 2a39 634f 33bc f9c4 94bd
00000020: ff8d ecbd 5937 b5bd b594 c7bd 6009 9e3d
00000030: f81b 01be 95d8 093c e52d c53d 264e fe3c
00000040: 726a 83bd fbc4 5f3d bffc 81b9 f882 e53d
00000050: 0aa3 f9bd 5411 8bbc de60 8f3c 96c1 11be
00000060: 28db 893d 2a3f e23d c944 49bd 55f2 89bb
00000070: eb06 5cbc dfde 17be 77ba 0b3e 9a25 be3d
00000080: b41c 093d c6ae cbbd 02eb 423d 457d d0bc
00000090: f015 e43d e6ad 153d c9cc b8bd 7c86 2b3d
000000a0: d708 a53d 6e05 cd3b e8ee 30bd 9f9e ee3c
000000b0: 42dd bd3c e868 31be 39f6 7ebd 695d 37bc
000000c0: 3222 3d3e bd55 dc3e 005a 503d 3341 f0bd
000000d0: fa9d 5ebe 5dda b63d c890 173d e5a0 023d
000000e0: 583a a43d 944e 1cbe d1e4 24be ef8f 753c
000000f0: f340 113b 023f a73d 7766 fb3d 853b aabc
00000100: 0b75 793c 7c2b 073d 3f48 9fbd 17c1 6cbd
00000110: af3f ef3c e0cb bc3d fa73 213d de09 45bd
00000120: 0a2b 653d 72a6 c13c cc04 80bd e20e 3dbd
00000130: 5856 de3c 8df6 213c 151c 78bd 7923 96bc
00000140: fcc6 c83d 6c43 93bd 1db7 01be d07a 093d
00000150: b6b4 bebd ec8a 59bd 5745 97bd cd8a 16bd
00000160: a7ea 97bd 674a 60bd fd0d c23d d7b7 a93d
00000170: 04c2 a5bd 431f 1dbd e972 45bd a235 063d
00000180: 0ec1 293d bcf3 02bd 2a52 883d 2eff d33d
00000190: 58ed 753d 70d7 ae3c e6f6 7b3e c318 34bd
000001a0: fd30 323d 910b 433b 8034 31bd 07fb cd3d
000001b0: 1f95 333e 8a75 87bc 58b3 ff3d b7e7 f6bd
000001c0: f1ff 0cbe 1630 15be 39da 5c3d 47ab 40bd
000001d0: 5aee 033e 57c9 efbc 4955 41bd b2bc 043c
000001e0: b9e5 4cbc 2eb4 a0bc c5a7 4c3b e500 1cbd
000001f0: 3017 923d ed18 de3c 4628 0e3c 9079 d03d
00000200: e49c 44bc 48e0 403d ca25 903c d6c8 a43c
00000210: a22f 8d3d 60ed dcbd 177a 37bd 6874 fb38
00000220: 2c7c ca3d b942 7f3d a01a 93bd a2be ef3a
00000230: 9eb5 e23d 9972 213d da85 7cbd 8894 ca3d
00000240: 9b10 0b3e 6bd3 763d 2983 dfbc ae18 f53b
00000250: 7144 00be a2b9 3cbd a468 c93c 5917 edbc
00000260: f834 4ebd e426 af3d 4fca cf3d 2a9f 833d
00000270: 43e4 3a3d 8819 50be 753d 92bd f434 8fbd
00000280: 4376 593c da24 a73d a423 bcbd 371d b9bd
00000290: f31f 3b3d 6db1 0e3d f8e6 4bbc 8896 d23d
000002a0: 4988 ad3d 6bde a33d 790d 663d 6c5b 403d
000002b0: 6f2c 253d d8b5 6cbd 7041 e23c 2c62 9f3d
000002c0: 4516 443c 6b06 06bd 82cf 91bd 0a65 5dbd
000002d0: 899c d13c 7502 7a3d a809 1fbc 9c7a 8e3d
000002e0: 020f e33b 4953 5d3d 2c48 4f3d ec3c b23d
000002f0: 5079 5a3d 57e1 c0bd a4f8 e3bc fe27 dabd
00000300: ad7a 17bd fbbf a23d 5df4 903d 7e91 8ebc
00000310: 0c58 9dbc fdb7 d73d c648 a73d 1f07 6ebd
00000320: 8ccd d4bc 45d4 09bc 4a2c 3abd 98f6 eabb
00000330: 13fd 6abd f987 aebb 25fa 92bd 8add 25bd
00000340: 7d57 1b3c a3ab 943b d804 1b3c 7c30 7ebb
00000350: 09b2 a93d 58f8 573c 73f3 733d f7bf 8c3d
00000360: cf0e 783d 2412 29be d310 403b 787f 50bd
00000370: df3d 01be 3d31 203d 7265 c73d 0457 183c
00000380: 56c2 bf3d d5be 08bb 1f25 6e3d 3c57 b7bc
00000390: 725a 93bd cb91 043e c978 92bd e9b6 4dbd
000003a0: c107 283c 6436 e2bc fcfe 8dbd 2002 30bd
000003b0: 5dd6 65bd ac46 6c3d 2bad a03c 29b3 963d
000003c0: a371 f3bc 3532 f13b 4b4d da3b 426b 4dbd
000003d0: 865e 8b3c 4e60 583d 3ec8 85bc 62c0 0a3d
000003e0: 1b0b a13c f7e2 833d 0c8a 9ebd 560c 163d
000003f0: 7bc1 01bc 74ed dd3c 7de3 79bc 15db aabd
0.10485176 0.08710357 -0.03969463 -0.11354485 0.017300785 0.0001630374 -0.01094422 -0.07264132
-0.11550521 -0.08848447 -0.097451605 0.07716632 -0.12608325 0.008413454 0.09627894 0.031043123
-0.06416787 0.054631215 -0.00024793108 0.11206621 -0.121893 -0.016976036 0.017502245 -0.14234003
0.06731254 0.11047204 -0.049137864 -0.0042097964 -0.013429384 -0.14831112 0.1364535 0.09284516
0.03347464 -0.09945445 0.047587402 -0.025450358 0.11136997 0.036542796 -0.09023435 0.0418763
0.08058327 0.006256751 -0.04319659 0.02912837 0.023176793 -0.17325175 -0.062246535 -0.011191704
0.18470076 0.43034163 0.05086708 -0.11731186 -0.21739951 0.08928368 0.03700331 0.031891722
0.08018941 -0.1526435 -0.16102912 0.01498793 0.0022163957 0.08166315 0.12275403 -0.020780334
0.015225659 0.033000454 -0.07777452 -0.057801332 0.029205171 0.092185736 0.039417244 -0.048105113
0.05594925 0.023638938 -0.06250915 -0.04615677 0.027140781 0.009885442 -0.060573656 -0.018327462
0.09803578 -0.07190594 -0.12667508 0.03356439 -0.093118116 -0.053111 -0.073862724 -0.036753464
-0.07417803 -0.054758456 0.09475324 0.08287018 -0.08093646 -0.03835989 -0.04820529 0.032765992
0.041443877 -0.031970724 0.066562966 0.10351406 0.0600408 0.021342963 0.24605903 -0.043968927
0.04350375 0.0029761533 -0.04326296 0.10057645 0.17537354 -0.01653554 0.12485379 -0.12055915
-0.13769509 -0.14569125 0.05391905 -0.047038343 0.12883893 -0.029270811 -0.047200475 0.008101629
-0.012505942 -0.019617166 0.0031227928 -0.03808679 0.07133329 0.027111495 0.008676594 0.10179436
-0.012000296 0.04708889 0.017596144 0.020115297 0.06893851 -0.10787463 -0.04479417 0.00011990295
0.09886965 0.06231949 -0.07182813 0.0018291066 0.11069797 0.03941593 -0.06165109 0.09891611
0.13580553 0.060260218 -0.027284222 0.0074797487 -0.12526108 -0.04607547 0.02458603 -0.028941797
-0.050343484 0.0855234 0.10146009 0.064268425 0.045627844 -0.2032224 -0.07140628 -0.06992522
0.013272825 0.08161326 -0.091864854 -0.090387754 0.045684766 0.034837175 -0.012445204 0.10282618
0.0847326 0.08001407 0.056165192 0.046962187 0.04032558 -0.057790607 0.027619094 0.07782397
0.0119682 -0.032720964 -0.07119657 -0.054051436 0.025587337 0.0610375 -0.009706892 0.0695698
0.0069292793 0.054034505 0.050605938 0.08703026 0.05333835 -0.0941798 -0.027828522 -0.10652159
-0.036982227 0.079467736 0.070778586 -0.01740336 -0.019207023 0.1053314 0.08168177 -0.05811226
-0.025976919 -0.008412425 -0.045452394 -0.0071705095 -0.057370257 -0.005326268 -0.071766175 -0.04049448
0.009481308 0.0045370623 0.009461604 -0.0038786223 0.08285911 0.013181768 0.059558343 0.06872552
0.060560998 -0.16510826 0.0029306903 -0.050902814 -0.12621258 0.039109457 0.09736146 0.00929809
0.093632385 -0.0020865698 0.05814087 -0.022380464 -0.071949854 0.1294624 -0.07151944 -0.050223265
0.010255755 -0.027613826 -0.069334 -0.042970777 -0.056112636 0.057684585 0.019613823 0.07358391
-0.029717272 0.0073607215 0.006662046 -0.050151117 0.017012846 0.05282622 -0.016330834 0.033874877
0.019658616 0.064397745 -0.07741174 0.03663286 -0.0079196645 0.027090766 -0.015251991 -0.08342568

mid_part.2.bias f4 [12]
00000000: de64 b03d 6d01 ca3d bff0 a13c dda7 9fbd
00000010: b9fe 97bd a0b9 98bd 71aa a2bd f476 13bb
00000020: d2f6 b93d 07f1 6cbb e620 813d d753 babd
0.08612989 0.09863553 0.019768117 -0.07795689 -0.07421631 -0.0745728 -0.07942665 -0.0022501322
0.0908028 -0.0036154406 0.06305103 -0.090980224

mid_part.3.weight f4 [12, 12, 3, 3]
00000000: ab48 ef3c 1c81 083e ecd9 993d 6f43 443d
00000010: f55b 333e 31e1 e5bd 0535 373e 3dd3 d8bd
00000020: 0349 ad3c 9f80 1d3c 5435 9dbd 7da5 36bd
00000030: 4008 5a3d 3f97 e63d f58d 363d 5985 b13d
00000040: 7668 8d3b 30bf 7dbc 9d76 9fbb c3e5 b3bd
00000050: 8f62 55bd 178a f9bb ec07 afbd 1031 95bc
00000060: c196 e63d e957 23bb f388 ff3c 5f5d b5bc
00000070: c875 dabc 6d25 cf3d 8b2a c43b b266 d3bd
00000080: 0e22 8fbd 3075 513c ce12 10be 3254 023e
00000090: 297b 81bd 4c02 503a 9dbe 8a3d 6143 f7bd
000000a0: fa40 30bd bbd1 2abd 27da a7bd 7415 2d3d
000000b0: e75b 5fbc bcf7 273d 112c 043d 9669 c33d
000000c0: 4ba1 333d 3ced 043c 7106 053d 9df1 573d
000000d0: 8e6f babd 3e18 95bd efb0 803d de1d 50bc
000000e0: 8686 ecbd 2576 50be 4067 a03d 6567 87bd
000000f0: 7079 703e e83e 63bc 82a2 81be 01cd c63d
00000100: f818 bc3d 8bf5 b9bd 1a2e b8be 3b0e 273d
00000110: ddc9 16bd 9c8a 943e 1ccf fc3d 81e2 15be
00000120: ff55 643d 7e4a ddbc 8b1f 86bd ba73 803d
00000130: 2a66 e43c 110b 56bd 1b64 7abd a8a2 ce3c
00000140: 3e33 b3bd 53bb 86bd 1192 ce3d 6ffe 5e3d
00000150: 4efb a33d 0092 183d 7c7d 29bd 2438 823d
00000160: 0762 adbd d610 42bd 2543 0e3d 2eeb 063e
00000170: 4cb0 863d c22c 6b3d 1cfb 993c 7460 853d
00000180: ee6b a4bd 6e34 9f3d 353d 673d 156a 893e
00000190: 691d 8dbe 762c 853b 927e 47be fa25 89be
000001a0: e423 6d3d 852b 38be a17c 1c3e 2a7d d0bd
000001b0: 8fdf 83bd 76b9 bebd 5e70 b3bc df01 9fbd
000001c0: a27b 07be 9fda c03d 60c4 f0bc 5f3b 13be
000001d0: a7b0 1dbd c9dd ca3c 1c92 043e 8786 a53d
000001e0: 3ac1 403d e948 87bd ac56 403d cc0f 95bd
000001f0: c878 483c b2f0 6f3d 6eda ebbc 0d9a a93d
00000200: 608f 97bc 9b0b 0cbd 19bf d63a dd34 1bbd
00000210: 1ea3 0f3d 3870 453d 1b65 37bd f9b8 863c
00000220: d1f5 e2bc 471d 56bd 9796 ddbd b0c8 40bd
00000230: 69d9 b33d 14aa 88bd c46c d6bd 4548 8f3d
00000240: 8f29 d8bd 3a61 b1bd 3606 9ebd cef7 49bc
00000250: 3927 dabd 47e3 173d 5c8b 04bd deee c53b
00000260: a81e b5bc 5590 993d b861 6bbd 9d39 29bd
00000270: 86ae 283d 45cf 8cbc 781f 12bd a082 643d
00000280: 53e8 00be 3b48 983c c743 58bc 6433 2e3d
00000290: 5a48 a63b 86fc b03d 0335 bcbc 7334 6c3d
000002a0: 4df9 e7bc 6be8 f43b 5d31 bbbd 6232 f0bd
000002b0: 6041 ab3c 58f6 db3c 1a7f 813d 02e3 123c
000002c0: 9844 a0bd 03f2 f0bc 22b8 5b3e 347a b3bd
000002d0: 4dca f23c 734c c93d fa31 7dbd 1a70 5e3d
000002e0: 8458 0dbd 0842 44bc 4c2e 39bd e92a 74bd
000002f0: 3310 8dbd db20 72bd 9e4b 003d c292 9aba
00000300: 4297 9b3c 4189 133d dee9 bd3d df89 9cbd
00000310: 02d9 a93c c6af b4bd c021 623d 4c34 11be
00000320: 991c 6abd 5b28 443d c95d 1fbd b1f2 2bbd
00000330: 6191 673d 6e3c ebbd 3fe7 523c 0280 a9ba
00000340: 466a 1b3e 886b 42bd 2be1 c73d abe6 903d
00000350: 30bf 09be 5223 1e3e 0e43 0e3e b670 ae3d
00000360: 54d9 d63c 9384 82bd 7816 933d 4126 f33c
00000370: 9b4a ee3d 1a9c 4a3c 3f0f d43b d15b 1d3d
00000380: 0736 3c3d b48f 44bd 9cf3 7fbd 6343 5b3c
00000390: be85 a0bd ae7a 453d 7ea0 a23d 49f6 2cbc
000003a0: d5f6 8e3d 1b0d 853d 4a2d 7bbd d7ef 95bc
000003b0: 92ff 88bd 488f 34bd 4bd4 bfbd 5c21 243d
000003c0: 26c9 2dbb 363d 23bd 1a15 7dbd a355 9c3c
000003d0: 052c 903d 8cf7 9e3d aee9 e1bc c52d d13c
000003e0: 171c dcbd 928b 9b3d 3ad2 803d 6b9b 95bc
000003f0: 39a4 0ebd 07b8 9d3d dae5 abbd 5296 753d
0.029209455 0.13330501 0.075122684 0.047915872 0.17515548 -0.112245925 0.17891319 -0.105871655
0.021152979 0.009613185 -0.07676187 -0.044591416 0.053230524 0.11259317 0.044568975 0.08668012
0.004315431 -0.015487477 -0.0048664347 -0.08784058 -0.052095946 -0.0076153385 -0.08546433 -0.018211871
0.11259223 -0.0024924225 0.031193232 -0.02213925 -0.02666749 0.1011456 0.005986517 -0.10322322
-0.06988917 0.012784287 -0.14069673 0.1272743 -0.06322319 0.00079349126 0.06774638 -0.120733984
-0.043030716 -0.04170392 -0.08195906 0.042256787 -0.013632751 0.041007742 0.032268587 0.09541623
0.043854993 0.008113202 0.032476846 0.052720655 -0.091033086 -0.072800145 0.062837474 -0.012702433
-0.11549096 -0.20357569 0.078321934 -0.06611518 0.23483825 -0.0138699785 -0.25319296 0.0970707
0.0918445 -0.09080037 -0.35972673 0.040785056 -0.036813606 0.29012 0.123441905 -0.14637186
0.055746075 -0.02701306 -0.06548985 0.06272073 0.027880747 -0.052256647 -0.061130624 0.025224045
-0.08750008 -0.06578698 0.10086454 0.054441866 0.08006917 0.03724861 -0.041379437 0.06358364
-0.08465963 -0.047379337 0.034732003 0.13175651 0.06576595 0.05741573 0.018796496 0.065125376
-0.080283985 0.07773672 0.056454856 0.26838747 -0.275615 0.004064138 -0.19481876 -0.26786786
0.057895556 -0.17985351 0.15281917 -0.10180123 -0.06439125 -0.093127176 -0.021904167 -0.07764029
-0.13230756 0.09416699 -0.029390514 -0.14378117 -0.038498547 0.024763959 0.12946361 0.080823
0.047059275 -0.066057034 0.046957657 -0.07278404 0.012235828 0.058579154 -0.028790679 0.08281336
-0.018500984 -0.034190755 0.0016383856 -0.03789221 0.03506767 0.048202723 -0.044774156 0.016445624
-0.027705105 -0.052274015 -0.10819738 -0.04706639 0.08781702 -0.06673065 -0.10469964 0.06996206
-0.10554802 -0.086611226 -0.077160284 -0.012327148 -0.106520124 0.037081983 -0.032359466 0.006040438
-0.022109345 0.07498232 -0.05746624 -0.04131471 0.041182064 -0.017188678 -0.035674542 0.055788636
-0.12588625 0.01858913 -0.013199753 0.04252948 0.005074543 0.08641915 -0.022974497 0.057667207
-0.028317118 0.0074739954 -0.09140275 -0.1172836 0.020905197 0.026850864 0.06323071 0.008965256
-0.07825583 -0.029412275 0.2145696 -0.08763543 0.02963748 0.09829035 -0.06181524 0.054306127
-0.034508243 -0.011978634 -0.045210168 -0.059611235 -0.068878554 -0.059113365 0.031322114 -0.0011793005
0.018993024 0.036019567 0.09273122 -0.07643484 0.02073336 -0.088225886 0.055207968 -0.14180106
-0.05715618 0.04789005 -0.0389078 -0.041979495 0.05653513 -0.114861354 0.012872516 -0.0012931826
0.15177259 -0.04746583 0.09759744 0.070752464 -0.13451838 0.15443161 0.13892767 0.08517592
0.026226677 -0.06372943 0.0718202 0.029681327 0.116353236 0.012366319 0.006471544 0.03841764
0.045949962 -0.04798861 -0.062488183 0.013382765 -0.07838009 0.0482127 0.07940768 -0.010556766
0.06980673 0.0649664 -0.061322488 -0.018302841 -0.06689371 -0.044081956 -0.093666635 0.040070876
-0.00265176 -0.039853297 -0.061787702 0.019083804 0.07039646 0.077620596 -0.027577247 0.02553452
-0.10747545 0.0759498 0.062900975 -0.018262586 -0.034824584 0.07701116 -0.0839345 0.05995781

mid_part.3.bias f4 [12]
00000000: cea7 1a3e 9c51 603d 45dc 45bd a860 a4bc
00000010: 2ec3 013d 033c 0e3d 6c6d df3c 5b53 463b
00000020: d83c dd3d 0498 7b3d 0d6e 3bbd c07f 83bd
0.15103075 0.05476533 -0.04830577 -0.02006562 0.03168028 0.0347252 0.027273856 0.0030262086
0.10802621 0.06142427 -0.04575925 -0.06420851

mid_part.4.weight f4 [12, 12, 3, 3]
00000000: d4e7 45bd 145d f4bd f409 7fbd f9c1 2cbe
00000010: 6887 373e b297 0c3e 61a5 97bd 426f 3d3e
00000020: 67a3 99bc 551b e73c 3ddf c4bd a88b dcbd
00000030: 7e6a 87bd 9888 04be b8b7 b4bd 93f6 83bc
00000040: b7cb b6bd 955a f2bc 7152 a2bc ca37 fd3d
00000050: 99e0 143e 83af dd3d a1bb 003d 7ae0 173e
00000060: 5e36 31bd 3e96 383d fb5a 9b3d 97ba a73d
00000070: 596b 13bd 0ed5 803d 297c eebc 7671 27be
00000080: 6894 38bc 6646 0abd 4f2f 3bbd 90fc aebc
00000090: 2915 243d de3e b1bd a407 0bbe 0265 a33d
000000a0: aa77 00bd fc9d 2f3d c6ac 0abd fef9 a7bc
000000b0: 43c1 98bd 0c83 0b3d ae3a dcbc ebc1 cfbd
000000c0: 1937 82ba 6007 3bbd 32d7 e2bd a5be 2abc
000000d0: 80b0 49bd 3fb9 bb3c 86d0 9bbd ad9c 1ebb
000000e0: c938 563c cafb aa3d b36e 2b3c 9dae 54bd
000000f0: afab c3bc afd5 413d 3f67 7bbc 91dd c73c
00000100: 5dc2 bebd 8571 903d 8166 1dbe f69a 85bc
00000110: 079d b03d 34a4 11be dd14 253d d668 8abc
00000120: 799c 7a3d c621 9e3b c844 02be 2896 893b
00000130: 9933 1fbd 4b01 393d 87ca ef3d 69e2 7dbd
00000140: adb0 84bd ab66 3d3c 52d8 de3b d74b 993c
00000150: 8a90 28be 55e6 30be 668f ffbc 2bec c6bd
00000160: 8e58 4abd f1de f23c 763d 0f3c 2c7b 963d
00000170: 4010 a6bd 01c9 52bd d3df 063e 23ab f53d
00000180: 3062 9dbc 7e7c 883d 9184 543c 3e1f 8abc
00000190: 55c8 51bd 3cc9 f1bd 8ba9 9dbd 4e2b 39be
000001a0: 0eeb e3bd fb73 f63d 8298 803d 7b7e 34bd
000001b0: 4e01 283e 8b9a 9bbd 0911 d8bd 0bc1 0abe
000001c0: 05cd cabb bb5a c5bd e6d6 37bc 7a45 493d
000001d0: 6869 1cbe 2e54 4ebd ba9e 893d 7d8c 21bd
000001e0: 72fe e13b 48e0 1abd 1114 583d 194e a63d
000001f0: 126e 0dbc 44ca dc3c 6bf0 c5bc 2290 76bd
00000200: 4f98 733d ac55 2bbd 1bb5 f03d 4d78 3f3d
00000210: ef4f 9bbd 9196 b83a a478 49bd 5941 32bd
00000220: f83d 82bd 2cbf 1f3c 8d4b 6fbc 6802 693c
00000230: 83e6 83bc 1691 c73d 32cb f73c c354 bdbd
00000240: 95e2 d53b 4755 bcbd cfea 333d b607 bcbd
00000250: e3d6 88bd 7090 c53c 046e 6bbd 53fc acbd
00000260: a054 4ebc b2a8 683b 2f34 023e 4b8b 28bd
00000270: c3e5 f43d b6ac 5cbd a287 c83c e613 09be
00000280: 7d42 cebd acbf c1bc 7592 9fbd a3ea f7bc
00000290: 6b2c 79bc 9001 ed3c eb28 8cbc ec32 63bc
000002a0: e676 cb3c 69e4 0f3d edb5 a93c 9cb9 a33c
000002b0: 0fb5 67bd ec06 183d 168a b73c afdd 9fbd
000002c0: 5982 c33d 3d52 a5bd 3603 babd a81d 4dbd
000002d0: a9c9 0d3d cf3c e53c 4880 cbbd 7a12 98bd
000002e0: d1a9 3bbd cc5f febd 3870 ad3d 80a9 94bd
000002f0: 1e0a 88bd b461 813c a1f6 6b3e a4d5 a9bc
00000300: 896e eabd 2dd2 13bd 501b 133d 2b14 ed3c
00000310: 81af cbbd 5b12 103c 4a92 62bc 51ef 89bb
00000320: f023 403d 085a 063c cf56 223e e41a 8c3d
00000330: 1c3d 613d 8ab8 0fbd 13da f2bb 5ff7 e2bc
00000340: 59a5 443d f9d0 df3c 1e7a b83d 4bc8 263c
00000350: c920 9c3d 3fb8 cfbd 68a4 cd3c 6b25 dd3d
00000360: 706f f13c 2423 d8bd c20d 69bc 9974 61be
00000370: a72a 283e 3ddf 803d 607a e2bd 82b9 643e
00000380: ae0b 99bd 1a22 053c fc02 eabc f5ae 953d
00000390: 2771 1f3d f947 e7bc 5ec8 6ebd be71 553d
000003a0: 2d35 92bd 094b b83b 07bf acbd 2f10 f73c
000003b0: 6fd3 0ebd 701e 10bd 3ea6 473d d894 30bd
000003c0: 052e 3ebd 47d9 9d3d 196b d5bc 0b26 36bd
000003d0: 662d cd3b 65e3 98bd ccf0 f3bd d5a2 1fbc
000003e0: 3b0b d6bd a86f 1a3d a5ed 733c f5bb 263d
000003f0: c09a 4fbc ae41 cbbd 4650 91bd 9ab7 c5bd
-0.04831679 -0.11931816 -0.06226535 -0.1687087 0.17922747 0.13729742 -0.074045904 0.18499473
-0.018754674 0.028211275 -0.09612892 -0.10768825 -0.06612109 -0.12942731 -0.08824104 -0.016108787
-0.08925574 -0.029584209 -0.019814702 0.123641565 0.14538802 0.10824492 0.031428937 0.14831725
-0.04326474 0.045065157 0.075857125 0.08189886 -0.035991047 0.06290637 -0.029111939 -0.16351876
-0.011265852 -0.033758543 -0.045699414 -0.021360666 0.040059242 -0.08654569 -0.13577133 0.0797825
-0.03136412 0.042875275 -0.033856176 -0.020504948 -0.07458737 0.034060523 -0.02688345 -0.10144409
-0.0009934633 -0.04566133 -0.110762015 -0.01042143 -0.04924059 0.02291548 -0.07608132 -0.0024202273
0.013075062 0.08348806 0.0104634045 -0.051924337 -0.023885576 0.047322925 -0.01534444 0.024397643
-0.093144156 0.07052902 -0.15371133 -0.016309243 0.086237006 -0.14222795 0.0403031 -0.016895693
0.06118438 0.0048258035 -0.1272155 0.004198808 -0.038867567 0.04516725 0.11708551 -0.0619835
-0.06479011 0.0115601225 0.0068006897 0.018712921 -0.16461387 -0.17275365 -0.031196307 -0.09713014
-0.04940086 0.029647322 0.008742681 0.07347712 -0.08108568 -0.051461224 0.1317132 0.11995532
-0.019211859 0.0666437 0.012971059 -0.0168606 -0.051216442 -0.118059605 -0.076983534 -0.18082926
-0.111288175 0.1203384 0.062790886 -0.044065934 0.16406748 -0.07597836 -0.10550124 -0.13550203
-0.006188991 -0.09636446 -0.011220669 0.049138524 -0.15274584 -0.05037325 0.06719728 -0.03944062
0.0068967873 -0.037811548 0.05275351 0.08120365 -0.0086322 0.026951917 -0.024162492 -0.06019605
0.059471425 -0.04182975 0.11753293 0.046745587 -0.075836055 0.0014082958 -0.049187317 -0.04351935
-0.06359476 0.009750169 -0.014605415 0.014221765 -0.016101127 0.0974447 0.030248258 -0.09244683
0.006527255 -0.09195953 0.043925103 -0.09181158 -0.066816114 0.024116725 -0.057477966 -0.084465645
-0.012593418 0.003550094 0.12715219 -0.041148465 0.11957886 -0.053875647 0.024478737 -0.13386497
-0.100712754 -0.023650967 -0.07791606 -0.03026325 -0.015208344 0.02893141 -0.017109355 -0.013867121
0.024836969 0.03512994 0.020716632 0.019985966 -0.056569155 0.037115976 0.022404712 -0.07805955
0.09546346 -0.08072326 -0.09082644 -0.05007711 0.034616146 0.027983097 -0.09936577 -0.07425399
-0.045816246 -0.124206156 0.0846867 -0.07258892 -0.06642555 0.015793659 0.230433 -0.020731755
-0.11446864 -0.03608911 0.03591472 0.02894028 -0.09945584 0.008793439 -0.013828823 -0.004209437
0.046909273 0.008200176 0.15853427 0.068410665 0.05498992 -0.0350881 -0.0074112504 -0.027705846
0.04800925 0.027321326 0.09007667 0.0101795895 0.07623441 -0.10142564 0.02510281 0.107981525
0.029472083 -0.105535775 -0.0142244715 -0.22017135 0.1642252 0.06292579 -0.110584974 0.2233639
-0.07472931 0.008125806 -0.028565876 0.07308761 0.03892627 -0.028232561 -0.058296554 0.052110426
-0.07139049 0.0056241793 -0.08434873 0.030159084 -0.034869608 -0.035185277 0.048742525 -0.0431107
-0.046430606 0.07707458 -0.026052045 -0.044469874 0.0062615154 -0.07465247 -0.11911163 -0.009743412
-0.10451361 0.03770414 0.014888202 0.040706594 -0.012671173 -0.09924637 -0.07095389 -0.0965416

mid_part.4.bias f4 [12]
00000000: de25 c43c 7f2a 2cbd 8ae7 88bd 771a 4e3d
00000010: 0fa8 36be 2710 8fbd df03 b2bd 1431 2dbe
00000020: b8ab c73d e38d 05bb 82e7 13bc 7ef3 9fbb
0.023943838 -0.042032715 -0.066847876 0.050318208 -0.17837547 -0.06985503 -0.086921446 -0.16913253
0.097495496 -0.002037876 -0.009027364 -0.0048813215

mid_part.6.0.weight f4 [56, 12, 1, 1]
00000000: dfd6 80be 18ee 163d c007 adbe 448c 56be
00000010: 9e9d 023d 017d 6fbe 27e3 a0bd f108 273e
00000020: 64d1 51bd d3d4 83bc 7c65 fa3c d099 7ebe
00000030: c345 9cbe 4568 82bd 744c 743e 6e26 2a3d
00000040: 55f8 aa3c c9e5 9fbe 050b eb3d 0dfd 623e
00000050: 4ffa 82be be36 da3d f9bd 59be fc37 82be
00000060: fbb0 85bd b58e 533e e865 523e 993e 383e
00000070: 4d00 563e ec34 223d 51c3 043e 16df 073e
00000080: 2564 9fbe fc6e 5dbe 75f0 7dbd c68a 833e
00000090: 2dab 073d 0ca2 0e3e 35c3 bbbd c892 1dbe
000000a0: 2ed0 bcbd b0f6 59be 2baf 893e a95a 4e3e
000000b0: 9917 16bd 4023 0fbc e909 06bd d712 493d
000000c0: 4a6a 1c3e 981d 473e d999 84bd f5b0 7d3e
000000d0: 57c9 26bb 26ce 833d b48f 2b3e 57e1 ed3d
000000e0: 0b8c aebd 4866 8e3e deef 48be dba7 c2bd
000000f0: d139 61be c83e 85be 56ba d6bc be0d fe3d
00000100: 6c37 1abd 6e39 b63c 3334 b2be 096a 183e
00000110: 7aad a03e 0162 82be 5939 31bd 1d2d 873d
00000120: e2e1 a43d 912f 4fbd ab58 2dbe 6933 51be
00000130: e629 b53e eeaa dc3c be66 b53d 54ff d2bd
00000140: cb91 20be 9f48 55be d2fe a53d 2a8a 773e
00000150: 7ab6 dabc d64f 49be f4ac 30be 49d1 a83d
00000160: e355 5dbd ce60 773e 9392 46be 9194 ac3d
00000170: 8c91 1abd 77cc c1be b2e2 9dbe f896 ccbd
00000180: 336d 393e e367 353d 0cdf b4bd 0145 7abe
00000190: cbc3 743e 631b 833e f0b3 1a3e c474 8a3e
000001a0: 1d32 3b3e bf59 1a3e d956 933e 857d 8c3e
000001b0: 4409 553e 5c9b 153e 9212 ecbc 245e 78be
000001c0: c318 54be 7422 283d ec7c 613e ef1a 5cbe
000001d0: d208 1e3d e8ef 0d3e d179 acbe b2a8 6d3e
000001e0: f541 543e 66e1 02be 040e 11be ef09 513c
000001f0: cd47 a6bd 5fb0 253b eae3 0abd 39cb c23d
00000200: a9c8 1bbe 9172 93be 0ae8 f4bd 9eff e63d
00000210: f0b5 673d 6d16 ffbd f798 da3d 3db5 02bd
00000220: 5bdb e53d 83a5 d9bb 4fa8 debd ebf6 90bd
00000230: b142 7abd d0da 0fbe 6a8b 883d abf0 763d
00000240: 53a3 b4bd 0ea2 2c3d d380 aa3e 9eee 45bc
00000250: 8418 843d 4e82 72bd b9e9 0fbe a182 2c3d
00000260: cd2a 083c 0c01 2a3e 7915 253e d8b7 693e
00000270: 44c6 febc f94a 6cbd 9830 f0bd e14e 32be
00000280: 5b55 1a3e 2651 323e 7141 a33c 7b69 7f3e
00000290: 4e4e 95be fd2c 49be 78b8 d4bc bcda bd3d
000002a0: 78e3 f13d fd74 213e 8045 733e 765a 26be
000002b0: a013 d93d 2423 d63d c4ed 84bd 7c3d 963e
000002c0: c528 e23d 0893 13be 3695 07be c04a 973d
000002d0: 45b4 74be bb4a d83d 32dd babc bb31 3bbb
000002e0: 1ff4 b1be 67e1 11bd 6ee5 4cbe 8176 063e
000002f0: ce50 12be 5e34 183e 5178 43bd fbbe aebd
00000300: d4d6 c73d 2b2d eebd abb0 99bd cfdb 6f3e
00000310: 0fea c03e e84f 8ebe 78a5 dc3c 2952 12bc
00000320: b139 a7be 5d3d c1bd 0188 31be 1da6 9d3d
00000330: abec 153e 3d3c dc3d e5f6 7fbe 4cb9 5fbe
00000340: 459b 2abc 2d79 8c3e 421d 233e b185 60be
00000350: e530 2fbd 5af9 0bbe 4514 b0be 6fab 753d
00000360: 5abb 893d b1a4 51bd 4f6c 923d 595a 6d3e
00000370: e39e fd3d 643f 683d 7ace d3be d244 c0bd
00000380: c37e 8e3d e06a 203c 6e73 4e3e 0182 99bc
00000390: 051e d1bd 61ab 08bd c184 a9be 79d8 8a3d
000003a0: df86 153e 3245 7d3e 4e97 b13d 15ff 1bbe
000003b0: f4be 0e3e f352 e4bd 28f5 ed3d 0e37 3dbb
000003c0: b9f8 8e3e a051 d83d f246 cd3e 423e 16be
000003d0: 4d61 8b3e aaf5 8abe d229 8d3e efda 8e3e
000003e0: 76f4 0b3e 9324 05be 5fb7 0abe b82f 85bd
000003f0: f7f9 85bd 1e85 4d3e f160 7d3e 0943 483b
-0.25163934 0.036848158 -0.33794975 -0.20951945 0.031888597 -0.23387529 -0.07855826 0.16312005
-0.05122508 -0.016092693 0.03056597 -0.24863362 -0.30521974 -0.06367544 0.2385729 0.041540556
0.020870367 -0.3123 0.11476711 0.22166844 -0.25581595 0.106549725 -0.21263875 -0.25433338
-0.06527897 0.20659907 0.20546687 0.17992629 0.20898552 0.03960125 0.12965132 0.13268694
-0.31131092 -0.21624368 -0.061996896 0.25691813 0.03312223 0.13929003 -0.09168092 -0.15388024
-0.092193946 -0.2128551 0.26891455 0.20151772 -0.0366436 -0.008736432 -0.032724295 0.049090233
0.15274921 0.19444883 -0.064746566 0.24774535 -0.0025449598 0.06435804 0.16754037 0.11615246
-0.08522805 0.2781241 -0.19622752 -0.09504672 -0.21994711 -0.2602446 -0.026211899 0.12404965
-0.03765051 0.022244181 -0.3480545 0.14884199 0.31382352 -0.25465396 -0.04326758 0.066004016
0.08050896 -0.050582472 -0.16928355 -0.20429768 0.35383528 0.026936974 0.08857487 -0.10302606
-0.15680616 -0.20828484 0.08105244 0.24173799 -0.02669834 -0.19659361 -0.17253476 0.08243043
-0.054036986 0.24158022 -0.19391851 0.08426774 -0.03773646 -0.37851307 -0.30837017 -0.099897325
0.18108062 0.044288527 -0.08831605 -0.24440385 0.23902814 0.25606832 0.15107703 0.2704221
0.18280835 0.15073298 0.28777197 0.27439514 0.20804316 0.14610046 -0.028817449 -0.24254662
-0.20712571 0.041048482 0.2202031 -0.2149465 0.03858263 0.13861048 -0.3368669 0.23208883
0.20728286 -0.12781295 -0.14165503 0.012758716 -0.08119164 0.0025282127 -0.033908762 0.09511418
-0.15213265 -0.28798345 -0.119583204 0.11279224 0.056569993 -0.12455449 0.10673707 -0.031911124
0.11223479 -0.006642045 -0.10871946 -0.07078346 -0.061098758 -0.14048314 0.06667216 0.060288113
-0.08820214 0.042146735 0.3330141 -0.012080817 0.064499885 -0.0592063 -0.14054002 0.042116765
0.008310986 0.16601962 0.16121472 0.22824037 -0.0311004 -0.057688687 -0.117280185 -0.17412902
0.15071623 0.17413768 0.019928666 0.24942581 -0.29161304 -0.19646068 -0.025966868 0.09270236
0.11810964 0.15767284 0.23756981 -0.16245446 0.10599446 0.10455921 -0.06490663 0.29343784
0.110429324 -0.14411557 -0.13240513 0.07387304 -0.23896892 0.10561129 -0.022810552 -0.0028563577
-0.34756562 -0.03561535 -0.20009395 0.13131143 -0.14288637 0.14863726 -0.047722165 -0.085325204
0.09757772 -0.11629709 -0.075044 0.23423694 0.37678573 -0.2779534 0.02693437 -0.008930721
-0.32661203 -0.09435532 -0.17337038 0.07697699 0.14641063 0.10753677 -0.24996527 -0.21848029
-0.010412996 0.274362 0.1592913 -0.21925999 -0.04277124 -0.13669339 -0.34390464 0.059977945
0.067251876 -0.051182453 0.071495645 0.23178996 0.12383821 0.05670108 -0.41368467 -0.093881264
0.06957772 0.009791106 0.2016122 -0.018738749 -0.10210804 -0.033366565 -0.33109096 0.0677957
0.1460223 0.24733427 0.08671437 -0.15234025 0.1394003 -0.11148634 0.116190255 -0.0028871926
0.27924135 0.10562444 0.4009319 -0.14672187 0.27222672 -0.27140552 0.2757097 0.27901408
0.13667473 -0.13002233 -0.13546513 -0.06503242 -0.06541818 0.20070311 0.24744011 0.0030557534

mid_part.6.0.bias f4 [56]
00000000: 896c 7cbe c35a b5bd 4483 01be 3c5a 07bd
00000010: df59 a0bc 7758 47bc 6020 3bbe 2761 413e
00000020: 19a0 b9bd 7731 8b3c 527a 52be a7a0 20be
00000030: 6c8a 81be 356b 453e 45df de3c 6232 813d
00000040: 19fa 9d3d 21f6 423e 90c3 02be 8cd6 3b3e
00000050: edf5 9b3c 7f9c f03d b617 1f3e ac3c 253e
00000060: f813 00be 7b0b 87bc 8f9b 313c 23e1 74bd
00000070: a876 1fbe 8f41 06bd 2852 b03d e529 4fbd
00000080: 6423 873d 8d35 abbd 4860 99b9 a311 74bc
00000090: e262 2f3d bbdf 38be c82c 17be 79f1 02bd
000000a0: 23c5 fabc 119e 41be 389f d43d 2a1e 8e3d
000000b0: fdc3 4a3e 5886 4dbe 3d13 82bd 6a9e 713d
000000c0: ff55 1d3e ba5d 523c 0127 9d3d b088 413d
000000d0: 09d1 fcbd 85c9 5cbe 8fb6 27bd f6c0 383d
-0.24650778 -0.08855202 -0.1264773 -0.03304504 -0.019574104 -0.012167088 -0.18274069 0.18884717
-0.09063739 0.01699136 -0.20554474 -0.15686284 -0.2530092 0.19279177 0.027206073 0.06308438
0.07713718 0.19039203 -0.12769914 0.18343562 0.019038165 0.11748599 0.15536389 0.16136426
-0.12507617 -0.016484967 0.010840311 -0.05978502 -0.15572608 -0.032777365 0.0860942 -0.050577063
0.06598547 -0.083598234 -0.0002925417 -0.014896783 0.04281891 -0.18054096 -0.14763176 -0.031968568
-0.03061158 -0.18907954 0.10381931 0.06939347 0.19801326 -0.2007078 -0.06351326 0.058988966
0.15364836 0.012839729 0.07673455 0.047249496 -0.12344558 -0.21561249 -0.040945586 0.045105897
