models/model_up_3_epoch150.pth (torch_old, 46607 bytes, 15 tensors)

first_part.0.weight f4 [56, 1, 5, 5]
000000 6d 38 d8 bb ba a2 97 3d c7 2e 4b bd c0 d5 17 3e
       -0.0065985234 0.074040845 -0.049605157 0.14827633
000010 94 03 a2 bd 4e f5 4d 3e c9 16 19 be cf 52 43 be
       -0.07910839 0.20113108 -0.14950098 -0.19074558
000020 3b fd d6 bd 26 97 28 3e e4 95 2d bd ec 38 4e 3d
       -0.10497519 0.16463909 -0.042379275 0.050347254
000030 20 bc 81 be 79 4f 0d be be 09 ac bc 5c e9 67 3c
       -0.2533884 -0.13799848 -0.02100074 0.014154758
000040 43 08 17 be 4d 2d b2 3d f6 83 0a bd 56 d7 fd 3d
       -0.14749245 0.08700047 -0.033817254 0.12394588
000050 1d 7f 58 3e 68 42 b3 3d bc f6 96 3d 60 89 6c 3e
       0.2114224 0.087529 0.073712796 0.2309928
000060 b9 b6 1b bd 69 28 3b 3d 5b 66 82 bd dc 03 18 3e
       -0.038016055 0.045692835 -0.06367179 0.14845222
000070 e2 ce 2b 3e cb 7c 55 be 18 21 39 3e 82 94 bb 3d
       0.16778138 -0.20848386 0.1807903 0.09159185
000080 8d b5 50 3d f7 1a 80 3d d3 5e 19 3e 0e 32 9e 3c
       0.05095439 0.06255143 0.14977579 0.019310977
000090 eb 27 61 be 8d 65 5a be 57 6a 2a be 7d 21 75 3c
       -0.21987884 -0.21327801 -0.16642128 0.0149615975
0000a0 bd 1b c6 3b e9 1c a9 bd 12 05 50 bd e7 7e 68 3e
       0.006045787 -0.08257467 -0.050786085 0.2270466
0000b0 5f 40 77 bc 73 b9 d1 3c d9 d9 61 3c d3 1e 20 3d
       -0.015091031 0.025601124 0.013784849 0.039091896
0000c0 d3 e8 25 3e 1e 43 85 3d c1 3b 63 3d 85 8f 51 3e
       0.16202097 0.06506942 0.055476908 0.20464905
0000d0 69 45 18 3d 96 0e da 3c 12 59 8f bc 53 ca 06 3d
       0.03717557 0.026618283 -0.017498527 0.032907795
0000e0 d2 be 21 be f6 e9 92 3e bc eb cd 3d d7 81 8e bd
       -0.15795448 0.28694123 0.100547284 -0.06958359
0000f0 fd e9 1a 3d ed 80 96 3e e6 fa 79 be e5 49 a5 bd
       0.037820805 0.29395238 -0.24412116 -0.08070735
000100 07 6d d2 bc e6 64 85 3c 5d d7 83 bd cb f9 a5 3a
       -0.025686754 0.016283464 -0.06437562 0.0012662945
000110 12 73 60 bd 42 47 91 3d 6c 0a 3c 3e 50 d4 38 3e
       -0.05479724 0.070936695 0.1836335 0.18049741
000120 0a 19 b9 bd e7 58 0e be e5 d8 57 3d 66 09 68 bc
       -0.09037979 -0.13901101 0.05269708 -0.014162397
000130 4f 38 14 3d 49 33 7c be 6c dc d4 bc fa bd 09 3e
       0.036186513 -0.24628939 -0.025984012 0.13451377
000140 64 2b 71 3d 78 55 43 3d 42 d8 2e 3d 18 91 d8 3b
       0.05887927 0.04768893 0.04268671 0.0066090934
000150 3d 86 f9 bd df 45 8c bd 44 8b c0 bd 0e eb 95 3e
       -0.12183807 -0.06849264 -0.09401563 0.29280895
000160 35 2f 2e 3e ed 85 83 3d ef 7d 1c be 85 60 27 3e
       0.17010196 0.06422029 -0.15282415 0.16345413
000170 d4 f7 8c 3d 09 2c be 3d 47 92 d1 bd 02 0c cd 3c
       0.06883207 0.09285743 -0.10232978 0.02503014
000180 9d d0 3b 3e 67 b5 10 3e 95 cd 22 3e f7 a6 2d bd
       0.18341298 0.141317 0.15898736 -0.04239556
000190 bf 33 11 3e 76 87 24 be 2d 9c ca 3c e0 67 fc bd
       0.14179896 -0.16067299 0.024732674 -0.123245
0001a0 53 91 9a bd d0 76 44 bd 90 89 56 3d 31 57 76 3e
       -0.0754725 -0.04796487 0.052377284 0.24056698
0001b0 bd b6 ef 3d 11 6e b5 bc 53 b1 26 3e 54 1c ae bd
       0.117047764 -0.02214721 0.16278581 -0.08501497
0001c0 d1 bf 28 3e 68 76 d2 3c c1 05 23 bd ef 5c d3 3c
       0.16479422 0.025691226 -0.03980041 0.02580115
0001d0 54 18 0c be 7a 14 ac 3d c0 c9 cd 3d 64 c6 1e 3e
       -0.13681155 0.08402343 0.100482464 0.15505368
0001e0 15 c0 93 bd 1c d3 98 3d f8 6c 5e 3e 0a e9 aa bd
       -0.07214371 0.07462141 0.21721256 -0.0834523
0001f0 22 cd 32 3e 92 e9 10 be 6d 75 5a 3d c3 32 87 3d
       0.17461064 -0.141516 0.053334642 0.06601479
000200 d7 6b 17 3d cd eb 03 3e d5 47 e8 bd 3a e6 90 3d
       0.03696808 0.1288292 -0.11341826 0.07075162
000210 4b 60 53 3d 1f 0f 02 be 2c 74 69 bd eb 3d 21 be
       0.051605504 -0.1270108 -0.056995556 -0.15746276
000220 94 23 0d 3e 09 a4 f9 3d 25 e1 85 3d 76 cc 7a bd
       0.13783103 0.1218949 0.065370835 -0.061230145
000230 20 5a 2a bd 4c b1 71 bd 92 0b c3 3d 0c 06 47 3e
       -0.041589856 -0.059006974 0.09523691 0.194359
000240 64 b3 99 3c 65 29 06 be 38 20 19 be fc de 9d 3c
       0.018762298 -0.13101728 -0.14953697 0.019271366
000250 90 b1 17 be fa e6 14 be 12 f6 11 be a0 16 98 bd
       -0.14813828 -0.14541236 -0.14254025 -0.074261904
000260 83 de aa 3c c4 22 ea 3d 93 b4 31 3d 80 d0 22 3e
       0.020858055 0.11432412 0.0433851 0.15899849
000270 3e aa ea bd c7 da 9b 3d 6e 7d 1e be 65 ea c5 3d
       -0.11458252 0.07610088 -0.15477535 0.09663848
000280 d1 ad 76 3d 15 db 75 3e e9 e8 46 bd 52 a9 5c 3e
       0.060224358 0.24009354 -0.048561964 0.21548966
000290 39 04 2d 3e e1 2b 25 3e ca b4 4a 3d f4 8e 81 3e
       0.16896142 0.1613002 0.04948882 0.25304377
0002a0 84 62 1e 3e 96 fb 07 3e 1a 9e c3 bc f2 80 1c be
       0.15467268 0.13279566 -0.0238791 -0.15283564
0002b0 6d 72 2c 3c 76 3b dd 3c 23 b8 17 be 0a 27 1b 3a
       0.010525328 0.027005892 -0.14816336 0.0005918598
0002c0 6b 59 9d bd f0 62 18 3d cd 6e 46 3e 28 a1 d5 3c
       -0.07683071 0.03720373 0.19378205 0.026077822
0002d0 de 6b 80 3d be f6 5a 3e 73 6b 0f 3e a5 e9 80 be
       0.06270574 0.21383187 0.14005832 -0.25178257
0002e0 1d 79 57 be b5 a4 01 3d 95 44 9b be 96 e7 ec bc
       -0.21042295 0.031651217 -0.3032576 -0.028919023
0002f0 ed b1 1c 3e 49 6e 6c be d9 d0 6b bc e7 26 57 be
       0.15302248 -0.23088945 -0.014393055 -0.21010934
000300 94 95 bd 3d fc 39 8b 3e ce 56 b5 bd 0b e7 0e ba
       0.092570454 0.27192676 -0.08854447 -0.0005451298
000310 80 7a 04 3e b8 49 78 bd 01 39 84 3e ed 92 08 3d
       0.12937355 -0.06061718 0.2582474 0.033343244
000320 ec f0 6d bd ab ee b1 3b e9 c2 92 3d e8 c2 38 bd
       -0.05809109 0.0054300628 0.071660824 -0.045107752
000330 b3 21 03 be eb c3 c9 3a 53 69 35 3c 3d 1b c3 3d
       -0.12805824 0.0015393471 0.0110724745 0.0952668
000340 af 8c 29 3d 51 fd 24 3e bd e5 64 bd 52 37 ca 3d
       0.041393932 0.16112258 -0.055883158 0.09873833
000350 8f ec 6a 3e f3 9b 82 bd de 5b c1 3d 0e ed 65 bd
       0.22941802 -0.06377401 0.094413504 -0.056134276
000360 88 fe 13 3e 5d 5a 31 bd 8e c2 20 3d de ec 31 3d
       0.14452565 -0.043299068 0.03924804 0.043438785
000370 75 7f 1b be fe 8f 1a be 87 1d bf 3d 35 50 12 bd
       -0.1518534 -0.15093991 0.09331804 -0.035721023
000380 e3 10 1a 3e 4e 82 36 be c7 24 c4 bd ad 93 2f be
       0.15045504 -0.17823145 -0.09577327 -0.17146178
000390 ce 24 cc 3d e3 fd fd 3c fc 60 11 bd 1a 72 78 bd
       0.099679574 0.031004852 -0.035492882 -0.06065569
0003a0 6e 02 63 be cf e8 39 3d 66 3f 0b 3d 6f f7 08 be
       -0.22168896 0.04538804 0.03399601 -0.13375638
0003b0 1b 6a 2f 3d af e2 9e bd f6 f1 5d be 8b 0f 09 3e
       0.0428258 -0.0775808 -0.21674332 0.13384835
0003c0 ae f4 06 3e 80 5b 13 bd a5 cd 31 be 93 7d 67 3c
       0.13179275 -0.035975933 -0.17363603 0.01412906
0003d0 b2 aa 44 3e 46 fa 58 3e c7 60 03 be 9e 6d b0 bd
       0.1920574 0.21189222 -0.12829886 -0.08614658
0003e0 df e5 38 3e 28 35 06 3e 42 98 fd 3c e6 4a 0b bd
       0.18056439 0.13106215 0.030956391 -0.034006976
0003f0 ff b0 90 3e 0a 12 44 be d2 ff 2f be a2 02 57 3d
       0.28260037 -0.19147506 -0.17187431 0.052492745

first_part.0.bias f4 [56]
000000 03 42 52 3e 42 f9 b7 3c e0 8b f4 bd 55 dd cf 3d
       0.20532994 0.022457723 -0.119407415 0.101496376
000010 38 c4 1b be a7 68 9b bc ac aa 04 3e 96 01 25 3e
       -0.1521157 -0.0189708 0.12955731 0.16113886
000020 e0 c4 e4 bd a9 02 6e bd b5 c8 48 bd b7 a1 03 be
       -0.111703634 -0.058108006 -0.049019534 -0.12854658
000030 a0 f3 bd 3d c5 c7 2c 3d a8 2a 20 3d 90 93 0a 3e
       0.092749834 0.042182703 0.03910318 0.13532853
000040 a2 25 34 bd 9b c4 ac 3d ff 36 47 3d 71 77 e6 bd
       -0.043981202 0.08435937 0.048636433 -0.112532504
000050 f0 0c 8a bd 76 98 d8 bd 13 8f ee 3d 47 18 07 be
       -0.06740749 -0.105759546 0.11648383 -0.13192855
000060 d5 57 4a be 35 a8 01 bd 96 94 be bd 0c 93 45 bd
       -0.19760068 -0.031654555 -0.09305684 -0.048235938
000070 07 fb 2b be f7 71 55 3e 93 ee 42 3e a3 f8 86 bd
       -0.16794978 0.20844255 0.19036321 -0.065903924
000080 5e 65 0a be c5 cc ca 3b ab 7f 13 be 06 63 1a bc
       -0.13515231 0.006188961 -0.1440417 -0.009423023
000090 56 df ac bd 0d b5 72 bd ff e3 43 3e cd 89 34 3e
       -0.084410354 -0.059254695 0.19129942 0.17630692
0000a0 25 45 29 be ed ab 1e be 4d 32 90 bd d6 4f ef 3d
       -0.16530283 -0.15495272 -0.07040844 0.11685149
0000b0 a9 bd fc bd 69 22 2a 3e 89 a1 92 b9 54 6c ac 3d
       -0.12340862 0.16614689 -0.00027967643 0.084190995
0000c0 8d 25 d6 3d a5 3b 06 3e eb ef cd 3d aa 57 45 3e
       0.10456381 0.1310869 0.10055526 0.19271722
0000d0 11 01 29 bd 65 aa cb bd ae 9c a1 3d b1 ba 2b 3e
       -0.041260783 -0.099446096 0.078912124 0.16770436

mid_part.0.0.weight f4 [12, 56, 1, 1]
000000 90 1e 4e 3c 0b b0 0a 3e 95 af 30 3e 1a c0 ec 3c
       0.012580529 0.13543718 0.17254479 0.028900195
000010 eb 36 c1 3d f4 66 11 be ce 15 6f 3d 1d 13 05 be
       0.09434303 -0.1419943 0.058370404 -0.12995572
000020 db bf 12 bd d5 60 e8 bc e9 0e 4f 3d c3 fe 03 3d
       -0.0358275 -0.028366486 0.05055133 0.03222538
000030 f6 ab b9 bb 7c 88 f0 3d bc 31 fd 3d 1a 0b 47 3d
       -0.0056662513 0.11744782 0.12363002 0.04859457
000040 c8 b7 64 bd 8e 9d b5 3d a8 87 5f 3d bc 75 42 bd
       -0.05583933 0.08867942 0.05457273 -0.04747556
000050 52 36 f8 bb a3 3c 17 be af ce e6 bd dd 56 b0 3d
       -0.007574835 -0.14769225 -0.112698905 0.08610318
000060 3e ec c2 3d 53 58 f5 3d c6 cf e8 bd ad 09 03 3e
       0.09517716 0.11979737 -0.11367755 0.1279666
000070 95 a5 39 bd c2 9e eb 3c b3 64 4e 3e 1f 32 77 bd
       -0.045323927 0.028762225 0.20155601 -0.060350534
000080 84 a8 25 3d 2b fe 17 3d 11 f9 a1 3c 27 fe a2 3c
       0.040443912 0.037107628 0.019772084 0.01989658
000090 eb 99 f9 3d d1 0b f3 bd f1 76 5f 3c cc df 1a be
       0.12187561 -0.11867488 0.013639198 -0.15124434
0000a0 14 0c 9f bd 64 0a 0d bd 6b 0c 57 bd a7 3c b5 bd
       -0.077659756 -0.034433737 -0.052502077 -0.08849459
0000b0 df e2 a2 be 0e 18 83 3d 2b 51 23 3e 4a b5 0c 3b
       -0.31813714 0.064010724 0.15948932 0.0021470361
0000c0 3d 17 10 3e 7e f8 d9 3d c9 51 17 bd 9f fd 00 3e
       0.14071365 0.10643099 -0.03694323 0.12596749
0000d0 ab 51 1d be 5b 9a 4c be d2 08 7e bd 00 cd 50 bc
       -0.15363185 -0.19980757 -0.06202013 -0.012744188
0000e0 dd b6 85 bd 62 37 ee 3d 28 ef 41 3c 2c 79 03 be
       -0.06529019 0.11631657 0.011836804 -0.12839192
0000f0 31 a0 3f 3e 23 80 98 bd 1a 41 dc 3d d4 84 34 3e
       0.18713452 -0.07446315 0.10754605 0.17628795
000100 3f b5 45 be c3 89 02 be 27 53 91 3e 2a 75 42 3d
       -0.19307421 -0.12747864 0.28383753 0.047475018
000110 12 d7 4c 3e e8 5c 1a 3e 2d 21 ea 3d 7e b2 09 3d
       0.20003918 0.15074503 0.11432109 0.03361749
000120 f8 79 8a 3b 17 cd 31 3e a0 8d ed bc cb 17 2f be
       0.0042259656 0.17363392 -0.028998196 -0.1709892
000130 d1 5a 13 bd 14 90 00 3c 21 ef 18 3c 9d 3b ba 3d
       -0.03597528 0.007846851 0.0093343565 0.090934016
000140 8a 14 83 3d b4 5f b6 bd 0a f1 60 3c fb cd f7 3c
       0.06400402 -0.08904973 0.013729343 0.030249586
000150 67 f0 d8 3d 17 96 2a bd 43 5d e7 bd c7 15 ed 3d
       0.10592728 -0.041647043 -0.11297085 0.11576419
000160 e2 db d4 3d 11 6e 6e 3d fa 7c dd bd 38 5a 72 be
       0.10393502 0.058210436 -0.10814853 -0.23667228
000170 42 10 58 3e db 4b fd bc bb 1d 0f be 98 6d d7 bd
       0.21099952 -0.03091996 -0.13976185 -0.1051895
000180 12 6f b2 3d c1 bf cc bd 7a 77 42 3e 22 97 29 be
       0.08712591 -0.09997512 0.18990889 -0.16561559
000190 09 3e 5b 3d 16 47 07 3e 1c e9 1c 3e 8a ed 1f 3d
       0.05352596 0.13210711 0.15323299 0.039044894
0001a0 78 c4 0b 3d 06 4d a1 bd dc 0b 80 bd 37 07 28 3e
       0.034122914 -0.07876019 -0.06252262 0.16409002
0001b0 bc 76 3b 3d 93 1d a0 3b e5 2f ca 3c 0a b2 b8 3c
       0.04576753 0.004886338 0.024681041 0.022545833
0001c0 74 a5 68 bd d7 b4 c0 3d d5 a1 18 3c 7d 29 f6 3c
       -0.056798413 0.094094925 0.0093159275 0.03004908
0001d0 f6 3f 64 3d bd 55 e7 3d de 7b 0a bd 7b 00 94 bc
       0.05572506 0.1129565 -0.033809535 -0.018066635
0001e0 dd 45 c7 3d e2 db 06 be 8f 73 50 3c df 45 02 be
       0.09730122 -0.13169816 0.012722864 -0.12721966
0001f0 10 a5 2b be 56 97 48 3b 93 42 10 3d 66 66 2c bc
       -0.16762185 0.0030607781 0.03521974 -0.010522461
000200 a0 0f da bc 0c df 85 bd bc 3a 0c bc 36 a2 45 bc
       -0.026618779 -0.065366834 -0.008558925 -0.0120626
000210 fe 7e 5b bd e0 2a 56 3d 1a bb 81 3d 46 b6 65 bc
       -0.053587906 0.052286983 0.06334515 -0.014020508
000220 b4 50 50 bc f0 5e 82 3c 43 d3 19 3e 0c 79 80 bd
       -0.012714554 0.01591441 0.15021996 -0.06273088
000230 a0 1c fa bd 9a fe 0f be d2 f5 c6 bc ac 23 d2 bd
       -0.12212491 -0.14061967 -0.024287138 -0.1026071
000240 00 71 f3 bd 6c 60 3e bd 58 61 2b bd 1d 11 1f bc
       -0.118867874 -0.046478674 -0.04184088 -0.00970867
000250 0a 36 29 bc 93 a5 9a 3d 42 87 11 3e 26 7f 78 3b
       -0.010327825 0.07551112 0.14211753 0.0037917583
000260 68 aa 13 be 80 14 14 3e 72 06 b7 3d dd b5 16 3e
       -0.14420474 0.14460945 0.08936776 0.14717813
000270 b2 63 ef 3d a8 50 b4 3d 32 c3 c7 bb ba 2f ac bd
       0.11688937 0.088044465 -0.006096267 -0.084075406
000280 10 85 3b be f2 68 a0 bd d7 28 01 3d 8c 6d e9 bd
       -0.18312478 -0.07832517 0.03153309 -0.113978475
000290 2a 26 c7 3c bf bb 8f 3d 33 0e 09 be 87 35 ee 3c
       0.02431019 0.070182316 -0.13384323 0.029078258
0002a0 4c dd 32 3e 62 0c ca 3d 76 62 aa 3d 80 40 83 bd
       0.1746723 0.09865643 0.08319561 -0.06408787
0002b0 9d cc cb bd cd 33 7a 3d e4 6a c5 bd 39 3a 2e 3e
       -0.09951136 0.061084557 -0.096395284 0.17014398
0002c0 b5 4a 38 bd 4f 8e 1c bd 98 ea cd bd 4b 6e 15 bd
       -0.04499312 -0.038221654 -0.10054511 -0.036482137
0002d0 ba cd b2 bd bf e1 2a bd 9a dc 1a be bf 39 12 3e
       -0.087306455 -0.041719195 -0.15123215 0.14279841
0002e0 54 1e a2 bd 88 a1 c1 3d 3a f8 8c bd 68 fc ce bd
       -0.07915941 0.09454638 -0.06883283 -0.101067364
0002f0 95 96 f5 bd 31 78 16 bd 79 82 f3 bd 39 f7 b2 bd
       -0.11991612 -0.036735717 -0.1189012 -0.0873856
000300 5f af fe 3c f8 1b 8c bd d9 5c d5 3d e7 b8 16 3e
       0.031089483 -0.06841272 0.104181 0.14718972
000310 d6 83 ce 3d 12 e0 20 3e 60 18 14 bc a7 1e 0a 3c
       0.100837395 0.15710476 -0.009039015 0.00843016
000320 7f c8 1f 3d ba 2e 1f 3e 4c f4 0a be c5 f0 3f bd
       0.039009567 0.15545169 -0.13569754 -0.046860475
000330 a8 66 9a 3d 7b 47 a9 3d 2c fd 0c be f2 fc e6 3d
       0.075391114 0.08265587 -0.13768452 0.11278714
000340 9b fd ee 3d d2 3c 4b 3d ad f9 41 bd 3a 81 b3 bd
       0.11669465 0.04961855 -0.04735725 -0.087648824
000350 fc 6f 07 bd b1 d6 1c 3e 05 1e b5 3d 94 94 b8 bd
       -0.03306578 0.15316273 0.088436164 -0.09012714
000360 ce d7 03 3e b5 7a 02 3d 73 26 b0 bd 49 ba 0b 3e
       0.12875292 0.031855304 -0.086010836 0.13645281
000370 1b 4d e6 3d 76 f9 bf 3b 3d 79 83 bd eb e2 db 3d
       0.112451755 0.0058585955 -0.06419609 0.107366405
000380 f9 72 86 bd f4 c2 ab bc da 14 2c bd 19 bc b9 bd
       -0.06564898 -0.020966984 -0.042012073 -0.0906908
000390 78 49 7a 3b b8 a6 e9 3d a1 e1 8b 3c 35 17 4d bd
       0.0038190763 0.11408752 0.017075362 -0.05007096
0003a0 69 48 28 3e a6 3f 4e bd b3 ac 21 be 4b 0f 28 bd
       0.16433872 -0.05035367 -0.15788536 -0.04103021
0003b0 97 ae ae bd bb a8 77 3d 16 59 01 3e 7a 24 05 bc
       -0.08529394 0.06046365 0.1263164 -0.0081263725
0003c0 14 8e 11 3e a4 6c de 3d b3 10 66 3d 50 13 c2 3d
       0.14214355 0.10860565 0.05616827 0.0947634
0003d0 52 44 c1 3d 45 4c 3e 3d e8 e6 13 3e f7 73 43 bd
       0.09436859 0.046459455 0.14443552 -0.047718015
0003e0 06 85 ea bd 24 33 1c be 76 01 ea 3d ba ba 21 be
       -0.114511535 -0.15253884 0.1142606 -0.15793887
0003f0 fe 8b 1b 3d 02 a0 39 bd 06 a0 11 be 20 27 d4 bc
       0.037975304 -0.04531861 -0.142212 -0.025897563

mid_part.0.0.bias f4 [12]
000000 66 06 f4 bd ef 02 07 3d 04 ca b0 bc bd d3 e4 3c
       -0.11915283 0.032961782 -0.021580704 0.027932996
000010 7c a4 d5 3d 99 d0 ed bc b1 cb 0f bc 07 1e bd bd
       0.104317635 -0.029030131 -0.008776591 -0.09234243
000020 d1 83 63 3d 51 26 84 bc b0 dd 1e bd 7f 34 4d 3c
       0.05554563 -0.016131552 -0.038785636 0.012524723

mid_part.1.weight f4 [12, 12, 3, 3]
000000 77 d1 04 bc 6e ee 5c 3d 2c f5 99 3d 66 4b 54 3d
       -0.008106581 0.05393832 0.07517466 0.051829718
000010 d0 1d 03 3e 6d 84 50 bd 36 28 fe bd f2 89 bc 3d
       0.12804341 -0.05090754 -0.124100134 0.092059985
000020 88 d3 95 3d 70 22 0d 3d e8 42 8b bd 9e 2e c9 bc
       0.07315737 0.03445667 -0.06799871 -0.024558362
000030 24 30 a4 3d ad c2 f5 bc da 25 ee bc 51 25 dc bb
       0.080169946 -0.030000055 -0.029070783 -0.0067183156
000040 72 f9 83 3d bd 1e 2b bd 87 53 2c bd b5 ce 52 bd
       0.06444062 -0.04177736 -0.042071845 -0.051466662
000050 7e 80 27 bd 0b 05 05 bd e3 18 78 bd b8 ba 83 3c
       -0.040894024 -0.032475512 -0.06057061 0.016080245
000060 63 e4 ab bd 9d ee 70 bd 61 4f d5 bd 8e 62 af bd
       -0.08393171 -0.05882131 -0.10415531 -0.0856372
000070 ee b8 a0 3d 47 66 d0 3c 78 57 b4 bc 47 05 aa 3d
       0.078477725 0.025439395 -0.022014365 0.08301788
000080 88 8a a8 3d 56 ec c4 3d b7 ce cd 3d e4 2a b0 bd
       0.08229548 0.0961539 0.10049193 -0.08601931
000090 5d af 77 3c 0b e6 06 be a2 15 4b 3d 1c 17 33 3d
       0.015117493 -0.13173692 0.049581178 0.04372321
0000a0 30 e9 0e be a5 cb f7 bc a8 85 ec 3c b7 71 be bc
       -0.13956141 -0.030248472 0.028872326 -0.023247583
0000b0 3b d8 bd bd 5b 64 df 3d ce aa c6 bc 9c f6 14 3d
       -0.09269758 0.10907813 -0.024251368 0.036367998
0000c0 c3 3e ab 3d 32 6d b8 bd 97 c2 33 bd d9 4e e3 bc
       0.0836158 -0.09005202 -0.043886747 -0.027747558
0000d0 16 f3 d5 3d 30 29 33 bd f9 09 ac bd cb 1b a2 bd
       0.104467556 -0.04374045 -0.0840034 -0.07915457
0000e0 1d fa 7e bc 16 7b 86 3d 31 54 8e bd 95 df ac bd
       -0.015562561 0.065664455 -0.06949652 -0.084410824
0000f0 5d d4 dc bd 7a 8b a0 3d 6f fb 5a 3d 4b e8 3a 3d
       -0.107826926 0.07839103 0.053462442 0.045631688
000100 67 75 d6 3d e6 93 2b 3d 58 e6 c1 3d b5 60 d0 3c
       0.104716115 0.041889094 0.09467763 0.025436739
000110 4c 05 34 3d 22 f2 4b bd 14 6b f9 bb a9 50 59 3c
       0.043950364 -0.049791463 -0.0076116417 0.01326386
000120 69 0b 57 bd 52 cc 0e bd 09 b5 08 bd 62 87 7e 3d
       -0.052501116 -0.034862824 -0.033375774 0.06214083
000130 eb de 95 3d d2 53 85 bc 8c eb c8 bb b2 6a 4a bd
       0.07317909 -0.01627532 -0.006131595 -0.04941816
000140 e4 e6 62 3d 23 ca 29 bd ca 55 1e bd 47 76 88 3d
       0.055395976 -0.04145254 -0.038656034 0.066631846
000150 82 f6 5b bd 7b 00 a9 bb df 88 5f 3d be 77 a1 bc
       -0.053701885 -0.005157528 0.05457389 -0.019710418
000160 6f f2 bb bc fd 1d a2 3d d5 58 c6 bc b7 c3 86 3d
       -0.02294275 0.07915876 -0.02421228 0.065802984
000170 da c1 f9 bc f1 ac a9 bd cb 96 00 3d bd 69 b7 bd
       -0.030487943 -0.08284939 0.031393807 -0.08955715
000180 1f 89 aa bd 1a 87 d8 3c ff db 8f bd 38 17 a8 3c
       -0.08326935 0.026431609 -0.07024383 0.020518884
000190 eb a5 d7 bd ce 7e a0 3d 2c f0 9a bb 93 1d c2 3c
       -0.10529693 0.07836686 -0.0047283377 0.023695743
0001a0 a5 61 fe bd e9 9b 97 3c a8 0c 27 bd 3e 12 df 3c
       -0.12420968 0.018506961 -0.040783554 0.027230378
0001b0 49 03 a7 3a fb 8b d8 3d c2 72 0f 3e 6c 60 81 3d
       0.0012742068 0.10573574 0.1400862 0.06317219
0001c0 dd 19 62 bd 7b ed e9 3d 42 cb 71 bd 94 01 95 3d
       -0.055200446 0.11422249 -0.059031732 0.07275692
0001d0 88 73 cc 3d ea 01 f1 3c c7 9b d3 b8 79 61 8d 3d
       0.09982973 0.029419858 -0.0001009028 0.06903357
0001e0 cb 52 8a bd 9a 54 06 3d d4 46 b2 3c eb df 3c 3c
       -0.06754073 0.032795526 0.02176229 0.011527996
0001f0 fd c2 1f 3d f2 1f 11 3b 2b 53 9c 3d 59 fa 9c ba
       0.039004315 0.0022144285 0.076330505 -0.0011976465
000200 24 a2 06 3d 90 ef cf 3d ed 12 5b 3d 8c 00 bf 3b
       0.032869473 0.10153115 0.053484846 0.0058289226
000210 6d 04 55 bc e6 0d 92 bd 0e 08 a0 bd e0 8e 0c 3d
       -0.0130015435 -0.07131557 -0.07814036 0.034315944
000220 0f 69 8f 3c 03 12 09 3d d0 64 d9 bd ab 4c 5e 3d
       0.01750615 0.033464443 -0.106149316 0.054272335
000230 f6 e0 27 bc 6e 55 90 3d ed 72 ea 3b 57 02 84 3d
       -0.010246506 0.070475444 0.0071548135 0.06445759
000240 89 9d 5a 3d 8c de 41 bd b9 76 1f 3c 20 b9 ea bc
       0.053372893 -0.047331378 0.0097328955 -0.028652728
000250 a2 85 dd 3d 89 39 74 bc ae 73 94 bd 83 53 7e bd
       0.10816504 -0.014906296 -0.07248627 -0.06209136
000260 44 6a cf bc 29 89 12 3d e3 58 56 3d e6 7a c0 3d
       -0.025319226 0.035775337 0.052330863 0.09398441
000270 73 7c b8 3d 3a ac 0a 3d 7e 19 86 3c 1f 9a b1 bc
       0.09008112 0.033855654 0.016369577 -0.021679936
000280 d8 28 00 3d 8a 9f 85 3d ef 64 2e 3c f3 54 8f 3c
       0.03128895 0.0652457 0.010644182 0.017496562
000290 d3 fe 14 bd ee 91 b7 3d ca 47 c0 3d 8c 23 03 3e
       -0.03637583 0.08963381 0.09388693 0.12806529
0002a0 40 e1 91 3d d2 77 1b bd 86 e8 1e bb d5 6b 25 bd
       0.07123041 -0.037956066 -0.0024247481 -0.04038604
0002b0 22 7b 54 bd d3 44 da 3d 48 32 14 bc ed 7d b4 bd
       -0.05187524 0.106576584 -0.009045191 -0.08813081
0002c0 59 43 b9 bc 61 eb 66 3d 68 63 f5 bb 4b a6 9a 3d
       -0.022615122 0.05637682 -0.007488657 0.07551249
0002d0 4f 16 11 3d 2a 9c d7 bd b2 38 26 bd d2 b6 a3 3b
       0.035421666 -0.10527833 -0.040581413 0.004996159
0002e0 cb 90 26 bd 97 01 45 3d af 08 51 3d ce d7 52 bd
       -0.04066543 0.04809722 0.051033672 -0.05147534
0002f0 d4 a3 87 3c 11 60 6a bd 57 41 a2 bd a5 b0 98 bd
       0.016557612 -0.057220522 -0.07922619 -0.07455567
000300 e4 28 a9 bb 4a ee c2 3c e2 af 87 bc 56 6d 05 bc
       -0.0051623452 0.023795266 -0.01656336 -0.0081437435
000310 fa 46 b5 3d 4c ea e5 3d b8 70 3d bc e4 1e b1 bc
       0.08851428 0.11226329 -0.011562519 -0.021621175
000320 83 1d 91 3d bd ff 88 3a 11 75 e4 3d b6 00 64 3d
       0.07085707 0.0010452193 0.11155141 0.05566474
000330 d9 67 0a 3d da 11 46 ba 8e 78 f2 3c 06 62 70 3b
       0.033790443 -0.00075557607 0.0295985 0.003667952
000340 58 d0 c1 3d f4 2a 5a 39 ab 88 b0 3d 77 5a 31 bd
       0.094635665 0.00020806101 0.08619817 -0.043299165
000350 dd c1 7e 3d a9 b3 2f 3d a2 2d 74 bd 11 00 04 3d
       0.0621966 0.042895947 -0.05961383 0.032226626
000360 ef 6b 44 be 41 a1 82 bd a1 38 a5 be a1 4a b2 bc
       -0.19181798 -0.06378413 -0.32269767 -0.021764101
000370 9a cc 59 bd 0a b7 9d be d3 ba 1b bd 82 86 8f 3d
       -0.05317364 -0.3080371 -0.038019966 0.07008077
000380 c0 95 36 bd b9 9e 5e 3e 9a be 63 3e 3f f6 4e be
       -0.044576406 0.21740235 0.22240677 -0.20211123
000390 24 06 8d 3e aa 11 60 be d3 58 01 bf cc f3 9f bd
       0.27543747 -0.21881738 -0.5052616 -0.078101724
0003a0 fb a0 e5 3b 08 5b 82 be e1 8b 07 3e 07 66 9a bd
       0.0070077158 -0.25460076 0.13236953 -0.075389914
0003b0 a9 49 2d 3d 41 b6 1b be 1b 44 0f 3e 6e 17 bb 3d
       0.042306576 -0.15206243 0.13990824 0.09135328
0003c0 11 55 38 bd cd a7 13 bd 50 8b cb 3d 60 be 88 3e
       -0.045003 -0.0360487 0.09938681 0.26707745
0003d0 55 80 00 3d 10 d8 1f 3d a9 00 4b be 7c 7c 92 be
       0.031372387 0.039024413 -0.1982447 -0.286106
0003e0 01 38 91 bd 06 c0 be 3c 4f 1a 01 3e 61 7e 82 3e
       -0.0709076 0.023284923 0.12607692 0.25487044
0003f0 b4 e0 17 3d d6 3b e5 3d ce 3c fe 3d 07 9a fa bd
       0.037079528 0.111930534 0.12413941 -0.1223641

mid_part.1.bias f4 [12]
000000 4e 96 6b bc 54 cd 6a 3d 46 a0 c6 3a 84 44 a3 3b
       -0.014379097 0.057324722 0.0015153966 0.004982533
000010 49 b8 e5 3b f9 ca bf bd 3f 43 c9 bc d2 68 0b bd
       0.007010494 -0.09364886 -0.024568198 -0.03403551
000020 aa 11 9f 3c f9 36 2c 39 95 69 56 bd 55 84 8e bd
       0.019417603 0.00016423677 -0.052346785 -0.06958834

mid_part.2.weight f4 [12, 12, 3, 3]
000000 3f 8c 2f 3d 57 e8 89 3b 0c d2 95 3d 8b 7e e0 bd
       0.04285836 0.0042086053 0.07315454 -0.10961636
000010 bc 7b 8e bd f8 9c 99 3d 03 38 07 bd 20 a5 97 bd
       -0.06957194 0.075006425 -0.0330124 -0.07404542
000020 f2 cc 24 bd 88 24 bf bd 24 ec a5 bd aa 1a e4 3b
       -0.040234514 -0.0933314 -0.08101681 0.0069611864
000030 b2 d3 a7 bd ec 47 b2 3d 73 ad 8a 3d 23 38 8d 3c
       -0.081946746 0.08705124 0.06771364 0.017238682
000040 09 3a ed bc 70 74 12 3d 92 3a 30 bd d1 0e de bd
       -0.028958337 0.035755575 -0.043024607 -0.1084267
000050 b8 c1 21 be 18 bc 35 3e b0 d5 82 bd 95 3a 84 be
       -0.15796554 0.17747533 -0.06388414 -0.25825945
000060 bd 02 0d bd d2 6c 54 3d 40 d9 7d bd ee e4 bd bc
       -0.03442644 0.05186159 -0.061974764 -0.023180451
000070 94 d6 9c 3c 57 49 0c be 42 fa c0 3d 27 5e 9a 3d
       0.019145288 -0.13699852 0.09422733 0.075374894
000080 b8 a9 17 bd 31 59 2c be ea b7 b8 3a 1b 2f 85 bd
       -0.03702709 -0.16830899 0.0014092897 -0.06503125
000090 f5 20 b9 3d 8c 36 ea bb 4b 7a a1 3c 31 96 73 bd
       0.09039489 -0.007147616 0.019711634 -0.059469406
0000a0 70 a3 46 bd 17 42 2d 3d be d1 f9 bc 2b 21 42 3d
       -0.04849571 0.042299356 -0.03049552 0.047394913
0000b0 4d 95 ba 3d ba 57 0e bc 00 36 93 3c 52 0d d2 3d
       0.09110508 -0.008687908 0.017970085 0.10256447
0000c0 6b a8 36 3c 36 bc 5d 3d 66 a1 74 bd 5b c5 19 3d
       0.011148552 0.05413457 -0.059724234 0.03754173
0000d0 55 d9 5d bd 8e 95 f3 3d dc d0 54 3c 4b 33 5d 3d
       -0.054162342 0.1189376 0.012989249 0.054003995
0000e0 35 1b 0c 3e 84 0a f8 bd 16 d9 16 be cb 0a 34 3e
       0.13682254 -0.12111381 -0.14731249 0.17582242
0000f0 a8 02 41 3d 29 9d 87 3d 2f 80 63 3e bd b9 8a bc
       0.047121674 0.06621773 0.22216867 -0.01693427
000100 91 3f fd 3d ae 64 8d 3b 0d 8f a5 bd 44 e1 a3 bd
       0.1236564 0.0043149805 -0.080839254 -0.080019504
000110 ed 85 62 bc ac 66 ea 3d 49 7d 9b 3e b1 ca 23 be
       -0.013825876 0.11445364 0.30369022 -0.1599529
000120 db c3 56 3d 43 36 d8 3c 49 15 dd bd 32 bf b0 3a
       0.052432876 0.026393062 -0.107950754 0.0013484715
000130 71 9b cc 3d cd 8d c0 bc 70 0d 95 bd ec 83 06 bd
       0.099905856 -0.023505116 -0.072779536 -0.032840654
000140 66 33 98 3d bf 8e b7 bd bf 1c b6 bd 99 2f 5c 3d
       0.074316785 -0.089627735 -0.08892202 0.05375633
000150 6a 45 b5 bd d8 89 be 3a c3 62 ba bd 9a 24 6a bd
       -0.0885113 0.001453693 -0.091008686 -0.057163812
000160 86 7f c7 bd 45 4a c5 bd fa b1 d7 3d f1 50 d1 3d
       -0.0974112 -0.096333064 0.10531993 0.102205165
000170 f9 0c d6 bc b0 26 53 bd c2 e3 a9 bd 48 cd 93 3c
       -0.026129233 -0.051550567 -0.082953945 0.018042222
000180 e6 aa 76 3d ae 62 c9 bc 34 4f 8e 3d 7b 11 13 3e
       0.060221575 -0.024583187 0.069487005 0.14362137
000190 47 8e 7a 3d 12 5e ea 3b 81 42 14 3e bf c1 cd bc
       0.061170842 0.0071523273 0.14478494 -0.0251168
0001a0 4d 3c a4 bd 1d 94 2c bd 65 4f 05 bd be 39 0f 3c
       -0.08019314 -0.04213344 -0.03254642 0.008741794
0001b0 73 1e c7 3d 61 c5 7f bc 39 9a 21 3d 9b 1e 32 bd
       0.097226046 -0.015611024 0.03945372 -0.04348622
0001c0 63 bf 72 3c 50 f7 b8 bd 37 ef 1f ba c3 03 5d bd
       0.014816138 -0.09031546 -0.00061010144 -0.053958666
0001d0 42 60 e5 3b 77 b7 50 3c 8d 38 32 bd 3d e1 c7 3c
       0.007 0.012739054 -0.043510962 0.024399394
0001e0 f0 c0 eb 3a 58 88 4c bd 42 54 51 3c 68 e0 1f bd
       0.0017986577 -0.049934715 0.012776436 -0.03903237
0001f0 7b 72 0a 3d 93 38 fd 3c 0c 2a c5 bd de 4f 98 3b
       0.033800583 0.030910766 -0.096271604 0.004648193
000200 b6 1a 08 be 4b 0b bd 3d fe 2e 0d 3e 3b bd 2d bc
       -0.1329144 0.092306696 0.13787457 -0.010604198
000210 95 f1 17 ba dd 73 74 bc 2f 8d 2a be 7d 3e 93 bd
       -0.00057961914 -0.014920202 -0.1665542 -0.07189653
000220 63 c9 a9 3d fa 5f b4 bc e5 d8 bc bd e5 51 b1 3d
       0.082903646 -0.022018421 -0.09221057 0.08658198
000230 9d fa 9b 3d 00 01 b0 bc cd 3b 9d bd f1 2e c9 bc
       0.0761616 -0.021484852 -0.07677422 -0.024558516
000240 d0 2a d8 3d ea b1 6f 3d 97 d3 9b bc 09 12 8f 3c
       0.10555041 0.05851928 -0.019021792 0.017464655
000250 bd 4b 1f bd 55 6f 39 3c e3 9f 20 bc 46 0c a0 bb
       -0.03889059 0.0113180475 -0.009803745 -0.0048842756
000260 98 fe 96 bd 48 8a 6d 3d 27 df 98 3d 9f e3 ec 3c
       -0.07372779 0.057993203 0.07464438 0.028917132
000270 bf ff 96 3d f6 5a 54 bd e7 3b 05 bd 94 2c ee bd
       0.073729984 -0.05184456 -0.03252783 -0.11629596
000280 3a b2 09 3d cd 17 29 bc bf 9b 90 3b 73 e9 f0 ba
       0.033617236 -0.010320616 0.0044130976 -0.001838012
000290 5a e3 1c 3e 68 62 07 3d 2c 3d c1 bd 16 36 9e 3d
       0.15321103 0.033052832 -0.09435496 0.0772516
0002a0 d1 fc 0c 3e d2 f6 59 3d 87 84 d1 3d 5a 08 b7 3d
       0.13768317 0.0532139 0.10230356 0.0893714
0002b0 07 0c b5 3d b9 6e 78 3d 7f d1 d5 3c 65 2e c5 bc
       0.08840185 0.06065247 0.026100872 -0.024069974
0002c0 0a a4 f9 bd 5d 8f c2 3c f8 8d 26 3d 2a b1 09 3d
       -0.12189491 0.023750002 0.040662736 0.033616222
0002d0 30 a2 07 3d 26 10 4d 3d a3 d4 09 bd 85 e0 aa 3d
       0.03311366 0.05006423 -0.03365005 0.08343605
0002e0 7c f8 76 3b 84 d7 25 3d 50 b7 4f 3d ca de 61 3d
       0.003768473 0.040488735 0.05071193 0.05514411
0002f0 91 08 27 3c 0c 24 f4 bc a9 ba c4 3c fa 5c 59 bd
       0.0101949135 -0.029802345 0.024014788 -0.053067185
000300 04 0c dc bc 50 52 54 3d 4b 46 a7 3d 73 05 d6 bc
       -0.026861198 0.05183631 0.08167704 -0.026125645
000310 98 f8 b2 bd 2c a3 bc 3d 90 8b 68 3d 94 83 81 bd
       -0.08738822 0.0921081 0.056773722 -0.06323925
000320 ed 0d f3 bc 17 f0 06 bc 2b b1 95 bc eb 5b 3f 3b
       -0.029669726 -0.008235953 -0.018272957 0.0029199074
000330 d2 a9 70 bd a8 82 69 3c 73 4b 62 bd 81 ce fe bd
       -0.058755703 0.014252342 -0.055247735 -0.12441731
000340 62 d9 6e bd d1 21 4c 3c c9 48 1b bd c3 c7 4f 3c
       -0.05831278 0.012459234 -0.03791121 0.012681904
000350 04 fc fc 3c 7c 5b 3c bc 3a 0b 30 3d 61 e6 61 3d
       0.03088189 -0.011496421 0.042979456 0.055151347
000360 a5 94 96 3d c8 c1 f5 bc 78 66 d1 bc ae 0e 72 ba
       0.073525704 -0.029999629 -0.025561556 -0.0009233755
000370 c6 48 0f bd d6 21 4e b9 9e fe 75 3d 2c 6d d8 3c
       -0.03498151 -0.00019658296 0.060057275 0.026419245
000380 dc 45 77 3c b3 f3 bd 3b a1 88 e2 3c 33 3d 34 3b
       0.015092339 0.0057968735 0.02765304 0.0027502298
000390 37 c5 db bd 7a 0b 38 3d 47 f4 c0 bd c6 c5 6e bd
       -0.10730975 0.04493282 -0.09421592 -0.05829408
0003a0 4b d1 18 bd 14 18 b4 bc 2e 36 30 be 49 55 4d bd
       -0.037308972 -0.021984138 -0.17208168 -0.050130162
0003b0 dc d7 9e 3b 4e ff 6b bc 2f b9 db 3c 66 9a ea 3d
       0.00484751 -0.014404131 0.0268217 0.114552304
0003c0 b8 56 bf bc 84 d7 79 3d 58 05 ad bc 2c 51 51 bd
       -0.02335678 0.060996547 -0.021120712 -0.051102802
0003d0 70 da d9 3b 51 0d 4f 3d 9c c3 98 bb cd 6b 81 3d
       0.006648354 0.05054981 -0.0046619903 0.063193895
0003e0 26 92 66 3c f8 48 bd 3d 1e 41 67 bd ab c8 0c 3d
       0.01407293 0.09242433 -0.056458585 0.03437106
0003f0 58 4e c5 3a 19 e6 c3 3d 8e 11 07 bd 66 c3 3e bd
       0.0015053255 0.09565372 -0.032975726 -0.046573065

mid_part.2.bias f4 [12]
000000 42 da dd 3d e3 e6 09 3e 86 b9 de 3c 26 0c fd bd
       0.10832645 0.13466983 0.027188074 -0.12355833
000010 93 0a 05 be cd 2c cb bd 37 09 69 bd b0 08 9d bb
       -0.12992315 -0.099206544 -0.056893554 -0.0047922954
000020 a8 7f 7d 3d 16 4f 09 3c 14 11 a6 3d a3 bc b9 bd
       0.06188932 0.008380672 0.08108726 -0.09069183

mid_part.3.weight f4 [12, 12, 3, 3]
000000 54 b5 1d 3e ef ba 94 3d 3b ad df 3a 05 1a 4a 3d
       0.15401202 0.07262217 0.0017065177 0.04934122
000010 8b 07 93 3d 71 81 76 bd 83 0d e8 3d e2 dd 92 bd
       0.07179173 -0.06018204 0.11330702 -0.07171227
000020 0b c6 a9 bc 11 a0 b0 3c b2 f5 9a bb 74 d4 f4 ba
       -0.020724317 0.0215607 -0.004728996 -0.0018679039
000030 06 0d 19 3d 6f 65 8b 3d 34 bf 25 3d 4e 1a a3 3d
       0.037365936 0.06806456 0.04046555 0.079640016
000040 5b 69 38 3d 79 7d 71 3d 5e ad fd bc 81 42 90 bb
       0.04502235 0.05895755 -0.030966457 -0.004402459
000050 9e 78 63 bd a9 b5 b4 3a 66 18 5c bd 97 cc 8c bb
       -0.05553495 0.0013787049 -0.053734206 -0.00429685
000060 31 b0 c9 3d b4 35 72 ba 4f 3a ac 3c de 1d 86 bd
       0.09848059 -0.000923957 0.021023897 -0.065486655
000070 48 a3 62 bd 11 50 b1 3d 2f 7f 95 bc 63 b8 a8 bd
       -0.0553315 0.086578496 -0.018249122 -0.08238294
000080 5d cf b6 bd 21 e4 30 3d 46 15 01 be 99 f3 49 3d
       -0.0892627 0.04318631 -0.12605771 0.04930458
000090 bc d7 68 bb 72 68 f5 bd 23 49 a2 3d 9a 5b eb bd
       -0.0035528978 -0.11982812 0.07924106 -0.11492081
0000a0 f2 6f c7 bd 52 80 2a 3b fd 38 72 bd a8 85 9e 3c
       -0.09738149 0.0026016426 -0.05913638 0.019350842
0000b0 5c 0d 17 3a f2 93 10 3d 4f 9f 74 bc 73 24 ac 3d
       0.00057621836 0.03529734 -0.01493056 0.0840539
0000c0 93 cc 04 3d cb 19 2f 3b a5 f1 af 3c dd 69 a4 3d
       0.03242166 0.0026718255 0.02147753 0.08028004
0000d0 09 5e 16 bd b5 ca cd bd 75 d9 9e bd 4c 65 7e bc
       -0.036710773 -0.10048429 -0.077563204 -0.015527081
0000e0 77 85 43 3d be 5e ce 3c 55 6c b7 bc 95 3c c8 3c
       0.047734704 0.025191661 -0.022390524 0.02444295
0000f0 80 27 0e 3d 10 e9 3e bd e0 df 5d bc 8b 0a e5 bd
       0.03470564 -0.046608984 -0.0135421455 -0.111836515
000100 b8 71 5e bd b7 c6 81 bd 16 f5 bd bd 34 7d b1 3d
       -0.05430767 -0.0633673 -0.09275262 0.08666459
000110 20 8c ea 3d ab 98 c3 bc 80 27 1a 3d 2f aa aa 3c
       0.11452508 -0.023876509 0.037635326 0.020833103
000120 f5 b4 75 3d eb 46 f7 3c 1b 2c ba bc 6c 0d a7 3d
       0.059987027 0.030185184 -0.02272611 0.08156857
000130 c9 8d f7 3c a2 7b 0b bd da ab 85 bd 3d e1 17 bd
       0.030218976 -0.034053452 -0.06526919 -0.03708004
000140 97 b7 b2 bd 9d f2 94 bd de 86 ae bd 6a ae aa bd
       -0.08726423 -0.07272837 -0.085218176 -0.08334048
000150 c8 d2 56 3d 6a 90 ee bc 05 74 3c 3c 30 5b 9c 3d
       0.05244711 -0.029121596 0.011502271 0.0763458
000160 95 d7 6c bd 51 8b 3a bd 8b 1c b7 3d 4d 69 b8 3d
       -0.057822783 -0.04554302 0.08940991 0.090044595
000170 b5 2b 89 3d 45 45 84 3d 46 49 90 3d 69 a9 d1 3c
       0.066977896 0.064585246 0.07045226 0.025593476
000180 da 6e e0 3c 8f 71 08 3e f5 38 11 3c 21 93 0c bd
       0.027396608 0.13324569 0.008863677 -0.03432
000190 37 88 7a bd ef 37 b2 3d 98 b0 b9 bd 97 be 6f 3c
       -0.06116506 0.08702075 -0.09066886 0.0146328425
0001a0 57 9a b2 3d 32 45 bc bd 92 03 62 3d ce 24 17 3d
       0.08720844 -0.091928855 0.055179186 0.036900334
0001b0 f5 d5 1b bd 78 53 3b 3c 80 4f 2c 3c 09 76 5e bd
       -0.038045842 0.011433475 0.010517001 -0.054311786
0001c0 36 28 2f bd 1c 63 ca 3d 00 27 eb bb 4a 64 66 bd
       -0.042762958 0.09882185 -0.00717628 -0.056247987
0001d0 04 93 89 bc 80 a3 80 3b 91 f0 e9 3d 9b c0 a8 3d
       -0.016793735 0.0039257407 0.114228375 0.082398616
0001e0 39 f1 61 3d 9d 7a 5c bd 5a 14 47 3d 9f 6d 83 bd
       0.05516169 -0.05382787 0.048603393 -0.06417393
0001f0 8a 92 e6 3b 5e bb 81 3d e8 c8 95 bb 47 e3 90 3d
       0.007036512 0.063345656 -0.004571069 0.070746
000200 31 a9 74 3c 34 46 58 bd 3c 72 8c bd 41 6a 9a bd
       0.0149329165 -0.052801326 -0.06857726 -0.075397976
000210 a5 98 f8 3c c3 89 fc b9 59 f6 42 bd 88 57 3d 3d
       0.030346224 -0.00048167826 -0.047598217 0.046226054
000220 39 13 82 bc 89 d8 32 bd 52 44 cb bd 8a 51 8b bd
       -0.015878307 -0.043663535 -0.099251404 -0.06802662
000230 db 57 88 3d c7 cf ce bd f5 f6 00 be 27 94 40 3d
       0.06657382 -0.10098224 -0.12594207 0.04701629
000240 13 3c 30 be 2f 2f 91 bd 0e 11 c3 bd 9f 4c 8e bd
       -0.17210416 -0.07089078 -0.09524737 -0.06948208
000250 e0 fa d8 bc c4 d9 cd 3d 44 f9 85 bc 5e a2 75 3d
       -0.026486814 0.10051301 -0.01635421 0.0599693
000260 2b 32 8a bd 76 cc c1 3d cf d1 2a 3d 51 10 ae bc
       -0.0674785 0.09462826 0.041703995 -0.021248015
000270 43 d4 89 3d 3f ca bc 3d 30 2c 75 bc c8 6d 63 bc
       0.06729939 0.09218263 -0.014964148 -0.013881154
000280 00 5e e6 bd 4c 23 4f 3d 3f 60 3d 3d 7f 91 87 3d
       -0.11248398 0.05057077 0.046234366 0.06619548
000290 40 b3 2d 3d 4d 9c d7 3d 5f 93 e4 3d 4e 03 c3 3d
       0.042407274 0.10527859 0.11160921 0.09522115
0002a0 42 39 60 3c cf 49 44 bd ed 77 98 bd 6e bc f2 bc
       0.013685526 -0.04792195 -0.07444749 -0.029630866
0002b0 b0 4f d1 3d 03 55 b1 3d 02 2d 3c bc f8 57 05 3d
       0.10220277 0.08658793 -0.01148534 0.032554597
0002c0 40 9b 87 bd 4f f3 52 bc 44 7d a5 3c 98 c1 43 bd
       -0.066214085 -0.012875392 0.020201333 -0.047792047
0002d0 51 be 3d 3c c5 16 a7 3c aa b9 a6 bd 62 82 04 bb
       0.0115810195 0.0203966 -0.08140881 -0.0020219316
0002e0 8b 45 20 be 8a ba 72 bd 8c f8 8e bd 08 80 0a be
       -0.15651529 -0.05925993 -0.06981 -0.13525403
0002f0 28 7c ae bd ef 7d 54 bd ab 26 fa 3d 49 d1 3f ba
       -0.08519775 -0.051877912 0.122144066 -0.00073172577
000300 f8 12 16 3d b6 05 00 3e 49 0e be 3d 88 10 8f bd
       0.036639184 0.12502179 0.092800684 -0.06985575
000310 4e e5 d3 3d 25 10 6d bd b0 51 a9 3b 66 2c 4f bd
       0.10346471 -0.057876725 0.0051672086 -0.05057945
000320 1b c3 10 be 4a af 2e 3d df e0 0a 3e 12 b5 86 bc
       -0.14136927 0.042647637 0.13562344 -0.016443763
000330 fd ca d0 3d 84 30 5d 3c b8 ba 91 3b 3f 01 89 bc
       0.10194967 0.013500337 0.0044473074 -0.016724227
000340 01 02 cd ba 28 52 61 3d f5 25 f1 bc a5 5a f8 bd
       -0.0015640856 0.05500999 -0.029437045 -0.12126664
000350 21 63 76 bd fb 87 22 3c 01 d7 7e bd 09 f2 5b 3d
       -0.06015313 0.009920116 -0.062216762 0.05369762
000360 63 f6 15 bd c2 5f 88 bd 67 37 27 3e 8a cd 8e bd
       -0.036611926 -0.06658889 0.16329728 -0.06972797
000370 f3 4c 85 bb 66 99 3c 3d 1e 38 2d bc 07 31 21 bd
       -0.004068011 0.04604473 -0.010572461 -0.039353397
000380 66 dd a0 3d 47 c5 71 bc 9a f7 d0 bc 28 4b ac 39
       0.078547284 -0.014756507 -0.02550869 0.00032862392
000390 60 ff 88 bd 16 39 73 3d d2 2b 66 3d a0 98 25 bc
       -0.06689334 0.059380613 0.056194134 -0.010107189
0003a0 6d d6 7b 3d b0 ae db 3c 1f 42 88 bd 05 b1 23 bd
       0.06148379 0.026816696 -0.066532366 -0.03996374
0003b0 0b b7 8e bd 39 f9 b3 bc ba ac c8 bd 8b 7b a3 3c
       -0.069685064 -0.021969425 -0.0979857 0.01995637
0003c0 a5 e5 e3 3c 3e 86 18 bd ca fb 85 bd d1 51 06 bc
       0.027819464 -0.0372374 -0.065421656 -0.0081982175
0003d0 39 05 83 3d 3e dd 05 3e e3 9e 7b bd 71 e0 64 bb
       0.063974805 0.13072678 -0.061430823 -0.0034923817
0003e0 ec 5e 90 bd 18 0b a4 3d c3 a7 8a 3d 3c b4 04 3d
       -0.07049355 0.080099285 0.06770279 0.032398447
0003f0 f8 75 cc bd 89 df 01 3d ce f0 01 be 27 2a 80 3d
       -0.09983438 0.03170732 -0.12689516 0.0625804

mid_part.3.bias f4 [12]
000000 f1 44 cb 3d ed 0d ae 3d b9 58 87 bd 66 6a ba bd
       0.09925259 0.0849875 -0.066087194 -0.09102325
000010 5e 41 be 3c 86 e5 4f 3d 96 1b 70 bc 6b a8 e5 bb
       0.023224529 0.050756 -0.0146550145 -0.0070086024
000020 a2 33 cd 3d cf 49 d1 3c d1 7f 3f bd 95 8d 0f bd
       0.10019614 0.02554789 -0.046752755 -0.035047133

mid_part.4.weight f4 [12, 12, 3, 3]
000000 92 7c c0 bd 0b b1 e2 bd 65 44 24 bd 34 e7 3a bd
       -0.0939876 -0.110689245 -0.04010429 -0.04563065
000010 2c 10 ca bc 83 50 e1 3c 95 9f ad bd b1 e3 e9 3c
       -0.024665914 0.027504211 -0.084777035 0.028550955
000020 ad 06 76 bd ab 07 34 3d 9b 55 ad bd 3a db bc bd
       -0.06006496 0.043952625 -0.084635936 -0.09221502
000030 5c 77 f4 bd 46 f6 10 be 07 a0 ac bd 49 05 74 bd
       -0.119368285 -0.14156446 -0.0842896 -0.059575353
000040 a6 6a ce bd f5 50 a1 bd 53 8e 55 bc 7f 4e 7f 3d
       -0.10078935 -0.078767695 -0.013034421 0.06233072
000050 29 90 e8 3d c8 2d 48 3d ef c9 e5 bd 6f 05 86 3d
       0.11355621 0.048871785 -0.112201564 0.06544005
000060 a3 fe 12 bd c8 42 c7 3b 9d 88 71 3d 87 c4 03 3e
       -0.03588737 0.006080959 0.058968175 0.12867938
000070 e1 bf 07 3d 38 3c d0 3d 6a 40 48 3d 4d 96 ce bc
       0.033141974 0.10167736 0.048889555 -0.025218153
000080 b8 0f 58 3d ae 9d 67 bd de c3 11 bc bc fe c3 3c
       0.052749366 -0.05654686 -0.008896796 0.023925178
000090 b8 68 97 3d 0d b1 74 3d 95 96 39 bd 37 23 e6 3b
       0.073930204 0.05973916 -0.04530962 0.007023241
0000a0 29 5a 8b bc fc cf 03 3e 93 5d 3c be 4c c4 b1 bd
       -0.017010765 0.12872308 -0.1839507 -0.08680019
0000b0 41 f3 65 bd c9 3f d2 bb d8 c3 3e bd 80 de d0 bd
       -0.056140188 -0.006416295 -0.04657349 -0.101986885
0000c0 18 ee 63 bd 1f bf 20 bc 4b f2 e3 bd 3f d8 e9 bd
       -0.055646986 -0.009811192 -0.11130198 -0.11418199
0000d0 45 16 eb bd 8a ef d2 bd da 45 a5 bd 37 0a 88 3d
       -0.11478857 -0.10299595 -0.08069964 0.06642573
0000e0 0d 3b a1 3d 8a 01 e4 3d 04 17 0e 3e a8 d1 07 3d
       0.07872591 0.11133106 0.13875967 0.03315893
0000f0 fd ee 1e bd fe f4 df 3d eb 5d ae 3b 80 6d 82 3d
       -0.038802136 0.109354004 0.0053212545 0.06368542
000100 43 5c 4c be d5 c3 d0 bd 89 86 8f 3a 9e 49 7e bd
       -0.1995707 -0.10193602 0.0010950129 -0.062081926
000110 ed 1e 6b bd 76 9f 92 3d 53 c2 fa 3c c9 9b 64 bd
       -0.05740254 0.07159321 0.03061024 -0.05581263
000120 03 9a ae 3c 3b 6d c0 3c 58 37 d6 bd 4a 95 9e bc
       0.021313673 0.023489585 -0.10459775 -0.019358296
000130 93 0d a8 bc 6a bf 96 3d 13 7f 92 3d ba 69 b3 bd
       -0.020514285 0.07360728 0.07153144 -0.087604
000140 78 54 87 bd 52 f3 ff 3c 20 28 66 bd fe 64 82 3d
       -0.06607908 0.031243954 -0.05619061 0.06366919
000150 46 77 0f bd 17 d6 82 bd cf 3b b4 bc 8f 12 9a bd
       -0.035025857 -0.06388491 -0.022001175 -0.07523071
000160 55 61 82 3d f0 de 8d 3d 92 ea eb bc c0 c6 b2 bc
       0.06366221 0.069272876 -0.028798375 -0.021823287
000170 15 8b 2a be 78 e7 94 3d ec 13 03 3e ab fd 37 3d
       -0.16654618 0.07270712 0.12800568 0.04491965
000180 3d 9f 08 3d 4d fc 06 3e 43 a3 13 bd 7d de a8 3c
       0.033354986 0.13182183 -0.03604437 0.020613903
000190 c3 94 26 3d 90 a6 aa bd 9b c3 f0 bb 8b 84 ec bc
       0.040669214 -0.083325505 -0.0073475367 -0.028871795
0001a0 5c 60 94 bc e8 2e a6 3d 52 24 82 3d d3 04 8a bc
       -0.018112354 0.081144154 0.06354584 -0.016848003
0001b0 a3 9b 94 3d 64 39 1f ba 56 12 93 3c 6f 65 46 bd
       0.07256248 -0.00060739205 0.01795308 -0.04843658
0001c0 06 3d 65 3c 6f b4 d3 3d 92 0c 6c 3d 62 bc 04 3e
       0.0139916 0.10337149 0.057629175 0.12962487
0001d0 7e 52 39 bc 43 69 10 bc 52 09 8e 3d 72 9c 9e bc
       -0.011311172 -0.008814159 0.069353715 -0.019361708
0001e0 3a b9 da 3a 7c c9 a6 bc f5 f6 87 3d 76 8b d3 3d
       0.0016687282 -0.020359747 0.066389 0.103293344
0001f0 88 2f 0b 3c b1 40 90 3d cf b3 4f bc c4 bc 96 bd
       0.008495219 0.07043589 -0.012677147 -0.07360223
000200 28 d2 98 3d 45 b6 12 bd 29 0a 76 3d e1 d4 9b 3c
       0.07461959 -0.035818357 0.060068283 0.019022407
000210 1c ee 74 bd 28 bf 74 bc a2 b1 1f bd 43 7a 81 bd
       -0.05979739 -0.014938153 -0.038987763 -0.06322148
000220 35 fd 0c bd 54 d8 85 3b bf e8 39 bd 57 9e 99 3d
       -0.034421165 0.004084626 -0.04538798 0.07500904
000230 9f c3 01 bc 51 c4 5d 3d a7 75 3d 3d 01 1b fc bd
       -0.007920175 0.0541423 0.04625478 -0.12309838
000240 3f 51 22 bc c9 86 ca bc 59 14 8e 3d 19 cc 2b bd
       -0.009907066 -0.024722474 0.06937475 -0.04194269
000250 7f 0a c5 3c 35 60 da 3d 31 64 bc 3c ec 13 08 be
       0.024052856 0.10662881 0.022996994 -0.1328885
000260 00 67 80 3d d0 c1 ba 3d bc 40 9e 3d 5e 6b 73 bd
       0.06269646 0.09118998 0.07727191 -0.059428565
000270 6d 51 d0 3d fb 1d b4 bc cb c1 a8 3d 65 b7 4e bd
       0.10171781 -0.021986952 0.08240088 -0.050467867
000280 4a c1 86 bd b5 3a 00 3b 5c 27 c1 bd 84 da 0d bc
       -0.06579836 0.0019566242 -0.09431335 -0.008658055
000290 4f 64 d8 39 f7 05 bf 3c 01 a8 0a 3d c3 09 97 3c
       0.00041273466 0.023318274 0.033851627 0.018437272
0002a0 47 4c b8 bb db 7d 59 3d 03 28 2a 3c 18 48 18 3e
       -0.0056243273 0.05309854 0.010385516 0.14871252
0002b0 c8 9f 95 bd 4f 13 b3 3d 37 b9 4c 3e b3 61 99 be
       -0.073058665 0.08743917 0.19992529 -0.2995735
0002c0 a6 14 b1 3c b2 4c 35 bd e6 09 98 3d 07 f4 a4 bd
       0.021616291 -0.044262595 0.07423763 -0.08054357
0002d0 7e 59 8f 3d f8 3a 16 3e c5 85 37 bd 56 61 6e bd
       0.06999491 0.14670932 -0.044805307 -0.058198296
0002e0 e8 20 87 3d 4b 95 80 bd c6 54 ce 3d 7a 17 a8 3c
       0.06598073 -0.062784754 0.10074763 0.020519007
0002f0 9a 1e 9f ba 0f da 24 bb f1 0d 2a 3d 1f 13 82 bd
       -0.0012139857 -0.0025154387 0.0415172 -0.06351303
000300 ee 74 46 bd 7c d0 25 3d d1 5e bc 3d 22 03 59 3d
       -0.048451357 0.04048203 0.09197772 0.052981503
000310 3e fb 74 bb 3a 3f ac 3d da 5d cc bd 1d f1 0a bd
       -0.0037381197 0.08410497 -0.09978838 -0.03392135
000320 96 75 96 3d d2 55 37 3d bb 03 10 3e ef f2 51 bb
       0.073466465 0.04475958 0.14063923 -0.003203567
000330 6b 23 8e 3d b7 fe 6e 3d d0 e0 46 bd 2f f8 56 bd
       0.06940349 0.058348384 -0.04855424 -0.05248278
000340 6c 20 77 3d d8 b8 3f bd 0a 70 59 3d 6f ec a8 3d
       0.060333654 -0.04680714 0.053085364 0.08248221
000350 a1 e9 a1 3d 16 0b f4 bd ad 9b bf 3c a2 52 a2 3d
       0.07905889 -0.11916177 0.023389662 0.07925917
000360 b9 d3 46 bd 2d 10 1f bd 23 a4 f0 3d 27 a5 98 bc
       -0.04854176 -0.038833786 0.117500566 -0.018633438
000370 f7 0f d0 3d 97 28 7c 3c 63 4d de bd 44 fd 9d 3d
       0.10159295 0.015390537 -0.10854604 0.07714322
000380 a3 e2 5c 3b 02 b0 0a 3d cb be b2 bc 38 c6 b6 3c
       0.0033704422 0.03385926 -0.021819493 0.022311315
000390 33 17 30 3d 94 2e e8 3c d3 20 7c bd d8 19 a8 3d
       0.042990874 0.028342523 -0.06155474 0.08208054
0003a0 d0 80 c0 bc 48 7b 5e bc 6f 7e 0d bd 10 1b 4d 3d
       -0.023498923 -0.013579197 -0.034544405 0.050074637
0003b0 1e b6 88 3c a4 48 aa bc 5e 66 f5 3c 09 57 30 bc
       0.016688403 -0.02078659 0.029956039 -0.010762938
0003c0 f0 07 45 bd 5e d3 d2 3d ae 34 07 3d 11 eb c6 bc
       -0.048103273 0.10294221 0.033009224 -0.02428201
0003d0 1f 7a 25 3d 40 60 3b bd 75 c7 c1 bd 5b c4 7c 3d
       0.040399667 -0.045746088 -0.094618715 0.061710697
0003e0 dd fb 89 bd fa 5e 21 3c 78 e6 c1 3c 92 c6 9d 3d
       -0.06737492 0.009849304 0.023669466 0.0770389
0003f0 94 1f 69 3d 24 33 ae 3c 85 e0 03 bd d0 2a 92 bd
       0.05691488 0.02126462 -0.03219654 -0.07137072

mid_part.4.bias f4 [12]
000000 cc d5 9a 3c 82 18 6e 3d ce 34 37 bd 98 c3 26 3d
       0.018900774 0.05812884 -0.044728093 0.040713876
000010 83 68 b0 bd 29 88 3f be 4b 5b 55 bd 9b 2f 39 be
       -0.08613684 -0.18704285 -0.052089017 -0.18084566
000020 02 ed 60 3d af f6 8f 3c 25 8a c9 bc 08 f0 4a 3d
       0.05491353 0.017573683 -0.024602005 0.049545318
