models/model_up_2_epoch100.pth (torch_old, 49967 bytes, 15 tensors)

first_part.0.weight f4 [56, 1, 5, 5]
0	0xbda064f7	-0.078317575
1	0xbbd761af	-0.006572924
2	0xbdf51722	-0.11967303
3	0x3da097da	0.078414634
4	0xbe105293	-0.14094
5	0x3e04af51	0.12957503
6	0xbe3760da	-0.1790804
7	0xbe550fc5	-0.20806797
8	0xbe1f6f6f	-0.15569852
9	0x3dc352da	0.09537287
10	0xbdc4f617	-0.096172504
11	0x3cce59e6	0.025189351
12	0xbe7931ca	-0.243354
13	0xbe2bc57a	-0.1677455
14	0xbdb325b0	-0.08747423
15	0xbd5943ce	-0.05304318
16	0xbe46437c	-0.19361681
17	0x3da2a055	0.07940737
18	0xbd8d79f9	-0.0690803
19	0x3d51e57c	0.051244244
20	0x3e08e59e	0.13368842
21	0x3c7e1a24	0.015509162
22	0x3cbd662b	0.023120007
23	0x3e30f158	0.17279565
24	0xbdc3822b	-0.09546312
25	0x3c8e03a2	0.017335717
26	0xbdea3dfe	-0.11437605
27	0x3e015eb4	0.12633783
28	0x3db53256	0.088474914
29	0xbe6d5492	-0.23176792
30	0x3e1f4dfb	0.15557091
31	0x3dbee7e6	0.09321575
32	0x3e478226	0.19483241
33	0x3e17821e	0.1479573
34	0x3e36817c	0.17822832
35	0x3d00123f	0.0312674
36	0xbe360c89	-0.1777822
37	0xbde930b4	-0.113862425
38	0xbddd8fcf	-0.10818445
39	0x3c8de4d6	0.017321032
40	0xbc94d0f1	-0.018166037
41	0xbdb65c07	-0.089042716
42	0xbb6add93	-0.0035837635
43	0x3e8076f5	0.25090757
44	0xbd40ed0d	-0.04710107
45	0xbd036004	-0.03207399
46	0xbd251e51	-0.040312115
47	0x3db330ed	0.08749566
48	0x3e40d8d5	0.18832715
49	0x3d9d9b3a	0.07695623
50	0x3e214cd2	0.15751961
51	0x3e00b073	0.1256731
52	0x3d92541c	0.07144949
53	0x3de4c5ab	0.11170515
54	0xbc6bceba	-0.014392549
55	0xbdd3caf4	-0.103414446
56	0xbd8bd09e	-0.068269
57	0x3e349c82	0.17637828
58	0x3dfaaa82	0.12239553
59	0xbdf2591d	-0.11833403
60	0x3d8129b0	0.063067794
61	0x3e443846	0.19162092
62	0xbe6fbde0	-0.23412275
63	0xbdf12cd2	-0.11776127
64	0xbd99ab35	-0.07503358
65	0x3d7b0332	0.061282344
66	0xbd040e4e	-0.032240205
67	0xbda2da6e	-0.079518184
68	0xbe35ab2c	-0.17741078
69	0x3de6d39b	0.11270829
70	0x3e685943	0.226903
71	0x3e1a065e	0.15041491
72	0xbe23676b	-0.1595742
73	0xbde90508	-0.11377913
74	0x3dbe57d1	0.092940934
75	0x3d336a44	0.043802515
76	0x3dce63ce	0.1007763
77	0xbe1399af	-0.14414094
78	0x3d431cd9	0.047634933
79	0x3e4bd052	0.19903687
80	0x3e09a3c1	0.13441373
81	0xbd284770	-0.041083753
82	0xbbf443e5	-0.0074543827
83	0xbde3305c	-0.11093208
84	0xbdd9586a	-0.10612567
85	0xbd0d9145	-0.034562368
86	0xbe1526de	-0.14565608
87	0x3e56de71	0.20983292
88	0x3dd2b281	0.10287953
89	0x3d8594c6	0.06522517
90	0xbe1bb13a	-0.15204325
91	0x3e19fc03	0.15037541
92	0x3df83444	0.12119344
93	0x3e1df7e9	0.15426601
94	0xbd9cd8ad	-0.07658515
95	0x3d54126e	0.05177539
96	0x3e509108	0.20367825
97	0x3e0ddcb0	0.13853717
98	0x3e18c942	0.14920524
99	0xbd07e4d5	-0.033177216
100	0x3e1c6c65	0.15275724
101	0xbe17b48b	-0.14814965
102	0x3d089189	0.03334192
103	0xbddac417	-0.106819324
104	0xbd32b9e7	-0.04363432
105	0xbd35c806	-0.04438021
106	0x3cebe232	0.028794382
107	0x3e5df46e	0.21675274
108	0x3df979b3	0.121814154
109	0x3c0d342f	0.008618399
110	0x3e21ccd0	0.15800786
111	0xbda3ddaf	-0.08001267
112	0x3e085d72	0.13316897
113	0x3c09671c	0.0083864
114	0xbca990d6	-0.020698946
115	0x3ce94652	0.028475914
116	0xbe0a16b4	-0.13485223
117	0x3d56f7f4	0.05248256
118	0x3dab1bff	0.08354949
119	0x3e32f3e6	0.17475852
120	0xbd8d6bff	-0.06905364
121	0x3d997bc3	0.07494309
122	0x3e5da6ef	0.21645711
123	0xbda5f799	-0.08103866
124	0x3e3cc37b	0.18433945
125	0xbdbac0d9	-0.09118814
126	0xbcad7f87	-0.021178974
127	0x3e02ca87	0.1277257
128	0x3d9bbda7	0.07604533
129	0x3e58d66a	0.21175542
130	0xbde2fdb3	-0.110835455
131	0x3ac20935	0.0014803769
132	0x3d20b07d	0.039230812
133	0xbe43228e	-0.1905615
134	0xbd320c23	-0.043468606
135	0xbe21de5a	-0.15807477
136	0x3d6e2759	0.058142994
137	0xbdd51bd4	-0.104056984
138	0xbd646022	-0.055755742
139	0xbd929012	-0.071563855
140	0xbccfec54	-0.025381245
141	0xbe05ac0e	-0.13053915
142	0x3dc93e1c	0.098262995
143	0x3e72ded0	0.23717809
144	0x3a940b0d	0.0011294797
145	0xbddfe069	-0.10931475
146	0xbe22da5c	-0.1590361
147	0x3d335ee6	0.043791674
148	0xbe390c66	-0.18071136
149	0xbe14c855	-0.14529546
150	0xbe106731	-0.14101864
151	0xbd96e52a	-0.07367928
152	0x3ced94b8	0.029001579
153	0x3e0b2232	0.13587263
154	0x3d93426e	0.07190405
155	0x3e1e0b06	0.15433893
156	0xbdfb8288	-0.12280756
157	0x3d441dde	0.047880046
158	0xbe239227	-0.15973721
159	0x3deeec42	0.11666156
160	0x3d603f03	0.054747593
161	0x3e57d000	0.2107544
162	0xbdeb1692	-0.11478914
163	0x3e42a3a0	0.1900773
164	0x3e398ae1	0.18119384
165	0x3e249076	0.16070732
166	0x3d2d2fd3	0.042281937
167	0x3e56a48d	0.20961209
168	0x3e185cf8	0.14879215
169	0x3e18ca6b	0.14920966
170	0xbce261e7	-0.027634574
171	0xbe1ee0e0	-0.1551547
172	0x3c237edf	0.009978979
173	0x3d26e8b2	0.04074926
174	0xbe126bba	-0.14298907
175	0xbdd4611a	-0.10370083
176	0xbe30f138	-0.17279518
177	0xbd43b417	-0.04777917
178	0x3e464299	0.19361342
179	0x3d301c6b	0.04299585
180	0xbb6aaf11	-0.0035809914
181	0x3d3e1bf3	0.046413373
182	0x3e1cff05	0.15331657
183	0xbe3468d3	-0.17618112
184	0xbe25412c	-0.16138142
185	0xbd115330	-0.035479724
186	0xbd07a54f	-0.033116635
187	0x3e483a26	0.19553432
188	0x3e37bce5	0.17943151
189	0xbe38a996	-0.18033442
190	0xbdfd94e4	-0.12381914
191	0xbdf3d4b8	-0.11905807
192	0x3e2336c2	0.15938857
193	0x3e4a89d7	0.19779144
194	0xbe109291	-0.1411841
195	0xbd4ff653	-0.050772022
196	0x3deb3cc2	0.11486198
197	0xbdb8b08e	-0.0901805
198	0x3e401e0b	0.1876146
199	0x3d5c7c38	0.0538294
200	0xbd60646e	-0.054783277
201	0x3b9b2f80	0.004735887
202	0x3d4f1edd	0.050566543
203	0xbdad52f2	-0.08463086
204	0xbe25d1ac	-0.16193265
205	0x39e4c128	0.0004363146
206	0xbb9b2363	-0.004734443
207	0xbb1a4970	-0.0023542307
208	0xbce84b8e	-0.02835634
209	0x3e0580e5	0.1303745
210	0xbd72fc20	-0.059322476
211	0xbd2d763f	-0.042349096
212	0x3ce4b2eb	0.027917346
213	0xbe19e984	-0.15030485
214	0x3d3fa67a	0.046789624
215	0xbd44eb4b	-0.048075955
216	0x3da32f50	0.079680085
217	0xbe1467b5	-0.14492686
218	0xbb8297b9	-0.003985372
219	0x3c7e77a7	0.015531457
220	0xbe2548d0	-0.16141057
221	0xbe1ac3ed	-0.15113802
222	0x3d91a386	0.07111268
223	0xbd720137	-0.05908319
224	0x3df85b68	0.12126809
225	0xbe376ac1	-0.17911817
226	0xbda83dda	-0.08214922
227	0xbe1ce11c	-0.15320247
228	0x3dbb7657	0.09153431
229	0x3a9a3945	0.0011766335
230	0xbc921bea	-0.017835576
231	0xbcc54081	-0.02407861
232	0xbe304b99	-0.17216338
233	0x3d987f6d	0.074461795
234	0x3c5bab70	0.013407573
235	0xbe0832ec	-0.13300675
236	0x3d8bd91e	0.06828521
237	0xbd32f3fa	-0.043689705
238	0xbe501675	-0.20321067
239	0x3dde4028	0.108520806
240	0x3e0426cb	0.12905423
241	0xbd1a3c85	-0.037655372
242	0xbe18cd6a	-0.14922109
243	0x3ccf6334	0.025315858
244	0x3e286a87	0.16446887
245	0x3e5189d5	0.20462735
246	0xbe112da6	-0.1417757
247	0xbdbdb809	-0.092636175
248	0x3e2daa98	0.16959608
249	0x3dd7493e	0.10512017
250	0x3e027abe	0.12742135
251	0xbdaa1165	-0.08304099
252	0x3e430f88	0.19048893
253	0xbe1af1b4	-0.15131265
254	0xbb99ac90	-0.0046897605
255	0x3c67ef16	0.014156124

first_part.0.bias f4 [56]
0	0x3e3491cd	0.17633744
1	0x3ced5698	0.028971955
2	0xbcf19e11	-0.029494317
3	0x3de47d6b	0.11156734
4	0xbe22ac94	-0.15886146
5	0x3c62eab3	0.013849902
6	0x3e04e932	0.12979582
7	0x3e45bd2c	0.19310445
8	0xbe2ccf71	-0.16876008
9	0xbd8b35a7	-0.06797343
10	0xbcf20fe9	-0.029548602
11	0xbe0884b2	-0.13331869
12	0x3dda9feb	0.10675033
13	0x3ce8a4c1	0.028398873
14	0x3d4172e5	0.047228713
15	0x3e0670fe	0.1312904
16	0xbde075f3	-0.10959997
17	0x3ddb701d	0.10714743
18	0x3d6a417c	0.057191357
19	0xbe0ddab7	-0.13852964
20	0xbdb06d3a	-0.08614583
21	0xbda95ae8	-0.08269292
22	0x3de8b6b8	0.11362976
23	0xbe0e44ed	-0.1389348
24	0xbe52f98b	-0.20603006
25	0xbd133414	-0.035938337
26	0xbdeaab6e	-0.11458479
27	0xbd12e733	-0.03586502
28	0xbe1bec6e	-0.1522691
29	0x3e415576	0.18880257
30	0x3e2eedbd	0.17082877
31	0xbe1dd260	-0.15412283
32	0xbe006a46	-0.1254054
33	0xbc158477	-0.00912582
34	0xbe075925	-0.132176
35	0xbd8a8017	-0.067627124
36	0xbd98ce94	-0.07461277
37	0xbd85d977	-0.06535619
38	0x3e498c82	0.19682506
39	0x3e3a07d4	0.18167049
40	0xbe251a23	-0.16123252
41	0xbe4535fe	-0.19258878
42	0xbdef318e	-0.11679374
43	0x3d93949b	0.072060786
44	0xbe1d1a60	-0.15342093
45	0x3e26aa4b	0.16275899
46	0x3c2a1ab5	0.010382344
47	0x3df04b47	0.11733108
48	0x3def86f9	0.11695666
49	0x3e0b1b2c	0.13584584
50	0x3e02ac69	0.12761082
51	0x3e5946c2	0.21218398
52	0xbc30b3c9	-0.010785052
53	0xbda49546	-0.08036284
54	0x3d9bf8a2	0.07615782
55	0x3e1dfa4a	0.15427509

mid_part.0.0.weight f4 [12, 56, 1, 1]
0	0xbdaf61d8	-0.08563584
1	0x3e182a01	0.14859773
2	0x3dc2d0f4	0.09512511
3	0x3d8dd769	0.06925852
4	0x3e13ef33	0.14446716
5	0xbc9ee2b7	-0.019395215
6	0x3db451c1	0.08804656
7	0xbe06ca1e	-0.13163039
8	0x3cc4e5dd	0.024035389
9	0x3ade7c06	0.0016974218
10	0x3d9f0dfb	0.077663384
11	0x3d25e307	0.040499713
12	0xbd13f41e	-0.03612148
13	0x3dfe2eb3	0.12411251
14	0x3e259ebb	0.16173832
15	0xbdedcae2	-0.116109625
16	0xbc816a1d	-0.015797669
17	0x3d0ac67c	0.033880696
18	0x3cab28e4	0.020893522
19	0xbdb915fa	-0.09037395
20	0xbca14d44	-0.019690163
21	0xbdc817cc	-0.09770164
22	0xbd95d8ce	-0.07316743
23	0x3ce62a55	0.028096357
24	0x3dd5f1b0	0.10446489
25	0x3d94cefc	0.07266042
26	0xbc3568a4	-0.011072312
27	0x3d4e43b0	0.05035752
28	0xbd703534	-0.05864449
29	0xbbe13ee8	-0.006873954
30	0x3d8b657f	0.06806468
31	0x3df8aef8	0.12142748
32	0x3cc59736	0.024119955
33	0xbd8883ab	-0.06665739
34	0x3d348301	0.044070248
35	0x3d276bd2	0.04087431
36	0x3d6f713d	0.0584576
37	0xbe183eb9	-0.14867677
38	0x3c7a5173	0.015278208
39	0xbdcdee88	-0.10055262
40	0xbce3fcfe	-0.027830597
41	0x3d72a909	0.059243236
42	0xbdc72d56	-0.09725444
43	0xbdeb04e7	-0.114755444
44	0xbdc7b49d	-0.09751246
45	0x3d41a2fc	0.047274575
46	0x3da6fef7	0.081540994
47	0x3c976d79	0.018484818
48	0x3c9373fe	0.017999645
49	0x3cd71b74	0.026258208
50	0xbc57acee	-0.013163788
51	0x3da645df	0.081187956
52	0xbe1c222b	-0.15247409
53	0xbe28b61b	-0.16475718
54	0xbdcf5b8c	-0.10124883
55	0x3d0ce93d	0.03440212
56	0xbe02b24f	-0.12763332
57	0x3c2ca536	0.010537436
58	0xbd10f295	-0.035387594
59	0xbddad0d1	-0.1068436
60	0x3e171979	0.14755811
61	0xbd185a99	-0.037195776
62	0x3ddcebbf	0.107871525
63	0x3df96dd8	0.12179154
64	0xbd58026a	-0.052736677
65	0xbd7914b6	-0.060810767
66	0x3e1371ce	0.14398882
67	0x3c49893a	0.012300784
68	0x3de763bb	0.11298319
69	0x3c43024d	0.011902404
70	0x3daf41ab	0.08557447
71	0xbe0752a9	-0.13215126
72	0xbb432255	-0.0029775102
73	0x3dbcb99b	0.09215089
74	0xbcbd2117	-0.023087068
75	0xbdf3cec5	-0.119046725
76	0x3c4ba6b8	0.012429886
77	0x3cfced9b	0.030875018
78	0x3c407bfd	0.011748311
79	0x3d136ff6	0.035995446
80	0x3d916b0c	0.07100496
81	0xbda0da84	-0.078541785
82	0x3a51ab16	0.0007998211
83	0xbde623a2	-0.11237265
84	0x3d418330	0.04724425
85	0xbdd857fb	-0.10563656
86	0xbd943fa5	-0.07238702
87	0x3c9b1fbf	0.018936036
88	0x3dbd8915	0.09254662
89	0x3dabcf34	0.0838913
90	0xbdc011e7	-0.093784146
91	0xbe06d5e5	-0.13167532
92	0x3da7f9ef	0.08201968
93	0xbd9b683a	-0.07588239
94	0xbdf8ab4a	-0.12142046
95	0x3c92f9d4	0.017941393
96	0x3df1db9b	0.118094645
97	0x3cac72e7	0.021050883
98	0xbbbb148b	-0.005709236
99	0xbdbb829d	-0.09155772
100	0x3e07d1bd	0.13263603
101	0x3dafde0f	0.08587276
102	0x3deee828	0.11665374
103	0x3da22832	0.07917823
104	0xbdeeb98d	-0.11656485
105	0xbdf9cb82	-0.12197019
106	0xbc7e117d	-0.015507099
107	0x3d32a5f8	0.04361531
108	0xbdb0a464	-0.08625105
109	0x3d93b3b3	0.07212009
110	0xbd2a3e95	-0.04156359
111	0x3aa68246	0.001270362
112	0xbbc7c5ad	-0.006096563
113	0x3dca277a	0.09870811
114	0x3b5109c7	0.0031896697
115	0x3c93fcbb	0.018064847
116	0x3d2a77c5	0.041618127
117	0x3cd735e3	0.026270812
118	0xbd18fefb	-0.037352543
119	0xbcb09e06	-0.021559726
120	0x3d1d860a	0.038457908
121	0xbde2869f	-0.11060833
122	0x3c514e6f	0.012775048
123	0xbdee8b95	-0.11647717
124	0xbe04fa57	-0.12986122
125	0xbc3089b1	-0.010775016
126	0x3cc0de85	0.023543606
127	0x3bdeb0e6	0.0067959903
128	0xbc051e3f	-0.008124887
129	0xbd59896f	-0.053109583
130	0xbcd1c1e0	-0.025605142
131	0x3b84687f	0.004040777
132	0xbdad198f	-0.084521405
133	0x3d1fc334	0.03900452
134	0x3d3fb772	0.046805806
135	0xbc504d5a	-0.012713755
136	0x3d62b10a	0.05534462
137	0x3d50066c	0.050787374
138	0x3e071d73	0.13194828
139	0xbc9f305c	-0.01943224
140	0xbe084572	-0.13307741
141	0xbdf623ce	-0.12018548
142	0xbcb20cd7	-0.021734638
143	0xbdf1361d	-0.117778994
144	0xbda784da	-0.08179636
145	0xbd32474f	-0.043525036
146	0xbd1c0962	-0.038094886
147	0xbc6e5e80	-0.014548898
148	0x3ca0541c	0.019571356
149	0x3db3ae1a	0.087734416
150	0x3e0ac5db	0.13552038
151	0xbd6e3d81	-0.058164123
152	0xbdf8c969	-0.12147791
153	0x3df08a3d	0.11745117
154	0x3dd6af51	0.10482658
155	0x3e055a72	0.13022783
156	0x3d4d92e4	0.050188914
157	0x3d91ac9f	0.07113003
158	0x3c530d87	0.012881643
159	0xbde1cc94	-0.11025348
160	0xbe4f16d8	-0.20223558
161	0xbdbe3db0	-0.0928911
162	0x3c8726ea	0.016498048
163	0xbd8fbc06	-0.070182845
164	0xbc13e86b	-0.009027581
165	0x3d584242	0.052797563
166	0xbdfd6f80	-0.123747826
167	0x3c86d61c	0.016459517
168	0x3e23b6cc	0.159877
169	0x3da72a73	0.081623934
170	0x3ca1cf5b	0.019752195
171	0xbd2357fb	-0.039878827
172	0xbd9814fe	-0.07425879
173	0x3da6c06c	0.0814217
174	0xbdb7db88	-0.08977419
175	0x3e0ad4b9	0.1355771
176	0xbb72597a	-0.0036979602
177	0xbd86e8d2	-0.06587376
178	0xbdc57c46	-0.09642844
179	0xbd87abb9	-0.0662455
180	0xbdcbfd8a	-0.09960468
181	0xbda447fd	-0.08021543
182	0xbe1baae2	-0.15201905
183	0x3d930f52	0.071806565
184	0xbd8841a6	-0.066531464
185	0x3d32f55d	0.043691028
186	0xbc22081d	-0.00988963
187	0xbd8c8e8b	-0.068631254
188	0xbd87c67d	-0.066296555
189	0xbcee484c	-0.029087208
190	0xbdf0c435	-0.117561735
191	0xbdba7f81	-0.09106351
192	0x3b27994e	0.0025573554
193	0xbdb8d43f	-0.09024858
194	0x3da00489	0.07813365
195	0x3e1e4a0c	0.15457934
196	0x3d9d724e	0.076878175
197	0x3e0f0b2a	0.13969103
198	0xbd5edc3a	-0.054409243
199	0x3d0b138d	0.033954192
200	0xbc042f87	-0.008067972
201	0x3e0fb4de	0.14033839
202	0xbe0ff0d9	-0.1405672
203	0xbd27a6a3	-0.0409304
204	0x3d9b8b09	0.07594878
205	0x3d96911a	0.07351895
206	0xbe04836f	-0.12940763
207	0x3dfac99d	0.12245486
208	0x3d9dd2b9	0.07706208
209	0x3dc5b147	0.096529536
210	0xbd428746	-0.047492288
211	0xbd568178	-0.052369565
212	0x3c37eea5	0.011226331
213	0x3dd9cf54	0.10635248
214	0x3d7f589f	0.062340375
215	0xbdb33775	-0.08750812
216	0x3df4007a	0.119141534
217	0xb9524a28	-0.00020054786
218	0xbd4bacc0	-0.049725294
219	0x3de08f90	0.109648824
220	0x3e16e88c	0.14737147
221	0x3c83e9ac	0.016102634
222	0xbd20a610	-0.03922087
223	0x3dee38a5	0.11631898
224	0xbd80965f	-0.06278681
225	0xbcfc7526	-0.03081758
226	0x3d45a5de	0.048253886
227	0xbdf369dc	-0.118854254
228	0x3af7bb2a	0.0018900384
229	0x3d341ec0	0.043974638
230	0x3cb2e77a	0.021838892
231	0xbdd1f485	-0.102517165
232	0x3de1a47b	0.110177
233	0xbcee3950	-0.029080063
234	0xbdc7aa3f	-0.09749269
235	0xbd859be0	-0.065238714
236	0xbd8d9b5f	-0.069144
237	0x3cab8714	0.020938434
238	0x3de8a341	0.11359263
239	0xbc1d7d56	-0.009612402
240	0x3e182b1c	0.14860195
241	0x3df81485	0.12113289
242	0x3d6f0318	0.05835256
243	0x3db1419d	0.08655093
244	0x3d7e4d69	0.062085543
245	0x3d34317b	0.0439925
246	0x3e17aaa9	0.14811195
247	0xbd98f970	-0.074694514
248	0xbd2f4e3f	-0.04279923
249	0xbdff5a9d	-0.12468455
250	0x3d9dcb18	0.07704753
251	0xbd947fa9	-0.07250912
252	0x3e2fa230	0.17151713
253	0xbcef8feb	-0.02924343
254	0xbe22b74d	-0.15890236
255	0x3ce79eeb	0.02827402

mid_part.0.0.bias f4 [12]
0	0xbe05014f	-0.1298878
1	0x3d45bb2c	0.048274204
2	0xbd0f9d60	-0.035062194
3	0x3d0e9c8c	0.034817263
4	0x3daa37fa	0.08311458
5	0xbc9699a3	-0.018383807
6	0x3c514609	0.012773045
7	0xbd973f29	-0.07385094
8	0x3d62ae74	0.055342153
9	0x3c55762f	0.013028665
10	0xbd1dceba	-0.038527228
11	0x3aa3ddbc	0.0012501995

mid_part.1.weight f4 [12, 12, 3, 3]
0	0xbc049b60	-0.008093685
1	0xbd3d58d9	-0.04622731
2	0x3d8aaec9	0.06771619
3	0x3e042c78	0.12907588
4	0x3e35976c	0.17733544
5	0xbda13089	-0.078705855
6	0xbe4effa6	-0.2021471
7	0x3d7056b1	0.058676425
8	0x3d84ec4b	0.06490382
9	0x3dde8b9a	0.10866471
10	0xbd33d127	-0.043900635
11	0x3cda4f72	0.02664921
12	0x3d55fdf6	0.05224415
13	0xbdaeb7c0	-0.08531141
14	0xbd9c0722	-0.07618548
15	0xbcd6e057	-0.02623002
16	0x3d27498c	0.040841624
17	0xbd692114	-0.05691631
18	0x394c3fdd	0.00019478747
19	0x3da5c634	0.08094445
20	0xbd5d80a6	-0.054077767
21	0x3d4ba562	0.04971827
22	0x3e214a5d	0.15751024
23	0x3e62c1de	0.22144267
24	0xbde85333	-0.11343994
25	0xbe371b09	-0.17881407
26	0xbe4df985	-0.20114715
27	0xbe25b664	-0.16182858
28	0xbd689ccd	-0.056790162
29	0xbd940d68	-0.072291195
30	0xbd8866aa	-0.066602066
31	0xbc375147	-0.011188812
32	0x3d9ac660	0.07557368
33	0x3e50db29	0.20396103
34	0x3dc4aef5	0.09603683
35	0xbcee5779	-0.029094445
36	0x3dc68579	0.09693427
37	0xbd79ce9d	-0.060988057
38	0x3e247951	0.16061904
39	0x3d55eeb9	0.052229617
40	0xbe1b3544	-0.15157038
41	0xbb231de2	-0.0024889638
42	0x3d7cd2d4	0.0617245
43	0x3c8a9c63	0.016920274
44	0xbddfef6b	-0.10934337
45	0x3e28a9b7	0.16470991
46	0x3c1ff65d	0.009763327
47	0x3e2a7516	0.16646227
48	0xbde49f2a	-0.11163171
49	0xbeb671ce	-0.356337
50	0xbe41d10f	-0.18927406
51	0xbc723e75	-0.014785399
52	0x3c8374ff	0.016046999
53	0xbdccc00e	-0.09997569
54	0xbde239cf	-0.11046182
55	0xbd099e97	-0.03359851
56	0x3d219572	0.039449163
57	0x3d5bbee1	0.053648833
58	0xbc2cbc08	-0.010542877
59	0xbdb870f9	-0.09005923
60	0xbd9d317d	-0.07675455
61	0x3e1a013b	0.15039532
62	0x3d850c5e	0.064964995
63	0x3e1d9e1f	0.1539235
64	0x3eba3247	0.36366484
65	0x3dbf6976	0.09346287
66	0x3e09c4c4	0.13453966
67	0xbddc501f	-0.107574694
68	0xbe1ce5cf	-0.1532204
69	0xbe0a0875	-0.13479789
70	0xbe619311	-0.22028758
71	0x3ced1ea8	0.028945282
72	0xbe29e65b	-0.1659178
73	0xbe205745	-0.1565829
74	0xbe21158b	-0.15730874
75	0x3def9e6d	0.11700139
76	0x3e6031a8	0.21893942
77	0x3d845e26	0.0646327
78	0xbbf01bfd	-0.007327555
79	0x3d027806	0.031852745
80	0x3e025823	0.12728934
81	0xbdccc731	-0.0999893
82	0xbe1d183c	-0.15341276
83	0x3e247b12	0.16062573
84	0x3d8f4a62	0.06996609
85	0xbe2c4a58	-0.16825235
86	0x3e0773ec	0.13227814
87	0x3c741d1a	0.0148995165
88	0xbd891b89	-0.06694705
89	0xbd93c793	-0.072158
90	0xbc2a1bac	-0.010382574
91	0x3df6d293	0.120518826
92	0xbd842d0e	-0.06453906
93	0xbdd0f180	-0.102023125
94	0x3d8d96f9	0.069135614
95	0xbdec1864	-0.1152809
96	0xbdd9bbce	-0.10631524
97	0x3dea91d7	0.11453598
98	0xba9f6d46	-0.0012163303
99	0x3db91c7c	0.09038636
100	0xbb9effb6	-0.0048522605
101	0x3e6ac0af	0.22925065
102	0x3ca236ed	0.019801581
103	0xbe87f4ee	-0.26554054
104	0xbe2b61fb	-0.16736595
105	0x3e17f1e8	0.14838374
106	0xbe3481f5	-0.176277
107	0x3e0480da	0.12939778
108	0xbd265b1f	-0.040614244
109	0x3dfa9af1	0.12236584
110	0x3db1868a	0.086682394
111	0x3d5982a6	0.05310311
112	0xbcdd1581	-0.026987793
113	0x3d9ef1f3	0.07760992
114	0xbdde5d66	-0.10857658
115	0x3daa12df	0.083043806
116	0x3d7be62b	0.061498802
117	0x3d57a4e7	0.052647498
118	0x3d394c8f	0.045239028
119	0x3dba37e8	0.090926945
120	0xbd362243	-0.04446627
121	0x3dc55166	0.09634666
122	0x3d708613	0.058721613
123	0xbb315cda	-0.00270634
124	0x3d60088c	0.05469565
125	0x3bb7a2c1	0.0056041186
126	0x3da8a8e7	0.082353406
127	0x3cd5902d	0.026069725
128	0x3d28ca5d	0.041208614
129	0x3dc0b9f1	0.094104655
130	0x3d994fe4	0.07485941
131	0x3cc1c0a5	0.02365143
132	0xba52061b	-0.0008011774
133	0xbd21b611	-0.039480273
134	0xbd592363	-0.053012263
135	0x3bfe9e83	0.007770361
136	0xbcddde01	-0.027083399
137	0x3c407642	0.011746945
138	0xbe0a7780	-0.13522148
139	0x3b1f5938	0.0024314653
140	0xbd0a5258	-0.033769935
141	0xbc3721e8	-0.0111775175
142	0xbddead7a	-0.10872932
143	0xbb6544bd	-0.0034983598
144	0x3d05e3b2	0.03268785
145	0xbda35fb8	-0.07977241
146	0x3c620b59	0.013796651
147	0xbd1248a9	-0.035713825
148	0x3da35e5e	0.079769835
149	0x3b15cbd0	0.0022857077
150	0xbd94821d	-0.0725138
151	0xbd5fa18e	-0.05459743
152	0xbc4b9211	-0.012424962
153	0x3baf2742	0.005345256
154	0x3d3ae42e	0.045627765
155	0x3e244b43	0.16044335
156	0x3d221d9c	0.03957902
157	0x3d23134e	0.039813332
158	0x3dc95675	0.098309435
159	0xbda94f0e	-0.082670316
160	0x3c65b7f0	0.014020905
161	0x3da26c71	0.0793084
162	0xbc56c79b	-0.013109113
163	0xbd19a751	-0.03751308
164	0xbdf13a6d	-0.11778722
165	0x3cefcec1	0.029273393
166	0x3cb487e7	0.02203746
167	0x3d5868eb	0.052834433
168	0x3c98c6d0	0.018649489
169	0xbdaa3738	-0.083113134
170	0xbc2c97f9	-0.01053428
171	0xbd53f78b	-0.051749747
172	0xbdb74f3d	-0.089506604
173	0x3e0bea5a	0.13663617
174	0xbc76df4b	-0.015067886
175	0xbd995ee5	-0.07488803
176	0x3d4d911d	0.05018722
177	0x3dab89c8	0.08375889
178	0xbd13dffa	-0.036102273
179	0x3df59631	0.11991537
180	0x3d3fa82b	0.046791237
181	0xbe0faf01	-0.14031602
182	0xbd5cb080	-0.05387926
183	0xbae3da04	-0.0017383699
184	0xbd99702e	-0.074921
185	0x3d1bce5b	0.038038593
186	0x3bd415d7	0.00647233
187	0xbdd73399	-0.10507888
188	0xbc6d5f6c	-0.014488082
189	0xbc25693b	-0.01009589
190	0xbdd3db34	-0.10344544
191	0xbd09ea0a	-0.033670463
192	0x3daa717a	0.08322425
193	0x3c4f9c16	0.012671491
194	0x3c63cf43	0.0139043955
195	0x3d0d5768	0.034507185
196	0x3dcf39e6	0.10118465
197	0x3d5dff8a	0.05419878
198	0x3c5e7753	0.013578254
199	0xbd8f2227	-0.06988936
200	0x3da4dcfd	0.08049963
201	0x3c9c73ee	0.019098248
202	0x3d5411ac	0.051774666
203	0x3d015654	0.03157647
204	0x3d9a56e3	0.075361036
205	0xbd1137e8	-0.035453707
206	0x3c982e8d	0.018576885
207	0xbd68ec31	-0.056865875
208	0x3e254b6b	0.16142051
209	0x3dc48e59	0.09597463
210	0x3cc558cd	0.024090195
211	0x3cc137ad	0.023586119
212	0x3dfb1588	0.12259966
213	0x3d3171ab	0.043321293
214	0x3c51d77b	0.012807722
215	0x3d1947f7	0.037422147
216	0x3c2d777a	0.010587567
217	0xbd7ebc2a	-0.062191166
218	0xbd9d8a11	-0.0769235
219	0xbc4983cd	-0.01229949
220	0xbc5c29a1	-0.0134376595
221	0xbd7fcbe7	-0.062450316
222	0xbdb8fa3f	-0.09032106
223	0xbd4a246f	-0.049351152
224	0x3c8271a7	0.015923334
225	0x3d7d8068	0.061890036
226	0x3d42d611	0.04756743
227	0xbd3daf80	-0.046309948
228	0x3d96d622	0.07365061
229	0xbd9df54f	-0.077128045
230	0xbdc71e04	-0.09722522
231	0xbdc0f2f9	-0.09421343
232	0x3c6599fa	0.014013762
233	0xbd66e534	-0.05637093
234	0x3cf30ab2	0.029668186
235	0xbd88ad7b	-0.06673714
236	0x39bb3d2a	0.0003571299
237	0xbdf5f098	-0.1200878
238	0x3ce19777	0.027538044
239	0xbbd0f6d9	-0.006377083
240	0x3d299b9f	0.041408177
241	0xbdc1951b	-0.09452268
242	0x3cb936d3	0.02260915
243	0x3dc489e3	0.09596612
244	0x3c8c0a73	0.017094826
245	0xbd748bbd	-0.059703577
246	0xbca2b8ad	-0.01986345
247	0xbd79b237	-0.060960975
248	0x3cd40c1c	0.02588468
249	0x3dc70871	0.09718407
250	0x3d53b9f1	0.051691
251	0x3d30a020	0.043121457
252	0xbd7eaaaa	-0.062174477
253	0xbc073867	-0.008253193
254	0xbd8cb95e	-0.068712935
255	0xbdb5ab5a	-0.08870573

mid_part.1.bias f4 [12]
0	0x3bb25472	0.0054421956
1	0x3cc6a8c3	0.024250394
2	0x3d8cf4b2	0.068826094
3	0x3bfc42f0	0.0076984093
4	0x3d3da2f3	0.04629798
5	0xbd5507d1	-0.052009407
6	0xbd577e85	-0.052610893
7	0xbc8f7dba	-0.017516006
8	0xbbabb710	-0.0052403286
9	0xbcace27e	-0.021104094
10	0xbd9a4158	-0.075319946
11	0xbdbbfb45	-0.09178785

mid_part.2.weight f4 [12, 12, 3, 3]
0	0x3ddc65e5	0.10761622
1	0x3dcd91d8	0.10037583
2	0x3d811960	0.06303668
3	0xbdaa03e7	-0.083015256
4	0xbd085ae6	-0.033289813
5	0x3ccb276b	0.02479907
6	0xbd634c11	-0.055492464
7	0xbdde8109	-0.10864455
8	0xbd8af290	-0.067845464
9	0xbdca45a0	-0.09876561
10	0xbdc8c919	-0.09803981
11	0x3d0dc955	0.034615833
12	0xbdd6931b	-0.10477277
13	0x3d069eb0	0.03286618
14	0x3d89d5db	0.06730243
15	0x3c889da5	0.016676733
16	0xbd790574	-0.060796216
17	0x3d3e4644	0.04645373
18	0xbb1fc732	-0.0024380204
19	0x3dbfa451	0.09357513
20	0xbda557d9	-0.08073396
21	0xbbc2eefb	-0.005948899
22	0x3ca8fbe6	0.020627927
23	0xbd83d043	-0.06436207
24	0x3d757d38	0.05993387
25	0x3dc15e2f	0.09441792
26	0xbc945269	-0.018105702
27	0xbc9124e7	-0.017717792
28	0x3d015d47	0.031583097
29	0xbd99eae6	-0.075155064
30	0x3dd2303e	0.10263108
31	0x3d3a962b	0.045553368
32	0x3d1a1397	0.03761634
33	0xbdb2d193	-0.08731379
34	0x3d178043	0.036987554
35	0xbd233724	-0.039847508
36	0x3e09b6d2	0.13448647
37	0x3d077812	0.033073492
38	0x3a186e2c	0.0005814757
39	0xbc85d999	-0.01633911
40	0x3c63fcec	0.013915282
41	0x3d1d00ee	0.038330965
42	0xbcf176c3	-0.029475575
43	0x3dadc01d	0.08483908
44	0x3da50016	0.08056657
45	0xbb5f5e4f	-0.0034083312
46	0x3cf595ed	0.029978717
47	0x3dbcc71b	0.09217664
48	0x3d4805c4	0.048833624
49	0x3dbf9949	0.09355409
50	0xbd83b5a3	-0.06431129
51	0x3d273804	0.040824905
52	0xbcf3cc57	-0.029760523
53	0x3dac37b1	0.0840906
54	0x3c54d7f6	0.012990942
55	0x39572654	0.00020518276
56	0x3d1bed7d	0.038068283
57	0xbdd49643	-0.10380223
58	0xbde5598e	-0.11198722
59	0x3c9fc082	0.019500975
60	0xbc9c3f15	-0.019073049
61	0x3d9f787d	0.07786653
62	0x3dce06f6	0.100599214
63	0xbce145d9	-0.027499126
64	0x3c2566d4	0.010095317
65	0xbb2adc14	-0.0026071118
66	0xbd8cebc5	-0.06880907
67	0xbd759d13	-0.05996425
68	0x3bf077e8	0.0073385127
69	0x3dc15288	0.0943957
70	0x3d0463ed	0.03232186
71	0xbd7c22c5	-0.061556596
72	0x3d6063dc	0.054782733
73	0x3ce8b742	0.028407697
74	0xbdb8d58a	-0.09025104
75	0xbd02e0ba	-0.031952597
76	0x3d21c06e	0.039490156
77	0xbc8156d8	-0.01578848
78	0xbda2e68a	-0.07954128
79	0xbc8bb46f	-0.01705381
80	0x3da5ee62	0.081021085
81	0xbd81ccc9	-0.06337888
82	0xbdc6c2ff	-0.09705161
83	0x3cde1ca7	0.027113272
84	0xbd98db1f	-0.07463669
85	0xbc9fdae0	-0.019513547
86	0xbdcc50fe	-0.099763855
87	0xbd1acf6a	-0.03779546
88	0xbda9819e	-0.08276676
89	0xbda88677	-0.08228772
90	0x3dad4064	0.08459547
91	0x3dc316d2	0.09525837
92	0xbd28effb	-0.04124449
93	0xbd1efb28	-0.03881374
94	0xbda3855c	-0.07984421
95	0x3d40b32d	0.047045875
96	0x3d7ce2ad	0.061739612
97	0xbd55a1f6	-0.05215641
98	0x3d8d937d	0.06912897
99	0x3d934dc8	0.0719257
100	0x3cde5c85	0.027143726
101	0xbc5c088f	-0.013429775
102	0x3dacf327	0.08444815
103	0xbd427b76	-0.047481023
104	0xbbca0b6a	-0.0061659114
105	0xbb2c50c2	-0.0026293253
106	0xbd9007eb	-0.0703276
107	0x3d4fbaf1	0.05071539
108	0x3ec5a2b5	0.38600698
109	0x3e82be7c	0.25535953
110	0xbccf53af	-0.025308458
111	0xbe5700af	-0.20996355
112	0xbeaf9257	-0.34291336
113	0xbf04782f	-0.51745886
114	0x3ca36fce	0.019950774
115	0x3e0b6fc9	0.13616861
116	0x3deb0208	0.11474997
117	0xbdf27904	-0.11839488
118	0xbb40926c	-0.002938415
119	0x3b53fec9	0.0032347909
120	0xbe0c5095	-0.13702615
121	0x3d14a7a5	0.03629269
122	0xbbdfb9b5	-0.006827558
123	0xbd521ddd	-0.05129801
124	0x3e46759d	0.19380803
125	0x3d787d54	0.060666397
126	0x3c6d19ee	0.014471514
127	0x3dfecebd	0.12441776
128	0xbd86953b	-0.06571432
129	0x3d2f4fc4	0.04280068
130	0x3c793030	0.015209243
131	0xbcd9edae	-0.026602592
132	0x3c60b058	0.013713919
133	0xbdb79d68	-0.0896557
134	0xbdc0660d	-0.09394465
135	0x3e62ed1a	0.2216076
136	0xbc8bbcc9	-0.017057793
137	0x3dfcbeb5	0.12341062
138	0x3dfd307b	0.123627625
139	0xbecb5139	-0.39710405
140	0x3e54160f	0.2071154
141	0x3e2064a5	0.15663393
142	0xbe530f27	-0.20611249
143	0x3e968676	0.2939946
144	0x3e4eef00	0.20208359
145	0x3d5e46c7	0.054266717
146	0xbe12ee39	-0.14348687
147	0x3d375c2e	0.044765644
148	0xbdb323eb	-0.08747085
149	0xbe0fa3c7	-0.1402732
150	0x3d42fd70	0.047604978
151	0xbd20827b	-0.039186936
152	0xbe451045	-0.19244488
153	0x3e1664c1	0.14686872
154	0x3dc67dad	0.096919395
155	0x3c0c8b80	0.008578181
156	0x3e26c7aa	0.16287103
157	0xbd886ec1	-0.0666175
158	0xbdca82ae	-0.098882064
159	0xbd20569e	-0.039145105
160	0x3ca3e88a	0.020008344
161	0xbdbf28c2	-0.09333946
162	0xbe4529a2	-0.19254163
163	0xbdd9d6d7	-0.106366806
164	0x3d59a28c	0.053133532
165	0xbd8ad850	-0.067795396
166	0x3d74f14e	0.05980044
167	0x3d9fe4e5	0.0780733
168	0x3dcd71a9	0.100314446
169	0x3e11d63f	0.14241885
170	0xbbee1549	-0.007265721
171	0xbc5088b3	-0.012727904
172	0x3c9617ad	0.018321836
173	0xbd589e10	-0.052885115
174	0x3cf0fc8d	0.0294173
175	0x3d5ccfb9	0.053909037
176	0x3b5dbd71	0.003383484
177	0x3c9cda94	0.019147195
178	0xbdb6be4a	-0.089230135
179	0xbadf14c9	-0.0017019744
180	0x3d250398	0.04028663
181	0x3cce5cd7	0.025190754
182	0x3c8f76f2	0.017512772
183	0x3ba80c96	0.0051284535
184	0xbd16850a	-0.03674797
185	0x3dfcf542	0.12351467
186	0x3d7b580b	0.06136326
187	0x3e0a01ea	0.13477293
188	0x3dce27dc	0.10066196
189	0xbdd04b89	-0.10170657
190	0xbd8c269d	-0.068433024
191	0xbd3e7b6f	-0.046504434
192	0xbdd9129b	-0.10599252
193	0xba54f7fc	-0.0008124111
194	0x3df01675	0.11723033
195	0xbd5ef180	-0.05442953
196	0xbc03453e	-0.008012114
197	0x3e4a6692	0.1976569
198	0x3da0c1b7	0.07849448
199	0xbc63c235	-0.013901283
200	0xbd46fed7	-0.048582878
201	0x3c692776	0.0142306
202	0xbd5621c3	-0.05227829
203	0x3a2338a7	0.00062263984
204	0xbdf1c221	-0.11804605
205	0x3c01199b	0.00787964
206	0xbd6d91e9	-0.05800048
207	0xbd4d039d	-0.050052274
208	0xbd444fb2	-0.047927566
209	0x3de0bd2d	0.109735824
210	0xbd2c3949	-0.04204682
211	0x3c7499ba	0.014929229
212	0x3df5d576	0.12003605
213	0x3c3410c7	0.010990328
214	0x3d4b7bb4	0.04967852
215	0x3d647706	0.055777572
216	0x3bb12e22	0.005407111
217	0xbdf69a6e	-0.12041174
218	0xbd8dbfd3	-0.06921353
219	0xbe277231	-0.16352154
220	0xbe18e7e7	-0.14932214
221	0x3bdea1f3	0.006794208
222	0x3e55d3cc	0.20881575
223	0x3d95e0b9	0.07318253
224	0x3db863ee	0.09003435
225	0x3d3ca0ba	0.04605172
226	0x3d8c1992	0.06840815
227	0xbccd48bd	-0.025059098
228	0xbd4173ea	-0.047229685
229	0x3de54fb0	0.1119684
230	0xbda53484	-0.08066657
231	0xbc265f2b	-0.010154526
232	0xbb425e5c	-0.0029658293
233	0xbcb0bbeb	-0.021573981
234	0xbe020386	-0.12696657
235	0xbd6eb539	-0.058278296
236	0xbdbaa2b6	-0.09113066
237	0x3c57d92e	0.013174338
238	0x3d15f374	0.036609128
239	0x3d975d09	0.07390792
240	0xbd7dac5e	-0.06193196
241	0x3c57ab2f	0.013163372
242	0x3c13749d	0.008999971
243	0xbdb902ae	-0.09033714
244	0x3c809080	0.015693903
245	0x3e052c15	0.13005097
246	0xbdf72607	-0.120678
247	0x3dbe42a8	0.092900574
248	0x3d227db9	0.03967068
249	0x3c49a612	0.012307661
250	0xbc8a4480	-0.016878366
251	0x3d3d4ae6	0.046214007
252	0xbdb3edf2	-0.08785619
253	0x3b8e649d	0.00434549
254	0xbd5a0318	-0.053225607
255	0xbdfff2c9	-0.124974795

mid_part.2.bias f4 [12]
0	0x3dd83bd0	0.10558283
1	0x3ddadc44	0.106865436
2	0x3cb6425e	0.022248443
3	0xbd70d0ce	-0.05879288
4	0xbdf42b2c	-0.11922297
5	0xbd66cd60	-0.056348205
6	0xbdd1f23b	-0.1025128
7	0xbcecbb53	-0.028897917
8	0x3dceb5ad	0.10093246
9	0xbab2ed6a	-0.0013651077
10	0x3d041f6a	0.03225652
11	0xbdac7f28	-0.08422691

mid_part.3.weight f4 [12, 12, 3, 3]
0	0x3d50f119	0.05101118
1	0x3d849d3b	0.06475302
2	0xbce8ea45	-0.02843202
3	0x3d012c81	0.031536583
4	0x3dacfc76	0.084465906
5	0xbd7808de	-0.06055533
6	0x3db12761	0.08650089
7	0xbd6e03c8	-0.058109075
8	0xbda974e2	-0.08274247
9	0xbcc5ca03	-0.024144178
10	0xbd06f2b2	-0.032946296
11	0xbb99afa3	-0.004690127
12	0xbb726af0	-0.003699001
13	0x3d5db93f	0.054131743
14	0x3d2a9809	0.0416489
15	0x3d38c6be	0.04511141
16	0x3d23dd92	0.040006228
17	0x3d900b22	0.070333734
18	0xbcbbb40e	-0.022913005
19	0xbc5d26e5	-0.013498043
20	0xbdb7905b	-0.089630805
21	0xbb5a3528	-0.0033295844
22	0xbda3f928	-0.08006507
23	0xbcff1429	-0.031137543
24	0x3dd4e82a	0.10395844
25	0x3c628a7b	0.013826962
26	0x3cd71442	0.026254777
27	0xbd294ae4	-0.041331187
28	0xbd3293ed	-0.043598104
29	0x3d922eef	0.07137858
30	0x3c1fbcdf	0.00974962
31	0xbd169e17	-0.03677186
32	0xbd8f2472	-0.06989373
33	0x3d258176	0.040406667
34	0xbddd9d2c	-0.10820994
35	0x3d834fa8	0.064116776
36	0xbda1bd70	-0.078974605
37	0xbd66122e	-0.05616968
38	0x3d8d1296	0.068883106
39	0xbd82fb92	-0.063956395
40	0x3c5af910	0.013365045
41	0x3ab23f91	0.0013599267
42	0xbd93d709	-0.07218749
43	0x3cb34ef9	0.021888243
44	0xbd9b0c1d	-0.0757067
45	0x3dac619f	0.08417057
46	0xbb09bcb3	-0.0021017015
47	0x3d86ba39	0.06578488
48	0x3dc07809	0.09397895
49	0x3d05fc7f	0.032711502
50	0x3cc7e46e	0.024400916
51	0x3dbea360	0.09308505
52	0xbd7b453f	-0.061345335
53	0xbde9bdc7	-0.1141315
54	0xbcec99fd	-0.028882021
55	0x3cee38f3	0.02907989
56	0x3da13e74	0.0787324
57	0x3d363392	0.044482775
58	0xbc93a6dc	-0.0180239
59	0x3ce7e764	0.028308578
60	0x3db48f9c	0.08816454
61	0xbc7a5758	-0.015279613
62	0xbb8d3489	-0.004309241
63	0xbd9e406c	-0.07727131
64	0x3cb4d90d	0.022076154
65	0xbdc49649	-0.09598977
66	0xbd6420a7	-0.055695202
67	0xbd3d9674	-0.04628606
68	0x3e13b959	0.14426173
69	0x3c88af16	0.01668505
70	0xbd980e08	-0.07424551
71	0xbdf4a9a1	-0.11946417
72	0x3d236daa	0.039899506
73	0xbc8c91e1	-0.017159404
74	0xbd894baf	-0.067038886
75	0x3d571a66	0.05251541
76	0x3c5d6f8b	0.013515363
77	0xbda5e58c	-0.08100423
78	0xbdb74555	-0.08948771
79	0xbb291dae	-0.0025805044
80	0xbd7a3681	-0.061087135
81	0xbd89fbe1	-0.06737495
82	0xbd864446	-0.06555991
83	0xbd303172	-0.043015905
84	0x3de06252	0.10956253
85	0x3cc76372	0.024339411
86	0x3d876f2a	0.06613
87	0x3dd6f89d	0.10496638
88	0xbd9ea815	-0.07746903
89	0xbd994d53	-0.074854515
90	0x3d907d1f	0.07055115
91	0x3d6c57c4	0.057700887
92	0x3d2cc2ce	0.042177968
93	0x3d878874	0.06617823
94	0xbb25fc75	-0.0025327478
95	0x3d422f26	0.047408246
96	0x3bcd9898	0.006274294
97	0x3d5f3d88	0.05450204
98	0x3d52ed23	0.051495682
99	0xbc54d3a1	-0.012989909
100	0xbd7ab0d9	-0.06120381
101	0x3dcb9934	0.099413306
102	0xbdfdf802	-0.12400819
103	0xbb7f97eb	-0.0039000462
104	0x3e24b296	0.1608375
105	0xbd54228a	-0.05179075
106	0xbcbebee8	-0.02328439
107	0x3e1c6eec	0.15276688
108	0xbd94f4fb	-0.07273289
109	0xbd818fdf	-0.06326269
110	0xbcb5610b	-0.022141
111	0xbdaefec6	-0.08544688
112	0xbde8d68b	-0.11369046
113	0x3d8d679c	0.069045275
114	0xbd247647	-0.04015186
115	0xbdebfae8	-0.11522466
116	0xbbc4b114	-0.0060025547
117	0x3cbb6612	0.02287582
118	0x3dbdf219	0.09274692
119	0x3d95cc27	0.073143296
120	0x3d527786	0.051383518
121	0xbdb3889b	-0.0876629
122	0x3d5116cc	0.05104713
123	0xbd933ffc	-0.071899384
124	0xbca7680d	-0.020435357
125	0x3d6df85d	0.058098186
126	0xbcdf20da	-0.027237345
127	0x3d9586dc	0.07301113
128	0x3be50daf	0.0069901566
129	0xbd1cca55	-0.038278896
130	0xbcddaa16	-0.027058642
131	0xbd19c4a0	-0.03754103
132	0x3d1e7350	0.03868419
133	0x3cf0c660	0.029391468
134	0xbd13c838	-0.036079615
135	0x3cb8fe57	0.022582216
136	0xbc6188c5	-0.013765519
137	0xbd3eb6bf	-0.046561
138	0xbdce6390	-0.10077584
139	0xbce6db57	-0.028180761
140	0x3dbfdcf0	0.09368312
141	0xbda24138	-0.07922596
142	0xbdb7e73a	-0.0897965
143	0x3d7f23db	0.062290054
144	0xbda87705	-0.08225826
145	0xbd270fe2	-0.04078663
146	0xbd8fd7b6	-0.070235655
147	0xbc0f7b96	-0.0087574925
148	0xbd9a9ac1	-0.07549048
149	0x3d24dc3c	0.040249094
150	0xbc176434	-0.009240199
151	0x3d210256	0.03930887
152	0xbca20168	-0.019776061
153	0x3db63128	0.088960946
154	0xbc5394e0	-0.012913913
155	0xbd4908f5	-0.049080808
156	0x3d484dff	0.048902508
157	0x3d0c6ccc	0.034283444
158	0xbd06d07c	-0.03291367
159	0x3d48b3d0	0.048999608
160	0xbdb0067d	-0.085949875
161	0x3cf0bd3f	0.029387115
162	0x3d3bc0ad	0.045838047
163	0x3d535216	0.051591955
164	0x3c85041b	0.01623731
165	0x3db3e39f	0.0878365
166	0x3dacd8e6	0.084398076
167	0x3d87f856	0.06639163
168	0x3c405d87	0.011741049
169	0xbd253e10	-0.04034239
170	0xbdad8ad1	-0.08473743
171	0xbde24524	-0.11048344
172	0x3db8e0c4	0.09027246
173	0x3d92a0b5	0.07159559
174	0xbc9e2d5b	-0.019308737
175	0x3cfbab71	0.030721398
176	0xbd3498e2	-0.044091113
177	0x3d7520e2	0.059845813
178	0x3da0f7af	0.07859742
179	0xbd96cede	-0.073636755
180	0x3bf018ea	0.0073271887
181	0x3d55f21b	0.052232843
182	0xbd9c1fed	-0.07623277
183	0x3d25f95b	0.040521007
184	0xbdb65554	-0.08902994
185	0xbd145bbb	-0.036220293
186	0xbd4560b8	-0.04818794
187	0xbdbd1e05	-0.092342414
188	0xbd878bf8	-0.06618494
189	0xbd80caca	-0.06288679
190	0x3d98d2ad	0.07462058
191	0xbbc9d851	-0.00615982
192	0xbc9f960a	-0.019480724
193	0x3d59031c	0.05298148
194	0x3d80c62a	0.06287797
195	0xbdbdf0f2	-0.09274472
196	0x3d6f67c5	0.05844857
197	0xbdacf5cf	-0.08445322
198	0x3d7067a6	0.058692597
199	0xbdcefbfa	-0.101066545
200	0xbda85af2	-0.082204714
201	0x3d57f9c9	0.052728448
202	0x3cb0b10f	0.021568803
203	0xbd160f96	-0.036635958
204	0x3d089d27	0.033352997
205	0xbda56e71	-0.08077706
206	0x3a3adfc4	0.00071286806
207	0xbd086900	-0.03330326
208	0x3b984452	0.0046468163
209	0x3d2ad61a	0.04170809
210	0x3c77b88e	0.015119685
211	0xbd798b95	-0.06092413
212	0xbd5b86cf	-0.05359536
213	0x3d68bffc	0.056823716
214	0xbd239543	-0.03993727
215	0x3d3f3e71	0.04669041
216	0x3d1953b2	0.037433334
217	0xbd930107	-0.0717793
218	0x3d9db6a4	0.077008516
219	0x3d59d663	0.05318297
220	0x3dd04857	0.10170048
221	0x3cb31a39	0.02186309
222	0x3d4653c2	0.04841972
223	0x3d06cf29	0.032912407
224	0x3d66602b	0.056244057
225	0xbd4bf580	-0.049794674
226	0xbd7970a6	-0.060898446
227	0x3c84bc80	0.016203165
228	0xbdb354d1	-0.08756412
229	0x3d6f4a5b	0.05842052
230	0x3daecf95	0.08535687
231	0xbaa7f6f3	-0.0012814685
232	0x3da8613c	0.08221671
233	0x3d96bcdb	0.0736024
234	0xbd5758da	-0.05257497
235	0xbcbebeac	-0.023284279
236	0xbd815496	-0.063149616
237	0xbcd7900d	-0.026313806
238	0xbdb52f14	-0.0884687
239	0x3d1f0f46	0.038832925
240	0x3c27229b	0.010201122
241	0xbd265c89	-0.040615592
242	0xbd8d051a	-0.06885739
243	0x3bd7b4a8	0.006582815
244	0x3d6ccd05	0.05781271
245	0x3da195ae	0.07889877
246	0xbd274f4a	-0.0408471
247	0x3c9e0dc3	0.019293671
248	0xbdc64e49	-0.096829005
249	0x3d94ae24	0.07259777
250	0x3d84e710	0.06489384
251	0xb9bedb26	-0.00036402902
252	0xbd525ff7	-0.05136105
253	0x3d798678	0.060919255
254	0xbdc1b7ca	-0.09458883
255	0x3d5f1a13	0.054468226

mid_part.3.bias f4 [12]
0	0x3d77424f	0.06036597
1	0x3ce659ce	0.028118994
2	0xbca6a8a5	-0.020344088
3	0xbd8b6922	-0.06807162
4	0x3b29bc63	0.002589964
5	0x3cf1659f	0.029467402
6	0x3d179c9f	0.0370146
7	0x3d3a3875	0.045463998
8	0x3d9c7c88	0.0764094
9	0xbcbb36cf	-0.022853283
10	0xbd2ffb27	-0.042964127
11	0xbdaebc5e	-0.08532022

mid_part.4.weight f4 [12, 12, 3, 3]
0	0xbd8d9bfa	-0.06914516
1	0xbd38889b	-0.045052152
2	0x3b059543	0.0020383156
3	0x3a8778f2	0.0010335727
4	0x3d2c1dbc	0.042020544
5	0x3d2ca773	0.04215188
6	0xbd723a1a	-0.05913744
7	0x3db58ce3	0.08864763
8	0xbd5ae622	-0.053442128
9	0x3da3972b	0.079878174
10	0xbd074aac	-0.033030197
11	0xbd71e064	-0.059051886
12	0xbda09f12	-0.0784284
13	0xbd8afb87	-0.06786256
14	0xbd0454c6	-0.03230741
15	0xbd29de50	-0.04147178
16	0xbd31bf23	-0.043395173
17	0xbcd7576b	-0.026286801
18	0xbce795f6	-0.02826975
19	0x3d20768a	0.039175548
20	0x3d4a002e	0.049316578
21	0x3dcdbf83	0.100462936
22	0xbd690364	-0.056888
23	0x3d694ce4	0.056958094
24	0xbd32010a	-0.043458022
25	0x3ca17b46	0.019712102
26	0x3d23fc0a	0.040035285
27	0x3dbe6450	0.09296477
28	0xbc8bc1bf	-0.017060159
29	0x3dce86c7	0.100843005
30	0x3ce97948	0.028500214
31	0xbdad6212	-0.08465971
32	0x3d0d54a1	0.034504537
33	0xbdabcb0d	-0.08388338
34	0xbd5c99b2	-0.053857513
35	0x3a8824c5	0.0010386935
36	0x3db23733	0.08701935
37	0xbc3b3cf8	-0.01142811
38	0xbd9bd295	-0.07608525
39	0x3da58d99	0.08083648
40	0x3cc5ac25	0.024129936
41	0x3dc39534	0.095499426
42	0xbd5bd700	-0.053671837
43	0x3c41451a	0.01179626
44	0xbd650615	-0.055914003
45	0xba276d12	-0.0006386797
46	0x3bd0291a	0.006352556
47	0xbd99284c	-0.07478389
48	0xbd896a1c	-0.06709692
49	0x3d446e23	0.047956597
50	0xbd9e25e6	-0.07722072
51	0xbe1d812c	-0.15381306
52	0xbd953ae8	-0.07286626
53	0xbd8fb652	-0.07017197
54	0xbd88fbc1	-0.06688643
55	0x3d91f798	0.07127303
56	0x3dbc1c7e	0.09185122
57	0x3dc34e6d	0.09536443
58	0x3dddb54a	0.10825594
59	0x3ce60757	0.028079672
60	0xbd103d24	-0.03521456
61	0x3dd882e1	0.10571838
62	0x3ccbb900	0.024868488
63	0x3d8ff12f	0.07028424
64	0xbd9f13df	-0.07767462
65	0x3d281f53	0.041045498
66	0xbc1251e4	-0.008930657
67	0x3d7b53f8	0.061359376
68	0x3d208079	0.03918502
69	0xbdbda822	-0.092605844
70	0x3d4dbaa6	0.05022683
71	0xbd1de888	-0.038551837
72	0x3db030bf	0.086030476
73	0x3d33633b	0.043795805
74	0xbda4adc0	-0.08040953
75	0x3c827781	0.015926125
76	0x3c08b04a	0.008342812
77	0x3ddb0d31	0.106958754
78	0x3dc62231	0.0967449
79	0xbd8d00ff	-0.068849556
80	0xbd400378	-0.046878308
81	0x3d6cb82e	0.057792835
82	0xbc6442fe	-0.013931988
83	0x3d957b03	0.07298853
84	0xbd8db1c7	-0.06918674
85	0xbd2b9409	-0.041889224
86	0xbc61b1af	-0.013775273
87	0xbdda892f	-0.10670697
88	0x3dad14fe	0.084512696
89	0x3dafc138	0.085817754
90	0xbccfc724	-0.025363512
91	0xbcfba05b	-0.030716112
92	0xbdfb928d	-0.12283812
93	0xbcb7f1e3	-0.022454208
94	0xbc15841a	-0.009125734
95	0x3d0e74eb	0.03477947
96	0x3cb50c0c	0.022100471
97	0x3d55d639	0.05220625
98	0xbc6fcf2b	-0.014636795
99	0xbbf44500	-0.0074545145
100	0x3c180f66	0.009281015
101	0xbdb63f84	-0.088988334
102	0xbd822d21	-0.06356264
103	0xbddc074d	-0.1074358
104	0xbd1da2e1	-0.03848541
105	0x3d119545	0.035542745
106	0x3be29388	0.0069145598
107	0xbd27c57b	-0.040959816
108	0x3ab0c22b	0.0013485601
109	0xbe0c482f	-0.13699411
110	0xbd014bcf	-0.031566437
111	0xbcd11f95	-0.025527755
112	0xbd704a26	-0.058664463
113	0x3e283d24	0.16429573
114	0x3d85354d	0.06504307
115	0xbc959df0	-0.018263787
116	0xbd81e867	-0.06343155
117	0xbd393434	-0.0452158
118	0x3d1e983e	0.03871941
119	0xbd97a36e	-0.074042186
120	0x3bcc79b0	0.006240092
121	0xbd019c95	-0.03164347
122	0x3d8d3f69	0.0689686
123	0x3d8adcf8	0.06780428
124	0xbd093e32	-0.03350658
125	0x3d6a09bf	0.0571382
126	0xbd87b52c	-0.06626353
127	0xbd0e0e5d	-0.034681667
128	0x3db17b58	0.08666104
129	0xbd2181e5	-0.039430518
130	0x3e0ecad6	0.13944563
131	0x3d40d365	0.0470766
132	0xbd3a5e85	-0.045500297
133	0xbc25d16d	-0.010120732
134	0xbc544ff2	-0.012958514
135	0xbe1dcb49	-0.15409578
136	0xbd57fe22	-0.052732594
137	0xbcdb0528	-0.026735857
138	0xbdde729a	-0.10861702
139	0x3e07084f	0.13186763
140	0xbd9a8727	-0.075453095
141	0x3e0d5e30	0.13805461
142	0x3dfd9a8f	0.12382995
143	0xbe51be5b	-0.20482771
144	0xbc7c0db8	-0.01538413
145	0xbde882bd	-0.11353061
146	0x3d227b90	0.03966862
147	0xbd53b2b1	-0.051684085
148	0xbd9ed2ce	-0.077550516
149	0x38a2f2c2	7.769979e-05
150	0xbd8b4de4	-0.06801966
151	0xbe14e269	-0.14539494
152	0xbd106dc8	-0.035260946
153	0x3e1e161a	0.15438119
154	0x3ddd2e9d	0.107999064
155	0xbc972169	-0.018448548
156	0x3d8bd5b9	0.06827874
157	0xbd9b2c84	-0.0757685
158	0x3d8119eb	0.063037716
159	0xbe09bd3a	-0.1345109
160	0xbe1b8d0c	-0.15190524
161	0xbe074a8f	-0.13212036
162	0xbdf42e73	-0.11922922
163	0xbd5cca4a	-0.053903855
164	0xbcf3e730	-0.029773325
165	0x3b8ba24a	0.0042612897
166	0xbd448ba5	-0.047984738
167	0x3b016084	0.0019741366
168	0x3cf8bf3c	0.030364625
169	0x3d1bcb91	0.038035933
170	0x3d089d00	0.033352852
171	0x3deffb91	0.11717904
172	0x3ceeecd0	0.029165655
173	0x3cf206d0	0.029544264
174	0x3d82f46c	0.06394276
175	0xbe67a321	-0.22620822
176	0x3e1e30aa	0.15448251
177	0xbd648b3c	-0.055796847
178	0xbe923ae2	-0.2856055
179	0xbcff43ec	-0.031160317
180	0xbd02ab20	-0.03190148
181	0x3d65bc45	0.05608775
182	0xbda46dc8	-0.080287516
183	0xbcc960e8	-0.024582341
184	0x3c3a525e	0.011372177
185	0xbe21388e	-0.1574423
186	0x3db79ffd	0.08966062
187	0xbddf010e	-0.10888873
188	0xbd64a6dc	-0.055823192
189	0xbe88aefa	-0.26695997
190	0x3d930f0a	0.07180603
191	0xbe01692b	-0.12637775
192	0xbdc264d3	-0.09491887
193	0x3e0c602a	0.13708559
194	0xbd343d19	-0.04400358
195	0x3b598cdc	0.003319553
196	0xbdcd2a9e	-0.10017894
197	0x3b00ea66	0.0019670962
198	0xbdb09d05	-0.08623699
199	0xbdbb69a8	-0.09151012
200	0x3dbdf9ce	0.09276162
201	0x3d6953a1	0.05696452
202	0x3e10afc3	0.14129548
203	0x3d17a8e7	0.037026312
204	0x3df094de	0.11747144
205	0x3d216d4b	0.03941087
206	0xbd126af4	-0.03574653
207	0xbcaccd5f	-0.021094022
208	0x3e24f076	0.16107354
209	0x3cbf44bf	0.02334821
210	0x3df91de4	0.12163904
211	0x3d816317	0.06317728
212	0x3ddcc18f	0.10779106
213	0xbdd08fda	-0.101836875
214	0xbd4d7276	-0.050157987
215	0x3d48ae58	0.048994392
216	0xbd6c4ea3	-0.05769218
217	0x3c3e1f87	0.011604196
218	0x3d88e25b	0.06683799
219	0xbda2f5a8	-0.079570115
220	0x3e0232b6	0.12714657
221	0x3d076ccf	0.033062752
222	0xbdb2fc1e	-0.08739494
223	0x3e1d71b7	0.1537541
224	0xbad92139	-0.0016565687
225	0x3b567089	0.0032720885
226	0xbd862adf	-0.06551146
227	0x3d3397ec	0.043846056
228	0xbb8a39c8	-0.004218314
229	0xbd194313	-0.037417483
230	0xbd99c501	-0.07508279
231	0x3c8bce60	0.01706618
232	0xbde3645d	-0.11103127
233	0xbcba4482	-0.022737745
234	0xbd35d508	-0.044392616
235	0x3d12549e	0.03572523
236	0xbc373359	-0.011181676
237	0xbc3c158a	-0.011479745
238	0x3d308ff0	0.04310602
239	0xbb644084	-0.0034828493
240	0xbbffb555	-0.007803599
241	0x3e044b25	0.1291929
242	0x3c8ef6bc	0.017451636
243	0xbcad8f03	-0.021186357
244	0xbd23385b	-0.039848667
245	0xbcbc1eff	-0.022963999
246	0xbe04ebaf	-0.12980531
247	0xbc05f6df	-0.008176534
248	0xbdce336e	-0.10068403
249	0xbb930d14	-0.004487643
250	0x3d0c8931	0.034310523
251	0x3dcd3360	0.10019565
252	0x3c716e04	0.014735702
253	0xbdba1b84	-0.090872794
254	0xbd73c096	-0.059509836
255	0xbdd41f13	-0.103574894

mid_part.4.bias f4 [12]
0	0x3d19ee9a	0.037581064
1	0x39bbe534	0.0003583819
2	0xb9bde1cf	-0.0003621713
3	0x3cb03dcf	0.021513848
4	0xbda60840	-0.08107042
5	0xbda859cc	-0.082202524
6	0xbc923501	-0.01784754
7	0xbd699117	-0.057023134
8	0x3d9487b6	0.07252447
9	0xbcbfd955	-0.023419062
10	0x3df85f83	0.121275924
11	0x3d8243f1	0.06360615
